// Generated by tests/generate_torch_transformer_fixtures.sh
// Source: tests/torch_transformer.py --mode mlir --encoder-layers 2 --decoder-layers 1
// Pipeline: torch-mlir-opt --torch-backend-to-linalg-on-tensors-backend-pipeline
#map = affine_map<(d0, d1) -> (d0, d1)>
#map1 = affine_map<(d0, d1) -> (d1)>
#map2 = affine_map<(d0, d1, d2, d3) -> (d0, d1, d2, d3)>
#map3 = affine_map<(d0, d1, d2, d3) -> (d0, d1, d2)>
#map4 = affine_map<(d0, d1, d2, d3) -> (d0, d1, d2, 0)>
#map5 = affine_map<(d0, d1, d2) -> (d0, d1, d2)>
#map6 = affine_map<(d0, d1, d2) -> (d0, d1, 0)>
#map7 = affine_map<(d0, d1, d2) -> (d2)>
#map8 = affine_map<(d0) -> (d0)>
#map9 = affine_map<(d0, d1) -> (d0, 0)>
#map10 = affine_map<(d0, d1) -> (0, d1)>
module {
  func.func @forward(%arg0: tensor<1x3x4xf32>, %arg1: tensor<1x3x4xf32>) -> tensor<1x3x4xf32> {
    %cst = arith.constant dense_resource<torch_tensor_12_4_torch.float32> : tensor<12x4xf32>
    %c4_i64 = arith.constant 4 : i64
    %c0_i64 = arith.constant 0 : i64
    %cst_0 = arith.constant 0.000000e+00 : f32
    %c12_i64 = arith.constant 12 : i64
    %cst_1 = arith.constant 0xFF800000 : f32
    %cst_2 = arith.constant 0.000000e+00 : f64
    %false = arith.constant false
    %cst_3 = arith.constant 1.000000e+00 : f32
    %cst_4 = arith.constant 5.000000e-01 : f32
    %c48_i64 = arith.constant 48 : i64
    %cst_5 = arith.constant 1.000000e-05 : f64
    %cst_6 = arith.constant 0xFFF0000000000000 : f64
    %cst_7 = arith.constant 0.8408964152537145 : f64
    %cst_8 = arith.constant 4.000000e+00 : f64
    %cst_9 = arith.constant 4.000000e+00 : f32
    %cst_10 = arith.constant 1.41421354 : f32
    %cst_11 = arith.constant dense_resource<torch_tensor_12_torch.float32> : tensor<12xf32>
    %cst_12 = arith.constant dense_resource<torch_tensor_4_4_torch.float32> : tensor<4x4xf32>
    %cst_13 = arith.constant dense_resource<torch_tensor_4_torch.float32> : tensor<4xf32>
    %cst_14 = arith.constant dense_resource<torch_tensor_4_torch.float32_1> : tensor<4xf32>
    %cst_15 = arith.constant dense_resource<torch_tensor_4_torch.float32_2> : tensor<4xf32>
    %cst_16 = arith.constant dense_resource<torch_tensor_8_4_torch.float32> : tensor<8x4xf32>
    %cst_17 = arith.constant dense_resource<torch_tensor_8_torch.float32> : tensor<8xf32>
    %cst_18 = arith.constant dense_resource<torch_tensor_4_8_torch.float32> : tensor<4x8xf32>
    %cst_19 = arith.constant dense_resource<torch_tensor_4_torch.float32_3> : tensor<4xf32>
    %cst_20 = arith.constant dense_resource<torch_tensor_4_torch.float32_4> : tensor<4xf32>
    %cst_21 = arith.constant dense_resource<torch_tensor_4_torch.float32_5> : tensor<4xf32>
    %cst_22 = arith.constant dense_resource<torch_tensor_12_4_torch.float32_1> : tensor<12x4xf32>
    %cst_23 = arith.constant dense_resource<torch_tensor_12_torch.float32_1> : tensor<12xf32>
    %cst_24 = arith.constant dense_resource<torch_tensor_4_4_torch.float32_1> : tensor<4x4xf32>
    %cst_25 = arith.constant dense_resource<torch_tensor_4_torch.float32_6> : tensor<4xf32>
    %cst_26 = arith.constant dense_resource<torch_tensor_4_torch.float32_7> : tensor<4xf32>
    %cst_27 = arith.constant dense_resource<torch_tensor_4_torch.float32_8> : tensor<4xf32>
    %cst_28 = arith.constant dense_resource<torch_tensor_8_4_torch.float32_1> : tensor<8x4xf32>
    %cst_29 = arith.constant dense_resource<torch_tensor_8_torch.float32_1> : tensor<8xf32>
    %cst_30 = arith.constant dense_resource<torch_tensor_4_8_torch.float32_1> : tensor<4x8xf32>
    %cst_31 = arith.constant dense_resource<torch_tensor_4_torch.float32_9> : tensor<4xf32>
    %cst_32 = arith.constant dense_resource<torch_tensor_4_torch.float32_10> : tensor<4xf32>
    %cst_33 = arith.constant dense_resource<torch_tensor_4_torch.float32_11> : tensor<4xf32>
    %cst_34 = arith.constant dense_resource<torch_tensor_4_torch.float32_12> : tensor<4xf32>
    %cst_35 = arith.constant dense_resource<torch_tensor_4_torch.float32_13> : tensor<4xf32>
    %cst_36 = arith.constant dense_resource<torch_tensor_12_4_torch.float32_2> : tensor<12x4xf32>
    %cst_37 = arith.constant dense_resource<torch_tensor_12_torch.float32_2> : tensor<12xf32>
    %cst_38 = arith.constant dense_resource<torch_tensor_4_4_torch.float32_2> : tensor<4x4xf32>
    %cst_39 = arith.constant dense_resource<torch_tensor_4_torch.float32_14> : tensor<4xf32>
    %cst_40 = arith.constant dense_resource<torch_tensor_4_torch.float32_15> : tensor<4xf32>
    %cst_41 = arith.constant dense_resource<torch_tensor_4_torch.float32_16> : tensor<4xf32>
    %cst_42 = arith.constant dense_resource<torch_tensor_12_4_torch.float32_3> : tensor<12x4xf32>
    %cst_43 = arith.constant dense_resource<torch_tensor_12_torch.float32_3> : tensor<12xf32>
    %cst_44 = arith.constant dense_resource<torch_tensor_4_4_torch.float32_3> : tensor<4x4xf32>
    %cst_45 = arith.constant dense_resource<torch_tensor_4_torch.float32_17> : tensor<4xf32>
    %cst_46 = arith.constant dense_resource<torch_tensor_4_torch.float32_18> : tensor<4xf32>
    %cst_47 = arith.constant dense_resource<torch_tensor_4_torch.float32_19> : tensor<4xf32>
    %cst_48 = arith.constant dense_resource<torch_tensor_8_4_torch.float32_2> : tensor<8x4xf32>
    %cst_49 = arith.constant dense_resource<torch_tensor_8_torch.float32_2> : tensor<8xf32>
    %cst_50 = arith.constant dense_resource<torch_tensor_4_8_torch.float32_2> : tensor<4x8xf32>
    %cst_51 = arith.constant dense_resource<torch_tensor_4_torch.float32_20> : tensor<4xf32>
    %cst_52 = arith.constant dense_resource<torch_tensor_4_torch.float32_21> : tensor<4xf32>
    %cst_53 = arith.constant dense_resource<torch_tensor_4_torch.float32_22> : tensor<4xf32>
    %cst_54 = arith.constant dense_resource<torch_tensor_4_torch.float32_23> : tensor<4xf32>
    %cst_55 = arith.constant dense_resource<torch_tensor_4_torch.float32_24> : tensor<4xf32>
    %cst_56 = arith.constant dense<0.000000e+00> : tensor<1x2x3x3xf32>
    %c16_i64 = arith.constant 16 : i64
    %0 = tensor.empty() : tensor<3x1x4xf32>
    %transposed = linalg.transpose ins(%arg0 : tensor<1x3x4xf32>) outs(%0 : tensor<3x1x4xf32>) permutation = [1, 0, 2] 
    %collapsed = tensor.collapse_shape %transposed [[0], [1, 2]] : tensor<3x1x4xf32> into tensor<3x4xf32>
    %1 = tensor.empty() : tensor<4x12xf32>
    %transposed_57 = linalg.transpose ins(%cst : tensor<12x4xf32>) outs(%1 : tensor<4x12xf32>) permutation = [1, 0] 
    %2 = tensor.empty() : tensor<3x12xf32>
    %3 = linalg.fill ins(%cst_0 : f32) outs(%2 : tensor<3x12xf32>) -> tensor<3x12xf32>
    %4 = linalg.matmul ins(%collapsed, %transposed_57 : tensor<3x4xf32>, tensor<4x12xf32>) outs(%3 : tensor<3x12xf32>) -> tensor<3x12xf32>
    %5 = linalg.generic {indexing_maps = [#map, #map1, #map], iterator_types = ["parallel", "parallel"]} ins(%4, %cst_11 : tensor<3x12xf32>, tensor<12xf32>) outs(%2 : tensor<3x12xf32>) {
    ^bb0(%in: f32, %in_208: f32, %out: f32):
      %300 = arith.addf %in, %in_208 : f32
      linalg.yield %300 : f32
    } -> tensor<3x12xf32>
    %expanded = tensor.expand_shape %5 [[0, 1], [2, 3, 4]] output_shape [1, 3, 1, 3, 4] : tensor<3x12xf32> into tensor<1x3x1x3x4xf32>
    %6 = tensor.empty() : tensor<3x3x1x1x4xf32>
    %transposed_58 = linalg.transpose ins(%expanded : tensor<1x3x1x3x4xf32>) outs(%6 : tensor<3x3x1x1x4xf32>) permutation = [3, 1, 2, 0, 4] 
    %collapsed_59 = tensor.collapse_shape %transposed_58 [[0], [1], [2, 3], [4]] : tensor<3x3x1x1x4xf32> into tensor<3x3x1x4xf32>
    %extracted_slice = tensor.extract_slice %collapsed_59[0, 0, 0, 0] [1, 3, 1, 4] [1, 1, 1, 1] : tensor<3x3x1x4xf32> to tensor<1x3x1x4xf32>
    %extracted_slice_60 = tensor.extract_slice %collapsed_59[1, 0, 0, 0] [1, 3, 1, 4] [1, 1, 1, 1] : tensor<3x3x1x4xf32> to tensor<1x3x1x4xf32>
    %extracted_slice_61 = tensor.extract_slice %collapsed_59[2, 0, 0, 0] [1, 3, 1, 4] [1, 1, 1, 1] : tensor<3x3x1x4xf32> to tensor<1x3x1x4xf32>
    %collapsed_62 = tensor.collapse_shape %extracted_slice [[0, 1], [2, 3]] : tensor<1x3x1x4xf32> into tensor<3x4xf32>
    %expanded_63 = tensor.expand_shape %collapsed_62 [[0], [1, 2]] output_shape [3, 2, 2] : tensor<3x4xf32> into tensor<3x2x2xf32>
    %7 = tensor.empty() : tensor<2x3x2xf32>
    %transposed_64 = linalg.transpose ins(%expanded_63 : tensor<3x2x2xf32>) outs(%7 : tensor<2x3x2xf32>) permutation = [1, 0, 2] 
    %collapsed_65 = tensor.collapse_shape %extracted_slice_60 [[0, 1], [2, 3]] : tensor<1x3x1x4xf32> into tensor<3x4xf32>
    %expanded_66 = tensor.expand_shape %collapsed_65 [[0], [1, 2]] output_shape [3, 2, 2] : tensor<3x4xf32> into tensor<3x2x2xf32>
    %transposed_67 = linalg.transpose ins(%expanded_66 : tensor<3x2x2xf32>) outs(%7 : tensor<2x3x2xf32>) permutation = [1, 0, 2] 
    %collapsed_68 = tensor.collapse_shape %extracted_slice_61 [[0, 1], [2, 3]] : tensor<1x3x1x4xf32> into tensor<3x4xf32>
    %expanded_69 = tensor.expand_shape %collapsed_68 [[0], [1, 2]] output_shape [3, 2, 2] : tensor<3x4xf32> into tensor<3x2x2xf32>
    %transposed_70 = linalg.transpose ins(%expanded_69 : tensor<3x2x2xf32>) outs(%7 : tensor<2x3x2xf32>) permutation = [1, 0, 2] 
    %expanded_71 = tensor.expand_shape %transposed_64 [[0, 1], [2], [3]] output_shape [1, 2, 3, 2] : tensor<2x3x2xf32> into tensor<1x2x3x2xf32>
    %expanded_72 = tensor.expand_shape %transposed_67 [[0, 1], [2], [3]] output_shape [1, 2, 3, 2] : tensor<2x3x2xf32> into tensor<1x2x3x2xf32>
    %8 = tensor.empty() : tensor<1x2x3x2xf32>
    %9 = linalg.generic {indexing_maps = [#map2, #map2], iterator_types = ["parallel", "parallel", "parallel", "parallel"]} ins(%expanded_71 : tensor<1x2x3x2xf32>) outs(%8 : tensor<1x2x3x2xf32>) {
    ^bb0(%in: f32, %out: f32):
      %300 = arith.truncf %cst_7 : f64 to f32
      %301 = arith.mulf %in, %300 : f32
      linalg.yield %301 : f32
    } -> tensor<1x2x3x2xf32>
    %10 = tensor.empty() : tensor<1x2x2x3xf32>
    %transposed_73 = linalg.transpose ins(%expanded_72 : tensor<1x2x3x2xf32>) outs(%10 : tensor<1x2x2x3xf32>) permutation = [0, 1, 3, 2] 
    %11 = linalg.generic {indexing_maps = [#map2, #map2], iterator_types = ["parallel", "parallel", "parallel", "parallel"]} ins(%transposed_73 : tensor<1x2x2x3xf32>) outs(%10 : tensor<1x2x2x3xf32>) {
    ^bb0(%in: f32, %out: f32):
      %300 = arith.truncf %cst_7 : f64 to f32
      %301 = arith.mulf %in, %300 : f32
      linalg.yield %301 : f32
    } -> tensor<1x2x2x3xf32>
    %collapsed_74 = tensor.collapse_shape %9 [[0, 1], [2], [3]] : tensor<1x2x3x2xf32> into tensor<2x3x2xf32>
    %collapsed_75 = tensor.collapse_shape %11 [[0, 1], [2], [3]] : tensor<1x2x2x3xf32> into tensor<2x2x3xf32>
    %12 = tensor.empty() : tensor<2x3x3xf32>
    %13 = linalg.fill ins(%cst_0 : f32) outs(%12 : tensor<2x3x3xf32>) -> tensor<2x3x3xf32>
    %14 = linalg.batch_matmul ins(%collapsed_74, %collapsed_75 : tensor<2x3x2xf32>, tensor<2x2x3xf32>) outs(%13 : tensor<2x3x3xf32>) -> tensor<2x3x3xf32>
    %expanded_76 = tensor.expand_shape %14 [[0, 1], [2], [3]] output_shape [1, 2, 3, 3] : tensor<2x3x3xf32> into tensor<1x2x3x3xf32>
    %15 = tensor.empty() : tensor<1x2x3xi64>
    %16 = linalg.fill ins(%c0_i64 : i64) outs(%15 : tensor<1x2x3xi64>) -> tensor<1x2x3xi64>
    %17 = tensor.empty() : tensor<1x2x3xf32>
    %18 = linalg.fill ins(%cst_1 : f32) outs(%17 : tensor<1x2x3xf32>) -> tensor<1x2x3xf32>
    %19:2 = linalg.generic {indexing_maps = [#map2, #map3, #map3], iterator_types = ["parallel", "parallel", "parallel", "reduction"]} ins(%expanded_76 : tensor<1x2x3x3xf32>) outs(%18, %16 : tensor<1x2x3xf32>, tensor<1x2x3xi64>) {
    ^bb0(%in: f32, %out: f32, %out_208: i64):
      %300 = linalg.index 3 : index
      %301 = arith.index_cast %300 : index to i64
      %302 = arith.maximumf %in, %out : f32
      %303 = arith.cmpf ogt, %in, %out : f32
      %304 = arith.select %303, %301, %out_208 : i64
      linalg.yield %302, %304 : f32, i64
    } -> (tensor<1x2x3xf32>, tensor<1x2x3xi64>)
    %expanded_77 = tensor.expand_shape %19#0 [[0], [1], [2, 3]] output_shape [1, 2, 3, 1] : tensor<1x2x3xf32> into tensor<1x2x3x1xf32>
    %20 = tensor.empty() : tensor<1x2x3x3xf32>
    %21 = linalg.generic {indexing_maps = [#map2, #map4, #map2], iterator_types = ["parallel", "parallel", "parallel", "parallel"]} ins(%expanded_76, %expanded_77 : tensor<1x2x3x3xf32>, tensor<1x2x3x1xf32>) outs(%20 : tensor<1x2x3x3xf32>) {
    ^bb0(%in: f32, %in_208: f32, %out: f32):
      %300 = arith.subf %in, %in_208 : f32
      linalg.yield %300 : f32
    } -> tensor<1x2x3x3xf32>
    %22 = linalg.generic {indexing_maps = [#map2, #map2], iterator_types = ["parallel", "parallel", "parallel", "parallel"]} ins(%21 : tensor<1x2x3x3xf32>) outs(%20 : tensor<1x2x3x3xf32>) {
    ^bb0(%in: f32, %out: f32):
      %300 = math.exp %in : f32
      linalg.yield %300 : f32
    } -> tensor<1x2x3x3xf32>
    %23 = tensor.empty() : tensor<1x2x3x1xf32>
    %24 = linalg.fill ins(%cst_0 : f32) outs(%23 : tensor<1x2x3x1xf32>) -> tensor<1x2x3x1xf32>
    %25 = linalg.generic {indexing_maps = [#map2, #map4], iterator_types = ["parallel", "parallel", "parallel", "reduction"]} ins(%22 : tensor<1x2x3x3xf32>) outs(%24 : tensor<1x2x3x1xf32>) {
    ^bb0(%in: f32, %out: f32):
      %300 = arith.addf %in, %out : f32
      linalg.yield %300 : f32
    } -> tensor<1x2x3x1xf32>
    %26 = linalg.generic {indexing_maps = [#map2, #map4, #map2], iterator_types = ["parallel", "parallel", "parallel", "parallel"]} ins(%22, %25 : tensor<1x2x3x3xf32>, tensor<1x2x3x1xf32>) outs(%20 : tensor<1x2x3x3xf32>) {
    ^bb0(%in: f32, %in_208: f32, %out: f32):
      %300 = arith.divf %in, %in_208 : f32
      linalg.yield %300 : f32
    } -> tensor<1x2x3x3xf32>
    %27 = tensor.empty() : tensor<1x2x3x3xi1>
    %28 = linalg.generic {indexing_maps = [#map2, #map2], iterator_types = ["parallel", "parallel", "parallel", "parallel"]} ins(%expanded_76 : tensor<1x2x3x3xf32>) outs(%27 : tensor<1x2x3x3xi1>) {
    ^bb0(%in: f32, %out: i1):
      %300 = arith.extf %in : f32 to f64
      %301 = arith.cmpf oeq, %300, %cst_6 : f64
      linalg.yield %301 : i1
    } -> tensor<1x2x3x3xi1>
    %29 = linalg.generic {indexing_maps = [#map2, #map2], iterator_types = ["parallel", "parallel", "parallel", "parallel"]} ins(%28 : tensor<1x2x3x3xi1>) outs(%27 : tensor<1x2x3x3xi1>) {
    ^bb0(%in: i1, %out: i1):
      %300 = arith.cmpi eq, %in, %false : i1
      linalg.yield %300 : i1
    } -> tensor<1x2x3x3xi1>
    %30 = tensor.empty() : tensor<1x2x3x1xi1>
    %31 = linalg.fill ins(%false : i1) outs(%30 : tensor<1x2x3x1xi1>) -> tensor<1x2x3x1xi1>
    %32 = linalg.generic {indexing_maps = [#map2, #map4], iterator_types = ["parallel", "parallel", "parallel", "reduction"]} ins(%29 : tensor<1x2x3x3xi1>) outs(%31 : tensor<1x2x3x1xi1>) {
    ^bb0(%in: i1, %out: i1):
      %300 = arith.ori %in, %out : i1
      linalg.yield %300 : i1
    } -> tensor<1x2x3x1xi1>
    %33 = linalg.generic {indexing_maps = [#map2, #map2], iterator_types = ["parallel", "parallel", "parallel", "parallel"]} ins(%32 : tensor<1x2x3x1xi1>) outs(%30 : tensor<1x2x3x1xi1>) {
    ^bb0(%in: i1, %out: i1):
      %300 = arith.cmpi eq, %in, %false : i1
      linalg.yield %300 : i1
    } -> tensor<1x2x3x1xi1>
    %34 = linalg.generic {indexing_maps = [#map4, #map2, #map2, #map2], iterator_types = ["parallel", "parallel", "parallel", "parallel"]} ins(%33, %cst_56, %26 : tensor<1x2x3x1xi1>, tensor<1x2x3x3xf32>, tensor<1x2x3x3xf32>) outs(%20 : tensor<1x2x3x3xf32>) {
    ^bb0(%in: i1, %in_208: f32, %in_209: f32, %out: f32):
      %300 = arith.select %in, %in_208, %in_209 : f32
      linalg.yield %300 : f32
    } -> tensor<1x2x3x3xf32>
    %collapsed_78 = tensor.collapse_shape %34 [[0, 1], [2], [3]] : tensor<1x2x3x3xf32> into tensor<2x3x3xf32>
    %35 = linalg.fill ins(%cst_0 : f32) outs(%7 : tensor<2x3x2xf32>) -> tensor<2x3x2xf32>
    %36 = linalg.batch_matmul ins(%collapsed_78, %transposed_70 : tensor<2x3x3xf32>, tensor<2x3x2xf32>) outs(%35 : tensor<2x3x2xf32>) -> tensor<2x3x2xf32>
    %expanded_79 = tensor.expand_shape %36 [[0, 1], [2], [3]] output_shape [1, 2, 3, 2] : tensor<2x3x2xf32> into tensor<1x2x3x2xf32>
    %37 = tensor.empty() : tensor<3x1x2x2xf32>
    %transposed_80 = linalg.transpose ins(%expanded_79 : tensor<1x2x3x2xf32>) outs(%37 : tensor<3x1x2x2xf32>) permutation = [2, 0, 1, 3] 
    %collapsed_81 = tensor.collapse_shape %transposed_80 [[0], [1, 2, 3]] : tensor<3x1x2x2xf32> into tensor<3x4xf32>
    %38 = tensor.empty() : tensor<4x4xf32>
    %transposed_82 = linalg.transpose ins(%cst_12 : tensor<4x4xf32>) outs(%38 : tensor<4x4xf32>) permutation = [1, 0] 
    %39 = tensor.empty() : tensor<3x4xf32>
    %40 = linalg.fill ins(%cst_0 : f32) outs(%39 : tensor<3x4xf32>) -> tensor<3x4xf32>
    %41 = linalg.matmul ins(%collapsed_81, %transposed_82 : tensor<3x4xf32>, tensor<4x4xf32>) outs(%40 : tensor<3x4xf32>) -> tensor<3x4xf32>
    %42 = linalg.generic {indexing_maps = [#map, #map1, #map], iterator_types = ["parallel", "parallel"]} ins(%41, %cst_13 : tensor<3x4xf32>, tensor<4xf32>) outs(%39 : tensor<3x4xf32>) {
    ^bb0(%in: f32, %in_208: f32, %out: f32):
      %300 = arith.addf %in, %in_208 : f32
      linalg.yield %300 : f32
    } -> tensor<3x4xf32>
    %expanded_83 = tensor.expand_shape %42 [[0], [1, 2]] output_shape [3, 1, 4] : tensor<3x4xf32> into tensor<3x1x4xf32>
    %43 = tensor.empty() : tensor<1x3x4xf32>
    %transposed_84 = linalg.transpose ins(%expanded_83 : tensor<3x1x4xf32>) outs(%43 : tensor<1x3x4xf32>) permutation = [1, 0, 2] 
    %44 = linalg.generic {indexing_maps = [#map5, #map5, #map5], iterator_types = ["parallel", "parallel", "parallel"]} ins(%arg0, %transposed_84 : tensor<1x3x4xf32>, tensor<1x3x4xf32>) outs(%43 : tensor<1x3x4xf32>) {
    ^bb0(%in: f32, %in_208: f32, %out: f32):
      %300 = arith.addf %in, %in_208 : f32
      linalg.yield %300 : f32
    } -> tensor<1x3x4xf32>
    %45 = tensor.empty() : tensor<1x3x4xf64>
    %46 = linalg.generic {indexing_maps = [#map5, #map5], iterator_types = ["parallel", "parallel", "parallel"]} ins(%44 : tensor<1x3x4xf32>) outs(%45 : tensor<1x3x4xf64>) {
    ^bb0(%in: f32, %out: f64):
      %300 = arith.extf %in : f32 to f64
      linalg.yield %300 : f64
    } -> tensor<1x3x4xf64>
    %47 = tensor.empty() : tensor<1x3x1xf64>
    %48 = linalg.fill ins(%cst_2 : f64) outs(%47 : tensor<1x3x1xf64>) -> tensor<1x3x1xf64>
    %49 = linalg.generic {indexing_maps = [#map5, #map6], iterator_types = ["parallel", "parallel", "reduction"]} ins(%46 : tensor<1x3x4xf64>) outs(%48 : tensor<1x3x1xf64>) {
    ^bb0(%in: f64, %out: f64):
      %300 = arith.addf %in, %out : f64
      linalg.yield %300 : f64
    } -> tensor<1x3x1xf64>
    %50 = linalg.generic {indexing_maps = [#map5, #map5], iterator_types = ["parallel", "parallel", "parallel"]} ins(%49 : tensor<1x3x1xf64>) outs(%47 : tensor<1x3x1xf64>) {
    ^bb0(%in: f64, %out: f64):
      %300 = arith.divf %in, %cst_8 : f64
      linalg.yield %300 : f64
    } -> tensor<1x3x1xf64>
    %51 = linalg.generic {indexing_maps = [#map5, #map6, #map5], iterator_types = ["parallel", "parallel", "parallel"]} ins(%46, %50 : tensor<1x3x4xf64>, tensor<1x3x1xf64>) outs(%45 : tensor<1x3x4xf64>) {
    ^bb0(%in: f64, %in_208: f64, %out: f64):
      %300 = arith.subf %in, %in_208 : f64
      linalg.yield %300 : f64
    } -> tensor<1x3x4xf64>
    %52 = linalg.generic {indexing_maps = [#map5, #map5, #map5], iterator_types = ["parallel", "parallel", "parallel"]} ins(%51, %51 : tensor<1x3x4xf64>, tensor<1x3x4xf64>) outs(%45 : tensor<1x3x4xf64>) {
    ^bb0(%in: f64, %in_208: f64, %out: f64):
      %300 = arith.mulf %in, %in_208 : f64
      linalg.yield %300 : f64
    } -> tensor<1x3x4xf64>
    %53 = linalg.generic {indexing_maps = [#map5, #map6], iterator_types = ["parallel", "parallel", "reduction"]} ins(%52 : tensor<1x3x4xf64>) outs(%48 : tensor<1x3x1xf64>) {
    ^bb0(%in: f64, %out: f64):
      %300 = arith.addf %in, %out : f64
      linalg.yield %300 : f64
    } -> tensor<1x3x1xf64>
    %54 = linalg.generic {indexing_maps = [#map5, #map5], iterator_types = ["parallel", "parallel", "parallel"]} ins(%53 : tensor<1x3x1xf64>) outs(%47 : tensor<1x3x1xf64>) {
    ^bb0(%in: f64, %out: f64):
      %300 = arith.divf %in, %cst_8 : f64
      linalg.yield %300 : f64
    } -> tensor<1x3x1xf64>
    %55 = tensor.empty() : tensor<1x3x1xf32>
    %56 = linalg.generic {indexing_maps = [#map5, #map5], iterator_types = ["parallel", "parallel", "parallel"]} ins(%54 : tensor<1x3x1xf64>) outs(%55 : tensor<1x3x1xf32>) {
    ^bb0(%in: f64, %out: f32):
      %300 = arith.truncf %in : f64 to f32
      linalg.yield %300 : f32
    } -> tensor<1x3x1xf32>
    %57 = linalg.fill ins(%cst_0 : f32) outs(%55 : tensor<1x3x1xf32>) -> tensor<1x3x1xf32>
    %58 = linalg.generic {indexing_maps = [#map5, #map6], iterator_types = ["parallel", "parallel", "reduction"]} ins(%44 : tensor<1x3x4xf32>) outs(%57 : tensor<1x3x1xf32>) {
    ^bb0(%in: f32, %out: f32):
      %300 = arith.addf %in, %out : f32
      linalg.yield %300 : f32
    } -> tensor<1x3x1xf32>
    %59 = linalg.generic {indexing_maps = [#map5, #map5], iterator_types = ["parallel", "parallel", "parallel"]} ins(%58 : tensor<1x3x1xf32>) outs(%55 : tensor<1x3x1xf32>) {
    ^bb0(%in: f32, %out: f32):
      %300 = arith.divf %in, %cst_9 : f32
      linalg.yield %300 : f32
    } -> tensor<1x3x1xf32>
    %60 = linalg.generic {indexing_maps = [#map5, #map5], iterator_types = ["parallel", "parallel", "parallel"]} ins(%56 : tensor<1x3x1xf32>) outs(%55 : tensor<1x3x1xf32>) {
    ^bb0(%in: f32, %out: f32):
      %300 = arith.truncf %cst_5 : f64 to f32
      %301 = arith.addf %in, %300 : f32
      linalg.yield %301 : f32
    } -> tensor<1x3x1xf32>
    %61 = linalg.generic {indexing_maps = [#map5, #map5], iterator_types = ["parallel", "parallel", "parallel"]} ins(%60 : tensor<1x3x1xf32>) outs(%55 : tensor<1x3x1xf32>) {
    ^bb0(%in: f32, %out: f32):
      %300 = math.rsqrt %in : f32
      linalg.yield %300 : f32
    } -> tensor<1x3x1xf32>
    %62 = linalg.generic {indexing_maps = [#map5, #map6, #map5], iterator_types = ["parallel", "parallel", "parallel"]} ins(%44, %59 : tensor<1x3x4xf32>, tensor<1x3x1xf32>) outs(%43 : tensor<1x3x4xf32>) {
    ^bb0(%in: f32, %in_208: f32, %out: f32):
      %300 = arith.subf %in, %in_208 : f32
      linalg.yield %300 : f32
    } -> tensor<1x3x4xf32>
    %63 = linalg.generic {indexing_maps = [#map5, #map6, #map5], iterator_types = ["parallel", "parallel", "parallel"]} ins(%62, %61 : tensor<1x3x4xf32>, tensor<1x3x1xf32>) outs(%43 : tensor<1x3x4xf32>) {
    ^bb0(%in: f32, %in_208: f32, %out: f32):
      %300 = arith.mulf %in, %in_208 : f32
      linalg.yield %300 : f32
    } -> tensor<1x3x4xf32>
    %64 = linalg.generic {indexing_maps = [#map5, #map7, #map5], iterator_types = ["parallel", "parallel", "parallel"]} ins(%63, %cst_14 : tensor<1x3x4xf32>, tensor<4xf32>) outs(%43 : tensor<1x3x4xf32>) {
    ^bb0(%in: f32, %in_208: f32, %out: f32):
      %300 = arith.mulf %in, %in_208 : f32
      linalg.yield %300 : f32
    } -> tensor<1x3x4xf32>
    %65 = linalg.generic {indexing_maps = [#map5, #map7, #map5], iterator_types = ["parallel", "parallel", "parallel"]} ins(%64, %cst_15 : tensor<1x3x4xf32>, tensor<4xf32>) outs(%43 : tensor<1x3x4xf32>) {
    ^bb0(%in: f32, %in_208: f32, %out: f32):
      %300 = arith.addf %in, %in_208 : f32
      linalg.yield %300 : f32
    } -> tensor<1x3x4xf32>
    %collapsed_85 = tensor.collapse_shape %65 [[0, 1], [2]] : tensor<1x3x4xf32> into tensor<3x4xf32>
    %66 = tensor.empty() : tensor<4x8xf32>
    %transposed_86 = linalg.transpose ins(%cst_16 : tensor<8x4xf32>) outs(%66 : tensor<4x8xf32>) permutation = [1, 0] 
    %67 = tensor.empty() : tensor<3x8xf32>
    %68 = linalg.fill ins(%cst_0 : f32) outs(%67 : tensor<3x8xf32>) -> tensor<3x8xf32>
    %69 = linalg.matmul ins(%collapsed_85, %transposed_86 : tensor<3x4xf32>, tensor<4x8xf32>) outs(%68 : tensor<3x8xf32>) -> tensor<3x8xf32>
    %70 = linalg.generic {indexing_maps = [#map, #map1, #map], iterator_types = ["parallel", "parallel"]} ins(%69, %cst_17 : tensor<3x8xf32>, tensor<8xf32>) outs(%67 : tensor<3x8xf32>) {
    ^bb0(%in: f32, %in_208: f32, %out: f32):
      %300 = arith.addf %in, %in_208 : f32
      linalg.yield %300 : f32
    } -> tensor<3x8xf32>
    %expanded_87 = tensor.expand_shape %70 [[0, 1], [2]] output_shape [1, 3, 8] : tensor<3x8xf32> into tensor<1x3x8xf32>
    %71 = tensor.empty() : tensor<1x3x8xf32>
    %72 = linalg.generic {indexing_maps = [#map5, #map5], iterator_types = ["parallel", "parallel", "parallel"]} ins(%expanded_87 : tensor<1x3x8xf32>) outs(%71 : tensor<1x3x8xf32>) {
    ^bb0(%in: f32, %out: f32):
      %300 = arith.divf %in, %cst_10 : f32
      %301 = math.erf %300 : f32
      %302 = arith.addf %301, %cst_3 : f32
      %303 = arith.mulf %302, %cst_4 : f32
      %304 = arith.mulf %in, %303 : f32
      linalg.yield %304 : f32
    } -> tensor<1x3x8xf32>
    %collapsed_88 = tensor.collapse_shape %72 [[0, 1], [2]] : tensor<1x3x8xf32> into tensor<3x8xf32>
    %73 = tensor.empty() : tensor<8x4xf32>
    %transposed_89 = linalg.transpose ins(%cst_18 : tensor<4x8xf32>) outs(%73 : tensor<8x4xf32>) permutation = [1, 0] 
    %74 = linalg.matmul ins(%collapsed_88, %transposed_89 : tensor<3x8xf32>, tensor<8x4xf32>) outs(%40 : tensor<3x4xf32>) -> tensor<3x4xf32>
    %75 = linalg.generic {indexing_maps = [#map, #map1, #map], iterator_types = ["parallel", "parallel"]} ins(%74, %cst_19 : tensor<3x4xf32>, tensor<4xf32>) outs(%39 : tensor<3x4xf32>) {
    ^bb0(%in: f32, %in_208: f32, %out: f32):
      %300 = arith.addf %in, %in_208 : f32
      linalg.yield %300 : f32
    } -> tensor<3x4xf32>
    %expanded_90 = tensor.expand_shape %75 [[0, 1], [2]] output_shape [1, 3, 4] : tensor<3x4xf32> into tensor<1x3x4xf32>
    %76 = linalg.generic {indexing_maps = [#map5, #map5, #map5], iterator_types = ["parallel", "parallel", "parallel"]} ins(%65, %expanded_90 : tensor<1x3x4xf32>, tensor<1x3x4xf32>) outs(%43 : tensor<1x3x4xf32>) {
    ^bb0(%in: f32, %in_208: f32, %out: f32):
      %300 = arith.addf %in, %in_208 : f32
      linalg.yield %300 : f32
    } -> tensor<1x3x4xf32>
    %77 = linalg.generic {indexing_maps = [#map5, #map5], iterator_types = ["parallel", "parallel", "parallel"]} ins(%76 : tensor<1x3x4xf32>) outs(%45 : tensor<1x3x4xf64>) {
    ^bb0(%in: f32, %out: f64):
      %300 = arith.extf %in : f32 to f64
      linalg.yield %300 : f64
    } -> tensor<1x3x4xf64>
    %78 = linalg.generic {indexing_maps = [#map5, #map6], iterator_types = ["parallel", "parallel", "reduction"]} ins(%77 : tensor<1x3x4xf64>) outs(%48 : tensor<1x3x1xf64>) {
    ^bb0(%in: f64, %out: f64):
      %300 = arith.addf %in, %out : f64
      linalg.yield %300 : f64
    } -> tensor<1x3x1xf64>
    %79 = linalg.generic {indexing_maps = [#map5, #map5], iterator_types = ["parallel", "parallel", "parallel"]} ins(%78 : tensor<1x3x1xf64>) outs(%47 : tensor<1x3x1xf64>) {
    ^bb0(%in: f64, %out: f64):
      %300 = arith.divf %in, %cst_8 : f64
      linalg.yield %300 : f64
    } -> tensor<1x3x1xf64>
    %80 = linalg.generic {indexing_maps = [#map5, #map6, #map5], iterator_types = ["parallel", "parallel", "parallel"]} ins(%77, %79 : tensor<1x3x4xf64>, tensor<1x3x1xf64>) outs(%45 : tensor<1x3x4xf64>) {
    ^bb0(%in: f64, %in_208: f64, %out: f64):
      %300 = arith.subf %in, %in_208 : f64
      linalg.yield %300 : f64
    } -> tensor<1x3x4xf64>
    %81 = linalg.generic {indexing_maps = [#map5, #map5, #map5], iterator_types = ["parallel", "parallel", "parallel"]} ins(%80, %80 : tensor<1x3x4xf64>, tensor<1x3x4xf64>) outs(%45 : tensor<1x3x4xf64>) {
    ^bb0(%in: f64, %in_208: f64, %out: f64):
      %300 = arith.mulf %in, %in_208 : f64
      linalg.yield %300 : f64
    } -> tensor<1x3x4xf64>
    %82 = linalg.generic {indexing_maps = [#map5, #map6], iterator_types = ["parallel", "parallel", "reduction"]} ins(%81 : tensor<1x3x4xf64>) outs(%48 : tensor<1x3x1xf64>) {
    ^bb0(%in: f64, %out: f64):
      %300 = arith.addf %in, %out : f64
      linalg.yield %300 : f64
    } -> tensor<1x3x1xf64>
    %83 = linalg.generic {indexing_maps = [#map5, #map5], iterator_types = ["parallel", "parallel", "parallel"]} ins(%82 : tensor<1x3x1xf64>) outs(%47 : tensor<1x3x1xf64>) {
    ^bb0(%in: f64, %out: f64):
      %300 = arith.divf %in, %cst_8 : f64
      linalg.yield %300 : f64
    } -> tensor<1x3x1xf64>
    %84 = linalg.generic {indexing_maps = [#map5, #map5], iterator_types = ["parallel", "parallel", "parallel"]} ins(%83 : tensor<1x3x1xf64>) outs(%55 : tensor<1x3x1xf32>) {
    ^bb0(%in: f64, %out: f32):
      %300 = arith.truncf %in : f64 to f32
      linalg.yield %300 : f32
    } -> tensor<1x3x1xf32>
    %85 = linalg.generic {indexing_maps = [#map5, #map6], iterator_types = ["parallel", "parallel", "reduction"]} ins(%76 : tensor<1x3x4xf32>) outs(%57 : tensor<1x3x1xf32>) {
    ^bb0(%in: f32, %out: f32):
      %300 = arith.addf %in, %out : f32
      linalg.yield %300 : f32
    } -> tensor<1x3x1xf32>
    %86 = linalg.generic {indexing_maps = [#map5, #map5], iterator_types = ["parallel", "parallel", "parallel"]} ins(%85 : tensor<1x3x1xf32>) outs(%55 : tensor<1x3x1xf32>) {
    ^bb0(%in: f32, %out: f32):
      %300 = arith.divf %in, %cst_9 : f32
      linalg.yield %300 : f32
    } -> tensor<1x3x1xf32>
    %87 = linalg.generic {indexing_maps = [#map5, #map5], iterator_types = ["parallel", "parallel", "parallel"]} ins(%84 : tensor<1x3x1xf32>) outs(%55 : tensor<1x3x1xf32>) {
    ^bb0(%in: f32, %out: f32):
      %300 = arith.truncf %cst_5 : f64 to f32
      %301 = arith.addf %in, %300 : f32
      linalg.yield %301 : f32
    } -> tensor<1x3x1xf32>
    %88 = linalg.generic {indexing_maps = [#map5, #map5], iterator_types = ["parallel", "parallel", "parallel"]} ins(%87 : tensor<1x3x1xf32>) outs(%55 : tensor<1x3x1xf32>) {
    ^bb0(%in: f32, %out: f32):
      %300 = math.rsqrt %in : f32
      linalg.yield %300 : f32
    } -> tensor<1x3x1xf32>
    %89 = linalg.generic {indexing_maps = [#map5, #map6, #map5], iterator_types = ["parallel", "parallel", "parallel"]} ins(%76, %86 : tensor<1x3x4xf32>, tensor<1x3x1xf32>) outs(%43 : tensor<1x3x4xf32>) {
    ^bb0(%in: f32, %in_208: f32, %out: f32):
      %300 = arith.subf %in, %in_208 : f32
      linalg.yield %300 : f32
    } -> tensor<1x3x4xf32>
    %90 = linalg.generic {indexing_maps = [#map5, #map6, #map5], iterator_types = ["parallel", "parallel", "parallel"]} ins(%89, %88 : tensor<1x3x4xf32>, tensor<1x3x1xf32>) outs(%43 : tensor<1x3x4xf32>) {
    ^bb0(%in: f32, %in_208: f32, %out: f32):
      %300 = arith.mulf %in, %in_208 : f32
      linalg.yield %300 : f32
    } -> tensor<1x3x4xf32>
    %91 = linalg.generic {indexing_maps = [#map5, #map7, #map5], iterator_types = ["parallel", "parallel", "parallel"]} ins(%90, %cst_20 : tensor<1x3x4xf32>, tensor<4xf32>) outs(%43 : tensor<1x3x4xf32>) {
    ^bb0(%in: f32, %in_208: f32, %out: f32):
      %300 = arith.mulf %in, %in_208 : f32
      linalg.yield %300 : f32
    } -> tensor<1x3x4xf32>
    %92 = linalg.generic {indexing_maps = [#map5, #map7, #map5], iterator_types = ["parallel", "parallel", "parallel"]} ins(%91, %cst_21 : tensor<1x3x4xf32>, tensor<4xf32>) outs(%43 : tensor<1x3x4xf32>) {
    ^bb0(%in: f32, %in_208: f32, %out: f32):
      %300 = arith.addf %in, %in_208 : f32
      linalg.yield %300 : f32
    } -> tensor<1x3x4xf32>
    %transposed_91 = linalg.transpose ins(%92 : tensor<1x3x4xf32>) outs(%0 : tensor<3x1x4xf32>) permutation = [1, 0, 2] 
    %collapsed_92 = tensor.collapse_shape %transposed_91 [[0], [1, 2]] : tensor<3x1x4xf32> into tensor<3x4xf32>
    %transposed_93 = linalg.transpose ins(%cst_22 : tensor<12x4xf32>) outs(%1 : tensor<4x12xf32>) permutation = [1, 0] 
    %93 = linalg.matmul ins(%collapsed_92, %transposed_93 : tensor<3x4xf32>, tensor<4x12xf32>) outs(%3 : tensor<3x12xf32>) -> tensor<3x12xf32>
    %94 = linalg.generic {indexing_maps = [#map, #map1, #map], iterator_types = ["parallel", "parallel"]} ins(%93, %cst_23 : tensor<3x12xf32>, tensor<12xf32>) outs(%2 : tensor<3x12xf32>) {
    ^bb0(%in: f32, %in_208: f32, %out: f32):
      %300 = arith.addf %in, %in_208 : f32
      linalg.yield %300 : f32
    } -> tensor<3x12xf32>
    %expanded_94 = tensor.expand_shape %94 [[0, 1], [2, 3, 4]] output_shape [1, 3, 1, 3, 4] : tensor<3x12xf32> into tensor<1x3x1x3x4xf32>
    %transposed_95 = linalg.transpose ins(%expanded_94 : tensor<1x3x1x3x4xf32>) outs(%6 : tensor<3x3x1x1x4xf32>) permutation = [3, 1, 2, 0, 4] 
    %collapsed_96 = tensor.collapse_shape %transposed_95 [[0], [1], [2, 3], [4]] : tensor<3x3x1x1x4xf32> into tensor<3x3x1x4xf32>
    %extracted_slice_97 = tensor.extract_slice %collapsed_96[0, 0, 0, 0] [1, 3, 1, 4] [1, 1, 1, 1] : tensor<3x3x1x4xf32> to tensor<1x3x1x4xf32>
    %extracted_slice_98 = tensor.extract_slice %collapsed_96[1, 0, 0, 0] [1, 3, 1, 4] [1, 1, 1, 1] : tensor<3x3x1x4xf32> to tensor<1x3x1x4xf32>
    %extracted_slice_99 = tensor.extract_slice %collapsed_96[2, 0, 0, 0] [1, 3, 1, 4] [1, 1, 1, 1] : tensor<3x3x1x4xf32> to tensor<1x3x1x4xf32>
    %collapsed_100 = tensor.collapse_shape %extracted_slice_97 [[0, 1], [2, 3]] : tensor<1x3x1x4xf32> into tensor<3x4xf32>
    %expanded_101 = tensor.expand_shape %collapsed_100 [[0], [1, 2]] output_shape [3, 2, 2] : tensor<3x4xf32> into tensor<3x2x2xf32>
    %transposed_102 = linalg.transpose ins(%expanded_101 : tensor<3x2x2xf32>) outs(%7 : tensor<2x3x2xf32>) permutation = [1, 0, 2] 
    %collapsed_103 = tensor.collapse_shape %extracted_slice_98 [[0, 1], [2, 3]] : tensor<1x3x1x4xf32> into tensor<3x4xf32>
    %expanded_104 = tensor.expand_shape %collapsed_103 [[0], [1, 2]] output_shape [3, 2, 2] : tensor<3x4xf32> into tensor<3x2x2xf32>
    %transposed_105 = linalg.transpose ins(%expanded_104 : tensor<3x2x2xf32>) outs(%7 : tensor<2x3x2xf32>) permutation = [1, 0, 2] 
    %collapsed_106 = tensor.collapse_shape %extracted_slice_99 [[0, 1], [2, 3]] : tensor<1x3x1x4xf32> into tensor<3x4xf32>
    %expanded_107 = tensor.expand_shape %collapsed_106 [[0], [1, 2]] output_shape [3, 2, 2] : tensor<3x4xf32> into tensor<3x2x2xf32>
    %transposed_108 = linalg.transpose ins(%expanded_107 : tensor<3x2x2xf32>) outs(%7 : tensor<2x3x2xf32>) permutation = [1, 0, 2] 
    %expanded_109 = tensor.expand_shape %transposed_102 [[0, 1], [2], [3]] output_shape [1, 2, 3, 2] : tensor<2x3x2xf32> into tensor<1x2x3x2xf32>
    %expanded_110 = tensor.expand_shape %transposed_105 [[0, 1], [2], [3]] output_shape [1, 2, 3, 2] : tensor<2x3x2xf32> into tensor<1x2x3x2xf32>
    %95 = linalg.generic {indexing_maps = [#map2, #map2], iterator_types = ["parallel", "parallel", "parallel", "parallel"]} ins(%expanded_109 : tensor<1x2x3x2xf32>) outs(%8 : tensor<1x2x3x2xf32>) {
    ^bb0(%in: f32, %out: f32):
      %300 = arith.truncf %cst_7 : f64 to f32
      %301 = arith.mulf %in, %300 : f32
      linalg.yield %301 : f32
    } -> tensor<1x2x3x2xf32>
    %transposed_111 = linalg.transpose ins(%expanded_110 : tensor<1x2x3x2xf32>) outs(%10 : tensor<1x2x2x3xf32>) permutation = [0, 1, 3, 2] 
    %96 = linalg.generic {indexing_maps = [#map2, #map2], iterator_types = ["parallel", "parallel", "parallel", "parallel"]} ins(%transposed_111 : tensor<1x2x2x3xf32>) outs(%10 : tensor<1x2x2x3xf32>) {
    ^bb0(%in: f32, %out: f32):
      %300 = arith.truncf %cst_7 : f64 to f32
      %301 = arith.mulf %in, %300 : f32
      linalg.yield %301 : f32
    } -> tensor<1x2x2x3xf32>
    %collapsed_112 = tensor.collapse_shape %95 [[0, 1], [2], [3]] : tensor<1x2x3x2xf32> into tensor<2x3x2xf32>
    %collapsed_113 = tensor.collapse_shape %96 [[0, 1], [2], [3]] : tensor<1x2x2x3xf32> into tensor<2x2x3xf32>
    %97 = linalg.batch_matmul ins(%collapsed_112, %collapsed_113 : tensor<2x3x2xf32>, tensor<2x2x3xf32>) outs(%13 : tensor<2x3x3xf32>) -> tensor<2x3x3xf32>
    %expanded_114 = tensor.expand_shape %97 [[0, 1], [2], [3]] output_shape [1, 2, 3, 3] : tensor<2x3x3xf32> into tensor<1x2x3x3xf32>
    %98:2 = linalg.generic {indexing_maps = [#map2, #map3, #map3], iterator_types = ["parallel", "parallel", "parallel", "reduction"]} ins(%expanded_114 : tensor<1x2x3x3xf32>) outs(%18, %16 : tensor<1x2x3xf32>, tensor<1x2x3xi64>) {
    ^bb0(%in: f32, %out: f32, %out_208: i64):
      %300 = linalg.index 3 : index
      %301 = arith.index_cast %300 : index to i64
      %302 = arith.maximumf %in, %out : f32
      %303 = arith.cmpf ogt, %in, %out : f32
      %304 = arith.select %303, %301, %out_208 : i64
      linalg.yield %302, %304 : f32, i64
    } -> (tensor<1x2x3xf32>, tensor<1x2x3xi64>)
    %expanded_115 = tensor.expand_shape %98#0 [[0], [1], [2, 3]] output_shape [1, 2, 3, 1] : tensor<1x2x3xf32> into tensor<1x2x3x1xf32>
    %99 = linalg.generic {indexing_maps = [#map2, #map4, #map2], iterator_types = ["parallel", "parallel", "parallel", "parallel"]} ins(%expanded_114, %expanded_115 : tensor<1x2x3x3xf32>, tensor<1x2x3x1xf32>) outs(%20 : tensor<1x2x3x3xf32>) {
    ^bb0(%in: f32, %in_208: f32, %out: f32):
      %300 = arith.subf %in, %in_208 : f32
      linalg.yield %300 : f32
    } -> tensor<1x2x3x3xf32>
    %100 = linalg.generic {indexing_maps = [#map2, #map2], iterator_types = ["parallel", "parallel", "parallel", "parallel"]} ins(%99 : tensor<1x2x3x3xf32>) outs(%20 : tensor<1x2x3x3xf32>) {
    ^bb0(%in: f32, %out: f32):
      %300 = math.exp %in : f32
      linalg.yield %300 : f32
    } -> tensor<1x2x3x3xf32>
    %101 = linalg.generic {indexing_maps = [#map2, #map4], iterator_types = ["parallel", "parallel", "parallel", "reduction"]} ins(%100 : tensor<1x2x3x3xf32>) outs(%24 : tensor<1x2x3x1xf32>) {
    ^bb0(%in: f32, %out: f32):
      %300 = arith.addf %in, %out : f32
      linalg.yield %300 : f32
    } -> tensor<1x2x3x1xf32>
    %102 = linalg.generic {indexing_maps = [#map2, #map4, #map2], iterator_types = ["parallel", "parallel", "parallel", "parallel"]} ins(%100, %101 : tensor<1x2x3x3xf32>, tensor<1x2x3x1xf32>) outs(%20 : tensor<1x2x3x3xf32>) {
    ^bb0(%in: f32, %in_208: f32, %out: f32):
      %300 = arith.divf %in, %in_208 : f32
      linalg.yield %300 : f32
    } -> tensor<1x2x3x3xf32>
    %103 = linalg.generic {indexing_maps = [#map2, #map2], iterator_types = ["parallel", "parallel", "parallel", "parallel"]} ins(%expanded_114 : tensor<1x2x3x3xf32>) outs(%27 : tensor<1x2x3x3xi1>) {
    ^bb0(%in: f32, %out: i1):
      %300 = arith.extf %in : f32 to f64
      %301 = arith.cmpf oeq, %300, %cst_6 : f64
      linalg.yield %301 : i1
    } -> tensor<1x2x3x3xi1>
    %104 = linalg.generic {indexing_maps = [#map2, #map2], iterator_types = ["parallel", "parallel", "parallel", "parallel"]} ins(%103 : tensor<1x2x3x3xi1>) outs(%27 : tensor<1x2x3x3xi1>) {
    ^bb0(%in: i1, %out: i1):
      %300 = arith.cmpi eq, %in, %false : i1
      linalg.yield %300 : i1
    } -> tensor<1x2x3x3xi1>
    %105 = linalg.generic {indexing_maps = [#map2, #map4], iterator_types = ["parallel", "parallel", "parallel", "reduction"]} ins(%104 : tensor<1x2x3x3xi1>) outs(%31 : tensor<1x2x3x1xi1>) {
    ^bb0(%in: i1, %out: i1):
      %300 = arith.ori %in, %out : i1
      linalg.yield %300 : i1
    } -> tensor<1x2x3x1xi1>
    %106 = linalg.generic {indexing_maps = [#map2, #map2], iterator_types = ["parallel", "parallel", "parallel", "parallel"]} ins(%105 : tensor<1x2x3x1xi1>) outs(%30 : tensor<1x2x3x1xi1>) {
    ^bb0(%in: i1, %out: i1):
      %300 = arith.cmpi eq, %in, %false : i1
      linalg.yield %300 : i1
    } -> tensor<1x2x3x1xi1>
    %107 = linalg.generic {indexing_maps = [#map4, #map2, #map2, #map2], iterator_types = ["parallel", "parallel", "parallel", "parallel"]} ins(%106, %cst_56, %102 : tensor<1x2x3x1xi1>, tensor<1x2x3x3xf32>, tensor<1x2x3x3xf32>) outs(%20 : tensor<1x2x3x3xf32>) {
    ^bb0(%in: i1, %in_208: f32, %in_209: f32, %out: f32):
      %300 = arith.select %in, %in_208, %in_209 : f32
      linalg.yield %300 : f32
    } -> tensor<1x2x3x3xf32>
    %collapsed_116 = tensor.collapse_shape %107 [[0, 1], [2], [3]] : tensor<1x2x3x3xf32> into tensor<2x3x3xf32>
    %108 = linalg.batch_matmul ins(%collapsed_116, %transposed_108 : tensor<2x3x3xf32>, tensor<2x3x2xf32>) outs(%35 : tensor<2x3x2xf32>) -> tensor<2x3x2xf32>
    %expanded_117 = tensor.expand_shape %108 [[0, 1], [2], [3]] output_shape [1, 2, 3, 2] : tensor<2x3x2xf32> into tensor<1x2x3x2xf32>
    %transposed_118 = linalg.transpose ins(%expanded_117 : tensor<1x2x3x2xf32>) outs(%37 : tensor<3x1x2x2xf32>) permutation = [2, 0, 1, 3] 
    %collapsed_119 = tensor.collapse_shape %transposed_118 [[0], [1, 2, 3]] : tensor<3x1x2x2xf32> into tensor<3x4xf32>
    %transposed_120 = linalg.transpose ins(%cst_24 : tensor<4x4xf32>) outs(%38 : tensor<4x4xf32>) permutation = [1, 0] 
    %109 = linalg.matmul ins(%collapsed_119, %transposed_120 : tensor<3x4xf32>, tensor<4x4xf32>) outs(%40 : tensor<3x4xf32>) -> tensor<3x4xf32>
    %110 = linalg.generic {indexing_maps = [#map, #map1, #map], iterator_types = ["parallel", "parallel"]} ins(%109, %cst_25 : tensor<3x4xf32>, tensor<4xf32>) outs(%39 : tensor<3x4xf32>) {
    ^bb0(%in: f32, %in_208: f32, %out: f32):
      %300 = arith.addf %in, %in_208 : f32
      linalg.yield %300 : f32
    } -> tensor<3x4xf32>
    %expanded_121 = tensor.expand_shape %110 [[0], [1, 2]] output_shape [3, 1, 4] : tensor<3x4xf32> into tensor<3x1x4xf32>
    %transposed_122 = linalg.transpose ins(%expanded_121 : tensor<3x1x4xf32>) outs(%43 : tensor<1x3x4xf32>) permutation = [1, 0, 2] 
    %111 = linalg.generic {indexing_maps = [#map5, #map5, #map5], iterator_types = ["parallel", "parallel", "parallel"]} ins(%92, %transposed_122 : tensor<1x3x4xf32>, tensor<1x3x4xf32>) outs(%43 : tensor<1x3x4xf32>) {
    ^bb0(%in: f32, %in_208: f32, %out: f32):
      %300 = arith.addf %in, %in_208 : f32
      linalg.yield %300 : f32
    } -> tensor<1x3x4xf32>
    %112 = linalg.generic {indexing_maps = [#map5, #map5], iterator_types = ["parallel", "parallel", "parallel"]} ins(%111 : tensor<1x3x4xf32>) outs(%45 : tensor<1x3x4xf64>) {
    ^bb0(%in: f32, %out: f64):
      %300 = arith.extf %in : f32 to f64
      linalg.yield %300 : f64
    } -> tensor<1x3x4xf64>
    %113 = linalg.generic {indexing_maps = [#map5, #map6], iterator_types = ["parallel", "parallel", "reduction"]} ins(%112 : tensor<1x3x4xf64>) outs(%48 : tensor<1x3x1xf64>) {
    ^bb0(%in: f64, %out: f64):
      %300 = arith.addf %in, %out : f64
      linalg.yield %300 : f64
    } -> tensor<1x3x1xf64>
    %114 = linalg.generic {indexing_maps = [#map5, #map5], iterator_types = ["parallel", "parallel", "parallel"]} ins(%113 : tensor<1x3x1xf64>) outs(%47 : tensor<1x3x1xf64>) {
    ^bb0(%in: f64, %out: f64):
      %300 = arith.divf %in, %cst_8 : f64
      linalg.yield %300 : f64
    } -> tensor<1x3x1xf64>
    %115 = linalg.generic {indexing_maps = [#map5, #map6, #map5], iterator_types = ["parallel", "parallel", "parallel"]} ins(%112, %114 : tensor<1x3x4xf64>, tensor<1x3x1xf64>) outs(%45 : tensor<1x3x4xf64>) {
    ^bb0(%in: f64, %in_208: f64, %out: f64):
      %300 = arith.subf %in, %in_208 : f64
      linalg.yield %300 : f64
    } -> tensor<1x3x4xf64>
    %116 = linalg.generic {indexing_maps = [#map5, #map5, #map5], iterator_types = ["parallel", "parallel", "parallel"]} ins(%115, %115 : tensor<1x3x4xf64>, tensor<1x3x4xf64>) outs(%45 : tensor<1x3x4xf64>) {
    ^bb0(%in: f64, %in_208: f64, %out: f64):
      %300 = arith.mulf %in, %in_208 : f64
      linalg.yield %300 : f64
    } -> tensor<1x3x4xf64>
    %117 = linalg.generic {indexing_maps = [#map5, #map6], iterator_types = ["parallel", "parallel", "reduction"]} ins(%116 : tensor<1x3x4xf64>) outs(%48 : tensor<1x3x1xf64>) {
    ^bb0(%in: f64, %out: f64):
      %300 = arith.addf %in, %out : f64
      linalg.yield %300 : f64
    } -> tensor<1x3x1xf64>
    %118 = linalg.generic {indexing_maps = [#map5, #map5], iterator_types = ["parallel", "parallel", "parallel"]} ins(%117 : tensor<1x3x1xf64>) outs(%47 : tensor<1x3x1xf64>) {
    ^bb0(%in: f64, %out: f64):
      %300 = arith.divf %in, %cst_8 : f64
      linalg.yield %300 : f64
    } -> tensor<1x3x1xf64>
    %119 = linalg.generic {indexing_maps = [#map5, #map5], iterator_types = ["parallel", "parallel", "parallel"]} ins(%118 : tensor<1x3x1xf64>) outs(%55 : tensor<1x3x1xf32>) {
    ^bb0(%in: f64, %out: f32):
      %300 = arith.truncf %in : f64 to f32
      linalg.yield %300 : f32
    } -> tensor<1x3x1xf32>
    %120 = linalg.generic {indexing_maps = [#map5, #map6], iterator_types = ["parallel", "parallel", "reduction"]} ins(%111 : tensor<1x3x4xf32>) outs(%57 : tensor<1x3x1xf32>) {
    ^bb0(%in: f32, %out: f32):
      %300 = arith.addf %in, %out : f32
      linalg.yield %300 : f32
    } -> tensor<1x3x1xf32>
    %121 = linalg.generic {indexing_maps = [#map5, #map5], iterator_types = ["parallel", "parallel", "parallel"]} ins(%120 : tensor<1x3x1xf32>) outs(%55 : tensor<1x3x1xf32>) {
    ^bb0(%in: f32, %out: f32):
      %300 = arith.divf %in, %cst_9 : f32
      linalg.yield %300 : f32
    } -> tensor<1x3x1xf32>
    %122 = linalg.generic {indexing_maps = [#map5, #map5], iterator_types = ["parallel", "parallel", "parallel"]} ins(%119 : tensor<1x3x1xf32>) outs(%55 : tensor<1x3x1xf32>) {
    ^bb0(%in: f32, %out: f32):
      %300 = arith.truncf %cst_5 : f64 to f32
      %301 = arith.addf %in, %300 : f32
      linalg.yield %301 : f32
    } -> tensor<1x3x1xf32>
    %123 = linalg.generic {indexing_maps = [#map5, #map5], iterator_types = ["parallel", "parallel", "parallel"]} ins(%122 : tensor<1x3x1xf32>) outs(%55 : tensor<1x3x1xf32>) {
    ^bb0(%in: f32, %out: f32):
      %300 = math.rsqrt %in : f32
      linalg.yield %300 : f32
    } -> tensor<1x3x1xf32>
    %124 = linalg.generic {indexing_maps = [#map5, #map6, #map5], iterator_types = ["parallel", "parallel", "parallel"]} ins(%111, %121 : tensor<1x3x4xf32>, tensor<1x3x1xf32>) outs(%43 : tensor<1x3x4xf32>) {
    ^bb0(%in: f32, %in_208: f32, %out: f32):
      %300 = arith.subf %in, %in_208 : f32
      linalg.yield %300 : f32
    } -> tensor<1x3x4xf32>
    %125 = linalg.generic {indexing_maps = [#map5, #map6, #map5], iterator_types = ["parallel", "parallel", "parallel"]} ins(%124, %123 : tensor<1x3x4xf32>, tensor<1x3x1xf32>) outs(%43 : tensor<1x3x4xf32>) {
    ^bb0(%in: f32, %in_208: f32, %out: f32):
      %300 = arith.mulf %in, %in_208 : f32
      linalg.yield %300 : f32
    } -> tensor<1x3x4xf32>
    %126 = linalg.generic {indexing_maps = [#map5, #map7, #map5], iterator_types = ["parallel", "parallel", "parallel"]} ins(%125, %cst_26 : tensor<1x3x4xf32>, tensor<4xf32>) outs(%43 : tensor<1x3x4xf32>) {
    ^bb0(%in: f32, %in_208: f32, %out: f32):
      %300 = arith.mulf %in, %in_208 : f32
      linalg.yield %300 : f32
    } -> tensor<1x3x4xf32>
    %127 = linalg.generic {indexing_maps = [#map5, #map7, #map5], iterator_types = ["parallel", "parallel", "parallel"]} ins(%126, %cst_27 : tensor<1x3x4xf32>, tensor<4xf32>) outs(%43 : tensor<1x3x4xf32>) {
    ^bb0(%in: f32, %in_208: f32, %out: f32):
      %300 = arith.addf %in, %in_208 : f32
      linalg.yield %300 : f32
    } -> tensor<1x3x4xf32>
    %collapsed_123 = tensor.collapse_shape %127 [[0, 1], [2]] : tensor<1x3x4xf32> into tensor<3x4xf32>
    %transposed_124 = linalg.transpose ins(%cst_28 : tensor<8x4xf32>) outs(%66 : tensor<4x8xf32>) permutation = [1, 0] 
    %128 = linalg.matmul ins(%collapsed_123, %transposed_124 : tensor<3x4xf32>, tensor<4x8xf32>) outs(%68 : tensor<3x8xf32>) -> tensor<3x8xf32>
    %129 = linalg.generic {indexing_maps = [#map, #map1, #map], iterator_types = ["parallel", "parallel"]} ins(%128, %cst_29 : tensor<3x8xf32>, tensor<8xf32>) outs(%67 : tensor<3x8xf32>) {
    ^bb0(%in: f32, %in_208: f32, %out: f32):
      %300 = arith.addf %in, %in_208 : f32
      linalg.yield %300 : f32
    } -> tensor<3x8xf32>
    %expanded_125 = tensor.expand_shape %129 [[0, 1], [2]] output_shape [1, 3, 8] : tensor<3x8xf32> into tensor<1x3x8xf32>
    %130 = linalg.generic {indexing_maps = [#map5, #map5], iterator_types = ["parallel", "parallel", "parallel"]} ins(%expanded_125 : tensor<1x3x8xf32>) outs(%71 : tensor<1x3x8xf32>) {
    ^bb0(%in: f32, %out: f32):
      %300 = arith.divf %in, %cst_10 : f32
      %301 = math.erf %300 : f32
      %302 = arith.addf %301, %cst_3 : f32
      %303 = arith.mulf %302, %cst_4 : f32
      %304 = arith.mulf %in, %303 : f32
      linalg.yield %304 : f32
    } -> tensor<1x3x8xf32>
    %collapsed_126 = tensor.collapse_shape %130 [[0, 1], [2]] : tensor<1x3x8xf32> into tensor<3x8xf32>
    %transposed_127 = linalg.transpose ins(%cst_30 : tensor<4x8xf32>) outs(%73 : tensor<8x4xf32>) permutation = [1, 0] 
    %131 = linalg.matmul ins(%collapsed_126, %transposed_127 : tensor<3x8xf32>, tensor<8x4xf32>) outs(%40 : tensor<3x4xf32>) -> tensor<3x4xf32>
    %132 = linalg.generic {indexing_maps = [#map, #map1, #map], iterator_types = ["parallel", "parallel"]} ins(%131, %cst_31 : tensor<3x4xf32>, tensor<4xf32>) outs(%39 : tensor<3x4xf32>) {
    ^bb0(%in: f32, %in_208: f32, %out: f32):
      %300 = arith.addf %in, %in_208 : f32
      linalg.yield %300 : f32
    } -> tensor<3x4xf32>
    %expanded_128 = tensor.expand_shape %132 [[0, 1], [2]] output_shape [1, 3, 4] : tensor<3x4xf32> into tensor<1x3x4xf32>
    %133 = linalg.generic {indexing_maps = [#map5, #map5, #map5], iterator_types = ["parallel", "parallel", "parallel"]} ins(%127, %expanded_128 : tensor<1x3x4xf32>, tensor<1x3x4xf32>) outs(%43 : tensor<1x3x4xf32>) {
    ^bb0(%in: f32, %in_208: f32, %out: f32):
      %300 = arith.addf %in, %in_208 : f32
      linalg.yield %300 : f32
    } -> tensor<1x3x4xf32>
    %134 = linalg.generic {indexing_maps = [#map5, #map5], iterator_types = ["parallel", "parallel", "parallel"]} ins(%133 : tensor<1x3x4xf32>) outs(%45 : tensor<1x3x4xf64>) {
    ^bb0(%in: f32, %out: f64):
      %300 = arith.extf %in : f32 to f64
      linalg.yield %300 : f64
    } -> tensor<1x3x4xf64>
    %135 = linalg.generic {indexing_maps = [#map5, #map6], iterator_types = ["parallel", "parallel", "reduction"]} ins(%134 : tensor<1x3x4xf64>) outs(%48 : tensor<1x3x1xf64>) {
    ^bb0(%in: f64, %out: f64):
      %300 = arith.addf %in, %out : f64
      linalg.yield %300 : f64
    } -> tensor<1x3x1xf64>
    %136 = linalg.generic {indexing_maps = [#map5, #map5], iterator_types = ["parallel", "parallel", "parallel"]} ins(%135 : tensor<1x3x1xf64>) outs(%47 : tensor<1x3x1xf64>) {
    ^bb0(%in: f64, %out: f64):
      %300 = arith.divf %in, %cst_8 : f64
      linalg.yield %300 : f64
    } -> tensor<1x3x1xf64>
    %137 = linalg.generic {indexing_maps = [#map5, #map6, #map5], iterator_types = ["parallel", "parallel", "parallel"]} ins(%134, %136 : tensor<1x3x4xf64>, tensor<1x3x1xf64>) outs(%45 : tensor<1x3x4xf64>) {
    ^bb0(%in: f64, %in_208: f64, %out: f64):
      %300 = arith.subf %in, %in_208 : f64
      linalg.yield %300 : f64
    } -> tensor<1x3x4xf64>
    %138 = linalg.generic {indexing_maps = [#map5, #map5, #map5], iterator_types = ["parallel", "parallel", "parallel"]} ins(%137, %137 : tensor<1x3x4xf64>, tensor<1x3x4xf64>) outs(%45 : tensor<1x3x4xf64>) {
    ^bb0(%in: f64, %in_208: f64, %out: f64):
      %300 = arith.mulf %in, %in_208 : f64
      linalg.yield %300 : f64
    } -> tensor<1x3x4xf64>
    %139 = linalg.generic {indexing_maps = [#map5, #map6], iterator_types = ["parallel", "parallel", "reduction"]} ins(%138 : tensor<1x3x4xf64>) outs(%48 : tensor<1x3x1xf64>) {
    ^bb0(%in: f64, %out: f64):
      %300 = arith.addf %in, %out : f64
      linalg.yield %300 : f64
    } -> tensor<1x3x1xf64>
    %140 = linalg.generic {indexing_maps = [#map5, #map5], iterator_types = ["parallel", "parallel", "parallel"]} ins(%139 : tensor<1x3x1xf64>) outs(%47 : tensor<1x3x1xf64>) {
    ^bb0(%in: f64, %out: f64):
      %300 = arith.divf %in, %cst_8 : f64
      linalg.yield %300 : f64
    } -> tensor<1x3x1xf64>
    %141 = linalg.generic {indexing_maps = [#map5, #map5], iterator_types = ["parallel", "parallel", "parallel"]} ins(%140 : tensor<1x3x1xf64>) outs(%55 : tensor<1x3x1xf32>) {
    ^bb0(%in: f64, %out: f32):
      %300 = arith.truncf %in : f64 to f32
      linalg.yield %300 : f32
    } -> tensor<1x3x1xf32>
    %142 = linalg.generic {indexing_maps = [#map5, #map6], iterator_types = ["parallel", "parallel", "reduction"]} ins(%133 : tensor<1x3x4xf32>) outs(%57 : tensor<1x3x1xf32>) {
    ^bb0(%in: f32, %out: f32):
      %300 = arith.addf %in, %out : f32
      linalg.yield %300 : f32
    } -> tensor<1x3x1xf32>
    %143 = linalg.generic {indexing_maps = [#map5, #map5], iterator_types = ["parallel", "parallel", "parallel"]} ins(%142 : tensor<1x3x1xf32>) outs(%55 : tensor<1x3x1xf32>) {
    ^bb0(%in: f32, %out: f32):
      %300 = arith.divf %in, %cst_9 : f32
      linalg.yield %300 : f32
    } -> tensor<1x3x1xf32>
    %144 = linalg.generic {indexing_maps = [#map5, #map5], iterator_types = ["parallel", "parallel", "parallel"]} ins(%141 : tensor<1x3x1xf32>) outs(%55 : tensor<1x3x1xf32>) {
    ^bb0(%in: f32, %out: f32):
      %300 = arith.truncf %cst_5 : f64 to f32
      %301 = arith.addf %in, %300 : f32
      linalg.yield %301 : f32
    } -> tensor<1x3x1xf32>
    %145 = linalg.generic {indexing_maps = [#map5, #map5], iterator_types = ["parallel", "parallel", "parallel"]} ins(%144 : tensor<1x3x1xf32>) outs(%55 : tensor<1x3x1xf32>) {
    ^bb0(%in: f32, %out: f32):
      %300 = math.rsqrt %in : f32
      linalg.yield %300 : f32
    } -> tensor<1x3x1xf32>
    %146 = linalg.generic {indexing_maps = [#map5, #map6, #map5], iterator_types = ["parallel", "parallel", "parallel"]} ins(%133, %143 : tensor<1x3x4xf32>, tensor<1x3x1xf32>) outs(%43 : tensor<1x3x4xf32>) {
    ^bb0(%in: f32, %in_208: f32, %out: f32):
      %300 = arith.subf %in, %in_208 : f32
      linalg.yield %300 : f32
    } -> tensor<1x3x4xf32>
    %147 = linalg.generic {indexing_maps = [#map5, #map6, #map5], iterator_types = ["parallel", "parallel", "parallel"]} ins(%146, %145 : tensor<1x3x4xf32>, tensor<1x3x1xf32>) outs(%43 : tensor<1x3x4xf32>) {
    ^bb0(%in: f32, %in_208: f32, %out: f32):
      %300 = arith.mulf %in, %in_208 : f32
      linalg.yield %300 : f32
    } -> tensor<1x3x4xf32>
    %148 = linalg.generic {indexing_maps = [#map5, #map7, #map5], iterator_types = ["parallel", "parallel", "parallel"]} ins(%147, %cst_32 : tensor<1x3x4xf32>, tensor<4xf32>) outs(%43 : tensor<1x3x4xf32>) {
    ^bb0(%in: f32, %in_208: f32, %out: f32):
      %300 = arith.mulf %in, %in_208 : f32
      linalg.yield %300 : f32
    } -> tensor<1x3x4xf32>
    %149 = linalg.generic {indexing_maps = [#map5, #map7, #map5], iterator_types = ["parallel", "parallel", "parallel"]} ins(%148, %cst_33 : tensor<1x3x4xf32>, tensor<4xf32>) outs(%43 : tensor<1x3x4xf32>) {
    ^bb0(%in: f32, %in_208: f32, %out: f32):
      %300 = arith.addf %in, %in_208 : f32
      linalg.yield %300 : f32
    } -> tensor<1x3x4xf32>
    %150 = linalg.generic {indexing_maps = [#map5, #map5], iterator_types = ["parallel", "parallel", "parallel"]} ins(%149 : tensor<1x3x4xf32>) outs(%45 : tensor<1x3x4xf64>) {
    ^bb0(%in: f32, %out: f64):
      %300 = arith.extf %in : f32 to f64
      linalg.yield %300 : f64
    } -> tensor<1x3x4xf64>
    %151 = linalg.generic {indexing_maps = [#map5, #map6], iterator_types = ["parallel", "parallel", "reduction"]} ins(%150 : tensor<1x3x4xf64>) outs(%48 : tensor<1x3x1xf64>) {
    ^bb0(%in: f64, %out: f64):
      %300 = arith.addf %in, %out : f64
      linalg.yield %300 : f64
    } -> tensor<1x3x1xf64>
    %152 = linalg.generic {indexing_maps = [#map5, #map5], iterator_types = ["parallel", "parallel", "parallel"]} ins(%151 : tensor<1x3x1xf64>) outs(%47 : tensor<1x3x1xf64>) {
    ^bb0(%in: f64, %out: f64):
      %300 = arith.divf %in, %cst_8 : f64
      linalg.yield %300 : f64
    } -> tensor<1x3x1xf64>
    %153 = linalg.generic {indexing_maps = [#map5, #map6, #map5], iterator_types = ["parallel", "parallel", "parallel"]} ins(%150, %152 : tensor<1x3x4xf64>, tensor<1x3x1xf64>) outs(%45 : tensor<1x3x4xf64>) {
    ^bb0(%in: f64, %in_208: f64, %out: f64):
      %300 = arith.subf %in, %in_208 : f64
      linalg.yield %300 : f64
    } -> tensor<1x3x4xf64>
    %154 = linalg.generic {indexing_maps = [#map5, #map5, #map5], iterator_types = ["parallel", "parallel", "parallel"]} ins(%153, %153 : tensor<1x3x4xf64>, tensor<1x3x4xf64>) outs(%45 : tensor<1x3x4xf64>) {
    ^bb0(%in: f64, %in_208: f64, %out: f64):
      %300 = arith.mulf %in, %in_208 : f64
      linalg.yield %300 : f64
    } -> tensor<1x3x4xf64>
    %155 = linalg.generic {indexing_maps = [#map5, #map6], iterator_types = ["parallel", "parallel", "reduction"]} ins(%154 : tensor<1x3x4xf64>) outs(%48 : tensor<1x3x1xf64>) {
    ^bb0(%in: f64, %out: f64):
      %300 = arith.addf %in, %out : f64
      linalg.yield %300 : f64
    } -> tensor<1x3x1xf64>
    %156 = linalg.generic {indexing_maps = [#map5, #map5], iterator_types = ["parallel", "parallel", "parallel"]} ins(%155 : tensor<1x3x1xf64>) outs(%47 : tensor<1x3x1xf64>) {
    ^bb0(%in: f64, %out: f64):
      %300 = arith.divf %in, %cst_8 : f64
      linalg.yield %300 : f64
    } -> tensor<1x3x1xf64>
    %157 = linalg.generic {indexing_maps = [#map5, #map5], iterator_types = ["parallel", "parallel", "parallel"]} ins(%156 : tensor<1x3x1xf64>) outs(%55 : tensor<1x3x1xf32>) {
    ^bb0(%in: f64, %out: f32):
      %300 = arith.truncf %in : f64 to f32
      linalg.yield %300 : f32
    } -> tensor<1x3x1xf32>
    %158 = linalg.generic {indexing_maps = [#map5, #map6], iterator_types = ["parallel", "parallel", "reduction"]} ins(%149 : tensor<1x3x4xf32>) outs(%57 : tensor<1x3x1xf32>) {
    ^bb0(%in: f32, %out: f32):
      %300 = arith.addf %in, %out : f32
      linalg.yield %300 : f32
    } -> tensor<1x3x1xf32>
    %159 = linalg.generic {indexing_maps = [#map5, #map5], iterator_types = ["parallel", "parallel", "parallel"]} ins(%158 : tensor<1x3x1xf32>) outs(%55 : tensor<1x3x1xf32>) {
    ^bb0(%in: f32, %out: f32):
      %300 = arith.divf %in, %cst_9 : f32
      linalg.yield %300 : f32
    } -> tensor<1x3x1xf32>
    %160 = linalg.generic {indexing_maps = [#map5, #map5], iterator_types = ["parallel", "parallel", "parallel"]} ins(%157 : tensor<1x3x1xf32>) outs(%55 : tensor<1x3x1xf32>) {
    ^bb0(%in: f32, %out: f32):
      %300 = arith.truncf %cst_5 : f64 to f32
      %301 = arith.addf %in, %300 : f32
      linalg.yield %301 : f32
    } -> tensor<1x3x1xf32>
    %161 = linalg.generic {indexing_maps = [#map5, #map5], iterator_types = ["parallel", "parallel", "parallel"]} ins(%160 : tensor<1x3x1xf32>) outs(%55 : tensor<1x3x1xf32>) {
    ^bb0(%in: f32, %out: f32):
      %300 = math.rsqrt %in : f32
      linalg.yield %300 : f32
    } -> tensor<1x3x1xf32>
    %162 = linalg.generic {indexing_maps = [#map5, #map6, #map5], iterator_types = ["parallel", "parallel", "parallel"]} ins(%149, %159 : tensor<1x3x4xf32>, tensor<1x3x1xf32>) outs(%43 : tensor<1x3x4xf32>) {
    ^bb0(%in: f32, %in_208: f32, %out: f32):
      %300 = arith.subf %in, %in_208 : f32
      linalg.yield %300 : f32
    } -> tensor<1x3x4xf32>
    %163 = linalg.generic {indexing_maps = [#map5, #map6, #map5], iterator_types = ["parallel", "parallel", "parallel"]} ins(%162, %161 : tensor<1x3x4xf32>, tensor<1x3x1xf32>) outs(%43 : tensor<1x3x4xf32>) {
    ^bb0(%in: f32, %in_208: f32, %out: f32):
      %300 = arith.mulf %in, %in_208 : f32
      linalg.yield %300 : f32
    } -> tensor<1x3x4xf32>
    %164 = linalg.generic {indexing_maps = [#map5, #map7, #map5], iterator_types = ["parallel", "parallel", "parallel"]} ins(%163, %cst_34 : tensor<1x3x4xf32>, tensor<4xf32>) outs(%43 : tensor<1x3x4xf32>) {
    ^bb0(%in: f32, %in_208: f32, %out: f32):
      %300 = arith.mulf %in, %in_208 : f32
      linalg.yield %300 : f32
    } -> tensor<1x3x4xf32>
    %165 = linalg.generic {indexing_maps = [#map5, #map7, #map5], iterator_types = ["parallel", "parallel", "parallel"]} ins(%164, %cst_35 : tensor<1x3x4xf32>, tensor<4xf32>) outs(%43 : tensor<1x3x4xf32>) {
    ^bb0(%in: f32, %in_208: f32, %out: f32):
      %300 = arith.addf %in, %in_208 : f32
      linalg.yield %300 : f32
    } -> tensor<1x3x4xf32>
    %transposed_129 = linalg.transpose ins(%arg1 : tensor<1x3x4xf32>) outs(%0 : tensor<3x1x4xf32>) permutation = [1, 0, 2] 
    %collapsed_130 = tensor.collapse_shape %transposed_129 [[0], [1, 2]] : tensor<3x1x4xf32> into tensor<3x4xf32>
    %transposed_131 = linalg.transpose ins(%cst_36 : tensor<12x4xf32>) outs(%1 : tensor<4x12xf32>) permutation = [1, 0] 
    %166 = linalg.matmul ins(%collapsed_130, %transposed_131 : tensor<3x4xf32>, tensor<4x12xf32>) outs(%3 : tensor<3x12xf32>) -> tensor<3x12xf32>
    %167 = linalg.generic {indexing_maps = [#map, #map1, #map], iterator_types = ["parallel", "parallel"]} ins(%166, %cst_37 : tensor<3x12xf32>, tensor<12xf32>) outs(%2 : tensor<3x12xf32>) {
    ^bb0(%in: f32, %in_208: f32, %out: f32):
      %300 = arith.addf %in, %in_208 : f32
      linalg.yield %300 : f32
    } -> tensor<3x12xf32>
    %expanded_132 = tensor.expand_shape %167 [[0, 1], [2, 3, 4]] output_shape [1, 3, 1, 3, 4] : tensor<3x12xf32> into tensor<1x3x1x3x4xf32>
    %transposed_133 = linalg.transpose ins(%expanded_132 : tensor<1x3x1x3x4xf32>) outs(%6 : tensor<3x3x1x1x4xf32>) permutation = [3, 1, 2, 0, 4] 
    %collapsed_134 = tensor.collapse_shape %transposed_133 [[0], [1], [2, 3], [4]] : tensor<3x3x1x1x4xf32> into tensor<3x3x1x4xf32>
    %extracted_slice_135 = tensor.extract_slice %collapsed_134[0, 0, 0, 0] [1, 3, 1, 4] [1, 1, 1, 1] : tensor<3x3x1x4xf32> to tensor<1x3x1x4xf32>
    %extracted_slice_136 = tensor.extract_slice %collapsed_134[1, 0, 0, 0] [1, 3, 1, 4] [1, 1, 1, 1] : tensor<3x3x1x4xf32> to tensor<1x3x1x4xf32>
    %extracted_slice_137 = tensor.extract_slice %collapsed_134[2, 0, 0, 0] [1, 3, 1, 4] [1, 1, 1, 1] : tensor<3x3x1x4xf32> to tensor<1x3x1x4xf32>
    %collapsed_138 = tensor.collapse_shape %extracted_slice_135 [[0, 1], [2, 3]] : tensor<1x3x1x4xf32> into tensor<3x4xf32>
    %expanded_139 = tensor.expand_shape %collapsed_138 [[0], [1, 2]] output_shape [3, 2, 2] : tensor<3x4xf32> into tensor<3x2x2xf32>
    %transposed_140 = linalg.transpose ins(%expanded_139 : tensor<3x2x2xf32>) outs(%7 : tensor<2x3x2xf32>) permutation = [1, 0, 2] 
    %collapsed_141 = tensor.collapse_shape %extracted_slice_136 [[0, 1], [2, 3]] : tensor<1x3x1x4xf32> into tensor<3x4xf32>
    %expanded_142 = tensor.expand_shape %collapsed_141 [[0], [1, 2]] output_shape [3, 2, 2] : tensor<3x4xf32> into tensor<3x2x2xf32>
    %transposed_143 = linalg.transpose ins(%expanded_142 : tensor<3x2x2xf32>) outs(%7 : tensor<2x3x2xf32>) permutation = [1, 0, 2] 
    %collapsed_144 = tensor.collapse_shape %extracted_slice_137 [[0, 1], [2, 3]] : tensor<1x3x1x4xf32> into tensor<3x4xf32>
    %expanded_145 = tensor.expand_shape %collapsed_144 [[0], [1, 2]] output_shape [3, 2, 2] : tensor<3x4xf32> into tensor<3x2x2xf32>
    %transposed_146 = linalg.transpose ins(%expanded_145 : tensor<3x2x2xf32>) outs(%7 : tensor<2x3x2xf32>) permutation = [1, 0, 2] 
    %expanded_147 = tensor.expand_shape %transposed_140 [[0, 1], [2], [3]] output_shape [1, 2, 3, 2] : tensor<2x3x2xf32> into tensor<1x2x3x2xf32>
    %expanded_148 = tensor.expand_shape %transposed_143 [[0, 1], [2], [3]] output_shape [1, 2, 3, 2] : tensor<2x3x2xf32> into tensor<1x2x3x2xf32>
    %168 = linalg.generic {indexing_maps = [#map2, #map2], iterator_types = ["parallel", "parallel", "parallel", "parallel"]} ins(%expanded_147 : tensor<1x2x3x2xf32>) outs(%8 : tensor<1x2x3x2xf32>) {
    ^bb0(%in: f32, %out: f32):
      %300 = arith.truncf %cst_7 : f64 to f32
      %301 = arith.mulf %in, %300 : f32
      linalg.yield %301 : f32
    } -> tensor<1x2x3x2xf32>
    %transposed_149 = linalg.transpose ins(%expanded_148 : tensor<1x2x3x2xf32>) outs(%10 : tensor<1x2x2x3xf32>) permutation = [0, 1, 3, 2] 
    %169 = linalg.generic {indexing_maps = [#map2, #map2], iterator_types = ["parallel", "parallel", "parallel", "parallel"]} ins(%transposed_149 : tensor<1x2x2x3xf32>) outs(%10 : tensor<1x2x2x3xf32>) {
    ^bb0(%in: f32, %out: f32):
      %300 = arith.truncf %cst_7 : f64 to f32
      %301 = arith.mulf %in, %300 : f32
      linalg.yield %301 : f32
    } -> tensor<1x2x2x3xf32>
    %collapsed_150 = tensor.collapse_shape %168 [[0, 1], [2], [3]] : tensor<1x2x3x2xf32> into tensor<2x3x2xf32>
    %collapsed_151 = tensor.collapse_shape %169 [[0, 1], [2], [3]] : tensor<1x2x2x3xf32> into tensor<2x2x3xf32>
    %170 = linalg.batch_matmul ins(%collapsed_150, %collapsed_151 : tensor<2x3x2xf32>, tensor<2x2x3xf32>) outs(%13 : tensor<2x3x3xf32>) -> tensor<2x3x3xf32>
    %expanded_152 = tensor.expand_shape %170 [[0, 1], [2], [3]] output_shape [1, 2, 3, 3] : tensor<2x3x3xf32> into tensor<1x2x3x3xf32>
    %171:2 = linalg.generic {indexing_maps = [#map2, #map3, #map3], iterator_types = ["parallel", "parallel", "parallel", "reduction"]} ins(%expanded_152 : tensor<1x2x3x3xf32>) outs(%18, %16 : tensor<1x2x3xf32>, tensor<1x2x3xi64>) {
    ^bb0(%in: f32, %out: f32, %out_208: i64):
      %300 = linalg.index 3 : index
      %301 = arith.index_cast %300 : index to i64
      %302 = arith.maximumf %in, %out : f32
      %303 = arith.cmpf ogt, %in, %out : f32
      %304 = arith.select %303, %301, %out_208 : i64
      linalg.yield %302, %304 : f32, i64
    } -> (tensor<1x2x3xf32>, tensor<1x2x3xi64>)
    %expanded_153 = tensor.expand_shape %171#0 [[0], [1], [2, 3]] output_shape [1, 2, 3, 1] : tensor<1x2x3xf32> into tensor<1x2x3x1xf32>
    %172 = linalg.generic {indexing_maps = [#map2, #map4, #map2], iterator_types = ["parallel", "parallel", "parallel", "parallel"]} ins(%expanded_152, %expanded_153 : tensor<1x2x3x3xf32>, tensor<1x2x3x1xf32>) outs(%20 : tensor<1x2x3x3xf32>) {
    ^bb0(%in: f32, %in_208: f32, %out: f32):
      %300 = arith.subf %in, %in_208 : f32
      linalg.yield %300 : f32
    } -> tensor<1x2x3x3xf32>
    %173 = linalg.generic {indexing_maps = [#map2, #map2], iterator_types = ["parallel", "parallel", "parallel", "parallel"]} ins(%172 : tensor<1x2x3x3xf32>) outs(%20 : tensor<1x2x3x3xf32>) {
    ^bb0(%in: f32, %out: f32):
      %300 = math.exp %in : f32
      linalg.yield %300 : f32
    } -> tensor<1x2x3x3xf32>
    %174 = linalg.generic {indexing_maps = [#map2, #map4], iterator_types = ["parallel", "parallel", "parallel", "reduction"]} ins(%173 : tensor<1x2x3x3xf32>) outs(%24 : tensor<1x2x3x1xf32>) {
    ^bb0(%in: f32, %out: f32):
      %300 = arith.addf %in, %out : f32
      linalg.yield %300 : f32
    } -> tensor<1x2x3x1xf32>
    %175 = linalg.generic {indexing_maps = [#map2, #map4, #map2], iterator_types = ["parallel", "parallel", "parallel", "parallel"]} ins(%173, %174 : tensor<1x2x3x3xf32>, tensor<1x2x3x1xf32>) outs(%20 : tensor<1x2x3x3xf32>) {
    ^bb0(%in: f32, %in_208: f32, %out: f32):
      %300 = arith.divf %in, %in_208 : f32
      linalg.yield %300 : f32
    } -> tensor<1x2x3x3xf32>
    %176 = linalg.generic {indexing_maps = [#map2, #map2], iterator_types = ["parallel", "parallel", "parallel", "parallel"]} ins(%expanded_152 : tensor<1x2x3x3xf32>) outs(%27 : tensor<1x2x3x3xi1>) {
    ^bb0(%in: f32, %out: i1):
      %300 = arith.extf %in : f32 to f64
      %301 = arith.cmpf oeq, %300, %cst_6 : f64
      linalg.yield %301 : i1
    } -> tensor<1x2x3x3xi1>
    %177 = linalg.generic {indexing_maps = [#map2, #map2], iterator_types = ["parallel", "parallel", "parallel", "parallel"]} ins(%176 : tensor<1x2x3x3xi1>) outs(%27 : tensor<1x2x3x3xi1>) {
    ^bb0(%in: i1, %out: i1):
      %300 = arith.cmpi eq, %in, %false : i1
      linalg.yield %300 : i1
    } -> tensor<1x2x3x3xi1>
    %178 = linalg.generic {indexing_maps = [#map2, #map4], iterator_types = ["parallel", "parallel", "parallel", "reduction"]} ins(%177 : tensor<1x2x3x3xi1>) outs(%31 : tensor<1x2x3x1xi1>) {
    ^bb0(%in: i1, %out: i1):
      %300 = arith.ori %in, %out : i1
      linalg.yield %300 : i1
    } -> tensor<1x2x3x1xi1>
    %179 = linalg.generic {indexing_maps = [#map2, #map2], iterator_types = ["parallel", "parallel", "parallel", "parallel"]} ins(%178 : tensor<1x2x3x1xi1>) outs(%30 : tensor<1x2x3x1xi1>) {
    ^bb0(%in: i1, %out: i1):
      %300 = arith.cmpi eq, %in, %false : i1
      linalg.yield %300 : i1
    } -> tensor<1x2x3x1xi1>
    %180 = linalg.generic {indexing_maps = [#map4, #map2, #map2, #map2], iterator_types = ["parallel", "parallel", "parallel", "parallel"]} ins(%179, %cst_56, %175 : tensor<1x2x3x1xi1>, tensor<1x2x3x3xf32>, tensor<1x2x3x3xf32>) outs(%20 : tensor<1x2x3x3xf32>) {
    ^bb0(%in: i1, %in_208: f32, %in_209: f32, %out: f32):
      %300 = arith.select %in, %in_208, %in_209 : f32
      linalg.yield %300 : f32
    } -> tensor<1x2x3x3xf32>
    %collapsed_154 = tensor.collapse_shape %180 [[0, 1], [2], [3]] : tensor<1x2x3x3xf32> into tensor<2x3x3xf32>
    %181 = linalg.batch_matmul ins(%collapsed_154, %transposed_146 : tensor<2x3x3xf32>, tensor<2x3x2xf32>) outs(%35 : tensor<2x3x2xf32>) -> tensor<2x3x2xf32>
    %expanded_155 = tensor.expand_shape %181 [[0, 1], [2], [3]] output_shape [1, 2, 3, 2] : tensor<2x3x2xf32> into tensor<1x2x3x2xf32>
    %transposed_156 = linalg.transpose ins(%expanded_155 : tensor<1x2x3x2xf32>) outs(%37 : tensor<3x1x2x2xf32>) permutation = [2, 0, 1, 3] 
    %collapsed_157 = tensor.collapse_shape %transposed_156 [[0], [1, 2, 3]] : tensor<3x1x2x2xf32> into tensor<3x4xf32>
    %transposed_158 = linalg.transpose ins(%cst_38 : tensor<4x4xf32>) outs(%38 : tensor<4x4xf32>) permutation = [1, 0] 
    %182 = linalg.matmul ins(%collapsed_157, %transposed_158 : tensor<3x4xf32>, tensor<4x4xf32>) outs(%40 : tensor<3x4xf32>) -> tensor<3x4xf32>
    %183 = linalg.generic {indexing_maps = [#map, #map1, #map], iterator_types = ["parallel", "parallel"]} ins(%182, %cst_39 : tensor<3x4xf32>, tensor<4xf32>) outs(%39 : tensor<3x4xf32>) {
    ^bb0(%in: f32, %in_208: f32, %out: f32):
      %300 = arith.addf %in, %in_208 : f32
      linalg.yield %300 : f32
    } -> tensor<3x4xf32>
    %expanded_159 = tensor.expand_shape %183 [[0], [1, 2]] output_shape [3, 1, 4] : tensor<3x4xf32> into tensor<3x1x4xf32>
    %transposed_160 = linalg.transpose ins(%expanded_159 : tensor<3x1x4xf32>) outs(%43 : tensor<1x3x4xf32>) permutation = [1, 0, 2] 
    %184 = linalg.generic {indexing_maps = [#map5, #map5, #map5], iterator_types = ["parallel", "parallel", "parallel"]} ins(%arg1, %transposed_160 : tensor<1x3x4xf32>, tensor<1x3x4xf32>) outs(%43 : tensor<1x3x4xf32>) {
    ^bb0(%in: f32, %in_208: f32, %out: f32):
      %300 = arith.addf %in, %in_208 : f32
      linalg.yield %300 : f32
    } -> tensor<1x3x4xf32>
    %185 = linalg.generic {indexing_maps = [#map5, #map5], iterator_types = ["parallel", "parallel", "parallel"]} ins(%184 : tensor<1x3x4xf32>) outs(%45 : tensor<1x3x4xf64>) {
    ^bb0(%in: f32, %out: f64):
      %300 = arith.extf %in : f32 to f64
      linalg.yield %300 : f64
    } -> tensor<1x3x4xf64>
    %186 = linalg.generic {indexing_maps = [#map5, #map6], iterator_types = ["parallel", "parallel", "reduction"]} ins(%185 : tensor<1x3x4xf64>) outs(%48 : tensor<1x3x1xf64>) {
    ^bb0(%in: f64, %out: f64):
      %300 = arith.addf %in, %out : f64
      linalg.yield %300 : f64
    } -> tensor<1x3x1xf64>
    %187 = linalg.generic {indexing_maps = [#map5, #map5], iterator_types = ["parallel", "parallel", "parallel"]} ins(%186 : tensor<1x3x1xf64>) outs(%47 : tensor<1x3x1xf64>) {
    ^bb0(%in: f64, %out: f64):
      %300 = arith.divf %in, %cst_8 : f64
      linalg.yield %300 : f64
    } -> tensor<1x3x1xf64>
    %188 = linalg.generic {indexing_maps = [#map5, #map6, #map5], iterator_types = ["parallel", "parallel", "parallel"]} ins(%185, %187 : tensor<1x3x4xf64>, tensor<1x3x1xf64>) outs(%45 : tensor<1x3x4xf64>) {
    ^bb0(%in: f64, %in_208: f64, %out: f64):
      %300 = arith.subf %in, %in_208 : f64
      linalg.yield %300 : f64
    } -> tensor<1x3x4xf64>
    %189 = linalg.generic {indexing_maps = [#map5, #map5, #map5], iterator_types = ["parallel", "parallel", "parallel"]} ins(%188, %188 : tensor<1x3x4xf64>, tensor<1x3x4xf64>) outs(%45 : tensor<1x3x4xf64>) {
    ^bb0(%in: f64, %in_208: f64, %out: f64):
      %300 = arith.mulf %in, %in_208 : f64
      linalg.yield %300 : f64
    } -> tensor<1x3x4xf64>
    %190 = linalg.generic {indexing_maps = [#map5, #map6], iterator_types = ["parallel", "parallel", "reduction"]} ins(%189 : tensor<1x3x4xf64>) outs(%48 : tensor<1x3x1xf64>) {
    ^bb0(%in: f64, %out: f64):
      %300 = arith.addf %in, %out : f64
      linalg.yield %300 : f64
    } -> tensor<1x3x1xf64>
    %191 = linalg.generic {indexing_maps = [#map5, #map5], iterator_types = ["parallel", "parallel", "parallel"]} ins(%190 : tensor<1x3x1xf64>) outs(%47 : tensor<1x3x1xf64>) {
    ^bb0(%in: f64, %out: f64):
      %300 = arith.divf %in, %cst_8 : f64
      linalg.yield %300 : f64
    } -> tensor<1x3x1xf64>
    %192 = linalg.generic {indexing_maps = [#map5, #map5], iterator_types = ["parallel", "parallel", "parallel"]} ins(%191 : tensor<1x3x1xf64>) outs(%55 : tensor<1x3x1xf32>) {
    ^bb0(%in: f64, %out: f32):
      %300 = arith.truncf %in : f64 to f32
      linalg.yield %300 : f32
    } -> tensor<1x3x1xf32>
    %193 = linalg.generic {indexing_maps = [#map5, #map6], iterator_types = ["parallel", "parallel", "reduction"]} ins(%184 : tensor<1x3x4xf32>) outs(%57 : tensor<1x3x1xf32>) {
    ^bb0(%in: f32, %out: f32):
      %300 = arith.addf %in, %out : f32
      linalg.yield %300 : f32
    } -> tensor<1x3x1xf32>
    %194 = linalg.generic {indexing_maps = [#map5, #map5], iterator_types = ["parallel", "parallel", "parallel"]} ins(%193 : tensor<1x3x1xf32>) outs(%55 : tensor<1x3x1xf32>) {
    ^bb0(%in: f32, %out: f32):
      %300 = arith.divf %in, %cst_9 : f32
      linalg.yield %300 : f32
    } -> tensor<1x3x1xf32>
    %195 = linalg.generic {indexing_maps = [#map5, #map5], iterator_types = ["parallel", "parallel", "parallel"]} ins(%192 : tensor<1x3x1xf32>) outs(%55 : tensor<1x3x1xf32>) {
    ^bb0(%in: f32, %out: f32):
      %300 = arith.truncf %cst_5 : f64 to f32
      %301 = arith.addf %in, %300 : f32
      linalg.yield %301 : f32
    } -> tensor<1x3x1xf32>
    %196 = linalg.generic {indexing_maps = [#map5, #map5], iterator_types = ["parallel", "parallel", "parallel"]} ins(%195 : tensor<1x3x1xf32>) outs(%55 : tensor<1x3x1xf32>) {
    ^bb0(%in: f32, %out: f32):
      %300 = math.rsqrt %in : f32
      linalg.yield %300 : f32
    } -> tensor<1x3x1xf32>
    %197 = linalg.generic {indexing_maps = [#map5, #map6, #map5], iterator_types = ["parallel", "parallel", "parallel"]} ins(%184, %194 : tensor<1x3x4xf32>, tensor<1x3x1xf32>) outs(%43 : tensor<1x3x4xf32>) {
    ^bb0(%in: f32, %in_208: f32, %out: f32):
      %300 = arith.subf %in, %in_208 : f32
      linalg.yield %300 : f32
    } -> tensor<1x3x4xf32>
    %198 = linalg.generic {indexing_maps = [#map5, #map6, #map5], iterator_types = ["parallel", "parallel", "parallel"]} ins(%197, %196 : tensor<1x3x4xf32>, tensor<1x3x1xf32>) outs(%43 : tensor<1x3x4xf32>) {
    ^bb0(%in: f32, %in_208: f32, %out: f32):
      %300 = arith.mulf %in, %in_208 : f32
      linalg.yield %300 : f32
    } -> tensor<1x3x4xf32>
    %199 = linalg.generic {indexing_maps = [#map5, #map7, #map5], iterator_types = ["parallel", "parallel", "parallel"]} ins(%198, %cst_40 : tensor<1x3x4xf32>, tensor<4xf32>) outs(%43 : tensor<1x3x4xf32>) {
    ^bb0(%in: f32, %in_208: f32, %out: f32):
      %300 = arith.mulf %in, %in_208 : f32
      linalg.yield %300 : f32
    } -> tensor<1x3x4xf32>
    %200 = linalg.generic {indexing_maps = [#map5, #map7, #map5], iterator_types = ["parallel", "parallel", "parallel"]} ins(%199, %cst_41 : tensor<1x3x4xf32>, tensor<4xf32>) outs(%43 : tensor<1x3x4xf32>) {
    ^bb0(%in: f32, %in_208: f32, %out: f32):
      %300 = arith.addf %in, %in_208 : f32
      linalg.yield %300 : f32
    } -> tensor<1x3x4xf32>
    %transposed_161 = linalg.transpose ins(%200 : tensor<1x3x4xf32>) outs(%0 : tensor<3x1x4xf32>) permutation = [1, 0, 2] 
    %transposed_162 = linalg.transpose ins(%165 : tensor<1x3x4xf32>) outs(%0 : tensor<3x1x4xf32>) permutation = [1, 0, 2] 
    %collapsed_163 = tensor.collapse_shape %cst_42 [[0, 1]] : tensor<12x4xf32> into tensor<48xf32>
    %201 = tensor.empty() : tensor<4xi64>
    %202 = linalg.generic {indexing_maps = [#map8], iterator_types = ["parallel"]} outs(%201 : tensor<4xi64>) {
    ^bb0(%out: i64):
      %300 = linalg.index 0 : index
      %301 = arith.index_cast %300 : index to i64
      linalg.yield %301 : i64
    } -> tensor<4xi64>
    %expanded_164 = tensor.expand_shape %202 [[0, 1]] output_shape [4, 1] : tensor<4xi64> into tensor<4x1xi64>
    %203 = tensor.empty() : tensor<4x1xi64>
    %204 = linalg.generic {indexing_maps = [#map, #map], iterator_types = ["parallel", "parallel"]} ins(%expanded_164 : tensor<4x1xi64>) outs(%203 : tensor<4x1xi64>) {
    ^bb0(%in: i64, %out: i64):
      %300 = arith.muli %in, %c4_i64 : i64
      linalg.yield %300 : i64
    } -> tensor<4x1xi64>
    %expanded_165 = tensor.expand_shape %202 [[0, 1]] output_shape [1, 4] : tensor<4xi64> into tensor<1x4xi64>
    %205 = tensor.empty() : tensor<4x4xi64>
    %206 = linalg.generic {indexing_maps = [#map9, #map10, #map], iterator_types = ["parallel", "parallel"]} ins(%204, %expanded_165 : tensor<4x1xi64>, tensor<1x4xi64>) outs(%205 : tensor<4x4xi64>) {
    ^bb0(%in: i64, %in_208: i64, %out: i64):
      %300 = arith.addi %in, %in_208 : i64
      linalg.yield %300 : i64
    } -> tensor<4x4xi64>
    %collapsed_166 = tensor.collapse_shape %206 [[0, 1]] : tensor<4x4xi64> into tensor<16xi64>
    %207 = tensor.empty() : tensor<16xf32>
    %208 = linalg.generic {indexing_maps = [#map8, #map8], iterator_types = ["parallel"]} ins(%collapsed_166 : tensor<16xi64>) outs(%207 : tensor<16xf32>) {
    ^bb0(%in: i64, %out: f32):
      %300 = arith.cmpi slt, %in, %c0_i64 : i64
      %301 = arith.addi %in, %c48_i64 : i64
      %302 = arith.select %300, %301, %in : i64
      %303 = arith.index_cast %302 : i64 to index
      %extracted = tensor.extract %collapsed_163[%303] : tensor<48xf32>
      linalg.yield %extracted : f32
    } -> tensor<16xf32>
    %expanded_167 = tensor.expand_shape %208 [[0, 1]] output_shape [4, 4] : tensor<16xf32> into tensor<4x4xf32>
    %209 = tensor.empty() : tensor<8xi64>
    %210 = linalg.generic {indexing_maps = [#map8], iterator_types = ["parallel"]} outs(%209 : tensor<8xi64>) {
    ^bb0(%out: i64):
      %300 = linalg.index 0 : index
      %301 = arith.index_cast %300 : index to i64
      linalg.yield %301 : i64
    } -> tensor<8xi64>
    %expanded_168 = tensor.expand_shape %210 [[0, 1]] output_shape [8, 1] : tensor<8xi64> into tensor<8x1xi64>
    %211 = tensor.empty() : tensor<8x1xi64>
    %212 = linalg.generic {indexing_maps = [#map, #map], iterator_types = ["parallel", "parallel"]} ins(%expanded_168 : tensor<8x1xi64>) outs(%211 : tensor<8x1xi64>) {
    ^bb0(%in: i64, %out: i64):
      %300 = arith.muli %in, %c4_i64 : i64
      linalg.yield %300 : i64
    } -> tensor<8x1xi64>
    %213 = tensor.empty() : tensor<8x4xi64>
    %214 = linalg.generic {indexing_maps = [#map9, #map10, #map], iterator_types = ["parallel", "parallel"]} ins(%212, %expanded_165 : tensor<8x1xi64>, tensor<1x4xi64>) outs(%213 : tensor<8x4xi64>) {
    ^bb0(%in: i64, %in_208: i64, %out: i64):
      %300 = arith.addi %in, %in_208 : i64
      linalg.yield %300 : i64
    } -> tensor<8x4xi64>
    %collapsed_169 = tensor.collapse_shape %214 [[0, 1]] : tensor<8x4xi64> into tensor<32xi64>
    %215 = tensor.empty() : tensor<32xi64>
    %216 = linalg.generic {indexing_maps = [#map8, #map8], iterator_types = ["parallel"]} ins(%collapsed_169 : tensor<32xi64>) outs(%215 : tensor<32xi64>) {
    ^bb0(%in: i64, %out: i64):
      %300 = arith.addi %in, %c16_i64 : i64
      linalg.yield %300 : i64
    } -> tensor<32xi64>
    %217 = tensor.empty() : tensor<32xf32>
    %218 = linalg.generic {indexing_maps = [#map8, #map8], iterator_types = ["parallel"]} ins(%216 : tensor<32xi64>) outs(%217 : tensor<32xf32>) {
    ^bb0(%in: i64, %out: f32):
      %300 = arith.cmpi slt, %in, %c0_i64 : i64
      %301 = arith.addi %in, %c48_i64 : i64
      %302 = arith.select %300, %301, %in : i64
      %303 = arith.index_cast %302 : i64 to index
      %extracted = tensor.extract %collapsed_163[%303] : tensor<48xf32>
      linalg.yield %extracted : f32
    } -> tensor<32xf32>
    %expanded_170 = tensor.expand_shape %218 [[0, 1]] output_shape [8, 4] : tensor<32xf32> into tensor<8x4xf32>
    %219 = tensor.empty() : tensor<4xf32>
    %220 = linalg.generic {indexing_maps = [#map8, #map8], iterator_types = ["parallel"]} ins(%202 : tensor<4xi64>) outs(%219 : tensor<4xf32>) {
    ^bb0(%in: i64, %out: f32):
      %300 = arith.cmpi slt, %in, %c0_i64 : i64
      %301 = arith.addi %in, %c12_i64 : i64
      %302 = arith.select %300, %301, %in : i64
      %303 = arith.index_cast %302 : i64 to index
      %extracted = tensor.extract %cst_43[%303] : tensor<12xf32>
      linalg.yield %extracted : f32
    } -> tensor<4xf32>
    %221 = linalg.generic {indexing_maps = [#map8, #map8], iterator_types = ["parallel"]} ins(%210 : tensor<8xi64>) outs(%209 : tensor<8xi64>) {
    ^bb0(%in: i64, %out: i64):
      %300 = arith.addi %in, %c4_i64 : i64
      linalg.yield %300 : i64
    } -> tensor<8xi64>
    %222 = tensor.empty() : tensor<8xf32>
    %223 = linalg.generic {indexing_maps = [#map8, #map8], iterator_types = ["parallel"]} ins(%221 : tensor<8xi64>) outs(%222 : tensor<8xf32>) {
    ^bb0(%in: i64, %out: f32):
      %300 = arith.cmpi slt, %in, %c0_i64 : i64
      %301 = arith.addi %in, %c12_i64 : i64
      %302 = arith.select %300, %301, %in : i64
      %303 = arith.index_cast %302 : i64 to index
      %extracted = tensor.extract %cst_43[%303] : tensor<12xf32>
      linalg.yield %extracted : f32
    } -> tensor<8xf32>
    %collapsed_171 = tensor.collapse_shape %transposed_161 [[0], [1, 2]] : tensor<3x1x4xf32> into tensor<3x4xf32>
    %transposed_172 = linalg.transpose ins(%expanded_167 : tensor<4x4xf32>) outs(%38 : tensor<4x4xf32>) permutation = [1, 0] 
    %224 = linalg.matmul ins(%collapsed_171, %transposed_172 : tensor<3x4xf32>, tensor<4x4xf32>) outs(%40 : tensor<3x4xf32>) -> tensor<3x4xf32>
    %225 = linalg.generic {indexing_maps = [#map, #map1, #map], iterator_types = ["parallel", "parallel"]} ins(%224, %220 : tensor<3x4xf32>, tensor<4xf32>) outs(%39 : tensor<3x4xf32>) {
    ^bb0(%in: f32, %in_208: f32, %out: f32):
      %300 = arith.addf %in, %in_208 : f32
      linalg.yield %300 : f32
    } -> tensor<3x4xf32>
    %collapsed_173 = tensor.collapse_shape %transposed_162 [[0], [1, 2]] : tensor<3x1x4xf32> into tensor<3x4xf32>
    %transposed_174 = linalg.transpose ins(%expanded_170 : tensor<8x4xf32>) outs(%66 : tensor<4x8xf32>) permutation = [1, 0] 
    %226 = linalg.matmul ins(%collapsed_173, %transposed_174 : tensor<3x4xf32>, tensor<4x8xf32>) outs(%68 : tensor<3x8xf32>) -> tensor<3x8xf32>
    %227 = linalg.generic {indexing_maps = [#map, #map1, #map], iterator_types = ["parallel", "parallel"]} ins(%226, %223 : tensor<3x8xf32>, tensor<8xf32>) outs(%67 : tensor<3x8xf32>) {
    ^bb0(%in: f32, %in_208: f32, %out: f32):
      %300 = arith.addf %in, %in_208 : f32
      linalg.yield %300 : f32
    } -> tensor<3x8xf32>
    %expanded_175 = tensor.expand_shape %227 [[0, 1], [2, 3, 4]] output_shape [1, 3, 1, 2, 4] : tensor<3x8xf32> into tensor<1x3x1x2x4xf32>
    %228 = tensor.empty() : tensor<2x3x1x1x4xf32>
    %transposed_176 = linalg.transpose ins(%expanded_175 : tensor<1x3x1x2x4xf32>) outs(%228 : tensor<2x3x1x1x4xf32>) permutation = [3, 1, 2, 0, 4] 
    %collapsed_177 = tensor.collapse_shape %transposed_176 [[0], [1], [2, 3], [4]] : tensor<2x3x1x1x4xf32> into tensor<2x3x1x4xf32>
    %extracted_slice_178 = tensor.extract_slice %collapsed_177[0, 0, 0, 0] [1, 3, 1, 4] [1, 1, 1, 1] : tensor<2x3x1x4xf32> to tensor<1x3x1x4xf32>
    %extracted_slice_179 = tensor.extract_slice %collapsed_177[1, 0, 0, 0] [1, 3, 1, 4] [1, 1, 1, 1] : tensor<2x3x1x4xf32> to tensor<1x3x1x4xf32>
    %expanded_180 = tensor.expand_shape %225 [[0], [1, 2]] output_shape [3, 2, 2] : tensor<3x4xf32> into tensor<3x2x2xf32>
    %transposed_181 = linalg.transpose ins(%expanded_180 : tensor<3x2x2xf32>) outs(%7 : tensor<2x3x2xf32>) permutation = [1, 0, 2] 
    %collapsed_182 = tensor.collapse_shape %extracted_slice_178 [[0, 1], [2, 3]] : tensor<1x3x1x4xf32> into tensor<3x4xf32>
    %expanded_183 = tensor.expand_shape %collapsed_182 [[0], [1, 2]] output_shape [3, 2, 2] : tensor<3x4xf32> into tensor<3x2x2xf32>
    %transposed_184 = linalg.transpose ins(%expanded_183 : tensor<3x2x2xf32>) outs(%7 : tensor<2x3x2xf32>) permutation = [1, 0, 2] 
    %collapsed_185 = tensor.collapse_shape %extracted_slice_179 [[0, 1], [2, 3]] : tensor<1x3x1x4xf32> into tensor<3x4xf32>
    %expanded_186 = tensor.expand_shape %collapsed_185 [[0], [1, 2]] output_shape [3, 2, 2] : tensor<3x4xf32> into tensor<3x2x2xf32>
    %transposed_187 = linalg.transpose ins(%expanded_186 : tensor<3x2x2xf32>) outs(%7 : tensor<2x3x2xf32>) permutation = [1, 0, 2] 
    %expanded_188 = tensor.expand_shape %transposed_181 [[0, 1], [2], [3]] output_shape [1, 2, 3, 2] : tensor<2x3x2xf32> into tensor<1x2x3x2xf32>
    %expanded_189 = tensor.expand_shape %transposed_184 [[0, 1], [2], [3]] output_shape [1, 2, 3, 2] : tensor<2x3x2xf32> into tensor<1x2x3x2xf32>
    %229 = linalg.generic {indexing_maps = [#map2, #map2], iterator_types = ["parallel", "parallel", "parallel", "parallel"]} ins(%expanded_188 : tensor<1x2x3x2xf32>) outs(%8 : tensor<1x2x3x2xf32>) {
    ^bb0(%in: f32, %out: f32):
      %300 = arith.truncf %cst_7 : f64 to f32
      %301 = arith.mulf %in, %300 : f32
      linalg.yield %301 : f32
    } -> tensor<1x2x3x2xf32>
    %transposed_190 = linalg.transpose ins(%expanded_189 : tensor<1x2x3x2xf32>) outs(%10 : tensor<1x2x2x3xf32>) permutation = [0, 1, 3, 2] 
    %230 = linalg.generic {indexing_maps = [#map2, #map2], iterator_types = ["parallel", "parallel", "parallel", "parallel"]} ins(%transposed_190 : tensor<1x2x2x3xf32>) outs(%10 : tensor<1x2x2x3xf32>) {
    ^bb0(%in: f32, %out: f32):
      %300 = arith.truncf %cst_7 : f64 to f32
      %301 = arith.mulf %in, %300 : f32
      linalg.yield %301 : f32
    } -> tensor<1x2x2x3xf32>
    %collapsed_191 = tensor.collapse_shape %229 [[0, 1], [2], [3]] : tensor<1x2x3x2xf32> into tensor<2x3x2xf32>
    %collapsed_192 = tensor.collapse_shape %230 [[0, 1], [2], [3]] : tensor<1x2x2x3xf32> into tensor<2x2x3xf32>
    %231 = linalg.batch_matmul ins(%collapsed_191, %collapsed_192 : tensor<2x3x2xf32>, tensor<2x2x3xf32>) outs(%13 : tensor<2x3x3xf32>) -> tensor<2x3x3xf32>
    %expanded_193 = tensor.expand_shape %231 [[0, 1], [2], [3]] output_shape [1, 2, 3, 3] : tensor<2x3x3xf32> into tensor<1x2x3x3xf32>
    %232:2 = linalg.generic {indexing_maps = [#map2, #map3, #map3], iterator_types = ["parallel", "parallel", "parallel", "reduction"]} ins(%expanded_193 : tensor<1x2x3x3xf32>) outs(%18, %16 : tensor<1x2x3xf32>, tensor<1x2x3xi64>) {
    ^bb0(%in: f32, %out: f32, %out_208: i64):
      %300 = linalg.index 3 : index
      %301 = arith.index_cast %300 : index to i64
      %302 = arith.maximumf %in, %out : f32
      %303 = arith.cmpf ogt, %in, %out : f32
      %304 = arith.select %303, %301, %out_208 : i64
      linalg.yield %302, %304 : f32, i64
    } -> (tensor<1x2x3xf32>, tensor<1x2x3xi64>)
    %expanded_194 = tensor.expand_shape %232#0 [[0], [1], [2, 3]] output_shape [1, 2, 3, 1] : tensor<1x2x3xf32> into tensor<1x2x3x1xf32>
    %233 = linalg.generic {indexing_maps = [#map2, #map4, #map2], iterator_types = ["parallel", "parallel", "parallel", "parallel"]} ins(%expanded_193, %expanded_194 : tensor<1x2x3x3xf32>, tensor<1x2x3x1xf32>) outs(%20 : tensor<1x2x3x3xf32>) {
    ^bb0(%in: f32, %in_208: f32, %out: f32):
      %300 = arith.subf %in, %in_208 : f32
      linalg.yield %300 : f32
    } -> tensor<1x2x3x3xf32>
    %234 = linalg.generic {indexing_maps = [#map2, #map2], iterator_types = ["parallel", "parallel", "parallel", "parallel"]} ins(%233 : tensor<1x2x3x3xf32>) outs(%20 : tensor<1x2x3x3xf32>) {
    ^bb0(%in: f32, %out: f32):
      %300 = math.exp %in : f32
      linalg.yield %300 : f32
    } -> tensor<1x2x3x3xf32>
    %235 = linalg.generic {indexing_maps = [#map2, #map4], iterator_types = ["parallel", "parallel", "parallel", "reduction"]} ins(%234 : tensor<1x2x3x3xf32>) outs(%24 : tensor<1x2x3x1xf32>) {
    ^bb0(%in: f32, %out: f32):
      %300 = arith.addf %in, %out : f32
      linalg.yield %300 : f32
    } -> tensor<1x2x3x1xf32>
    %236 = linalg.generic {indexing_maps = [#map2, #map4, #map2], iterator_types = ["parallel", "parallel", "parallel", "parallel"]} ins(%234, %235 : tensor<1x2x3x3xf32>, tensor<1x2x3x1xf32>) outs(%20 : tensor<1x2x3x3xf32>) {
    ^bb0(%in: f32, %in_208: f32, %out: f32):
      %300 = arith.divf %in, %in_208 : f32
      linalg.yield %300 : f32
    } -> tensor<1x2x3x3xf32>
    %237 = linalg.generic {indexing_maps = [#map2, #map2], iterator_types = ["parallel", "parallel", "parallel", "parallel"]} ins(%expanded_193 : tensor<1x2x3x3xf32>) outs(%27 : tensor<1x2x3x3xi1>) {
    ^bb0(%in: f32, %out: i1):
      %300 = arith.extf %in : f32 to f64
      %301 = arith.cmpf oeq, %300, %cst_6 : f64
      linalg.yield %301 : i1
    } -> tensor<1x2x3x3xi1>
    %238 = linalg.generic {indexing_maps = [#map2, #map2], iterator_types = ["parallel", "parallel", "parallel", "parallel"]} ins(%237 : tensor<1x2x3x3xi1>) outs(%27 : tensor<1x2x3x3xi1>) {
    ^bb0(%in: i1, %out: i1):
      %300 = arith.cmpi eq, %in, %false : i1
      linalg.yield %300 : i1
    } -> tensor<1x2x3x3xi1>
    %239 = linalg.generic {indexing_maps = [#map2, #map4], iterator_types = ["parallel", "parallel", "parallel", "reduction"]} ins(%238 : tensor<1x2x3x3xi1>) outs(%31 : tensor<1x2x3x1xi1>) {
    ^bb0(%in: i1, %out: i1):
      %300 = arith.ori %in, %out : i1
      linalg.yield %300 : i1
    } -> tensor<1x2x3x1xi1>
    %240 = linalg.generic {indexing_maps = [#map2, #map2], iterator_types = ["parallel", "parallel", "parallel", "parallel"]} ins(%239 : tensor<1x2x3x1xi1>) outs(%30 : tensor<1x2x3x1xi1>) {
    ^bb0(%in: i1, %out: i1):
      %300 = arith.cmpi eq, %in, %false : i1
      linalg.yield %300 : i1
    } -> tensor<1x2x3x1xi1>
    %241 = linalg.generic {indexing_maps = [#map4, #map2, #map2, #map2], iterator_types = ["parallel", "parallel", "parallel", "parallel"]} ins(%240, %cst_56, %236 : tensor<1x2x3x1xi1>, tensor<1x2x3x3xf32>, tensor<1x2x3x3xf32>) outs(%20 : tensor<1x2x3x3xf32>) {
    ^bb0(%in: i1, %in_208: f32, %in_209: f32, %out: f32):
      %300 = arith.select %in, %in_208, %in_209 : f32
      linalg.yield %300 : f32
    } -> tensor<1x2x3x3xf32>
    %collapsed_195 = tensor.collapse_shape %241 [[0, 1], [2], [3]] : tensor<1x2x3x3xf32> into tensor<2x3x3xf32>
    %242 = linalg.batch_matmul ins(%collapsed_195, %transposed_187 : tensor<2x3x3xf32>, tensor<2x3x2xf32>) outs(%35 : tensor<2x3x2xf32>) -> tensor<2x3x2xf32>
    %expanded_196 = tensor.expand_shape %242 [[0, 1], [2], [3]] output_shape [1, 2, 3, 2] : tensor<2x3x2xf32> into tensor<1x2x3x2xf32>
    %transposed_197 = linalg.transpose ins(%expanded_196 : tensor<1x2x3x2xf32>) outs(%37 : tensor<3x1x2x2xf32>) permutation = [2, 0, 1, 3] 
    %collapsed_198 = tensor.collapse_shape %transposed_197 [[0], [1, 2, 3]] : tensor<3x1x2x2xf32> into tensor<3x4xf32>
    %transposed_199 = linalg.transpose ins(%cst_44 : tensor<4x4xf32>) outs(%38 : tensor<4x4xf32>) permutation = [1, 0] 
    %243 = linalg.matmul ins(%collapsed_198, %transposed_199 : tensor<3x4xf32>, tensor<4x4xf32>) outs(%40 : tensor<3x4xf32>) -> tensor<3x4xf32>
    %244 = linalg.generic {indexing_maps = [#map, #map1, #map], iterator_types = ["parallel", "parallel"]} ins(%243, %cst_45 : tensor<3x4xf32>, tensor<4xf32>) outs(%39 : tensor<3x4xf32>) {
    ^bb0(%in: f32, %in_208: f32, %out: f32):
      %300 = arith.addf %in, %in_208 : f32
      linalg.yield %300 : f32
    } -> tensor<3x4xf32>
    %expanded_200 = tensor.expand_shape %244 [[0], [1, 2]] output_shape [3, 1, 4] : tensor<3x4xf32> into tensor<3x1x4xf32>
    %transposed_201 = linalg.transpose ins(%expanded_200 : tensor<3x1x4xf32>) outs(%43 : tensor<1x3x4xf32>) permutation = [1, 0, 2] 
    %245 = linalg.generic {indexing_maps = [#map5, #map5, #map5], iterator_types = ["parallel", "parallel", "parallel"]} ins(%200, %transposed_201 : tensor<1x3x4xf32>, tensor<1x3x4xf32>) outs(%43 : tensor<1x3x4xf32>) {
    ^bb0(%in: f32, %in_208: f32, %out: f32):
      %300 = arith.addf %in, %in_208 : f32
      linalg.yield %300 : f32
    } -> tensor<1x3x4xf32>
    %246 = linalg.generic {indexing_maps = [#map5, #map5], iterator_types = ["parallel", "parallel", "parallel"]} ins(%245 : tensor<1x3x4xf32>) outs(%45 : tensor<1x3x4xf64>) {
    ^bb0(%in: f32, %out: f64):
      %300 = arith.extf %in : f32 to f64
      linalg.yield %300 : f64
    } -> tensor<1x3x4xf64>
    %247 = linalg.generic {indexing_maps = [#map5, #map6], iterator_types = ["parallel", "parallel", "reduction"]} ins(%246 : tensor<1x3x4xf64>) outs(%48 : tensor<1x3x1xf64>) {
    ^bb0(%in: f64, %out: f64):
      %300 = arith.addf %in, %out : f64
      linalg.yield %300 : f64
    } -> tensor<1x3x1xf64>
    %248 = linalg.generic {indexing_maps = [#map5, #map5], iterator_types = ["parallel", "parallel", "parallel"]} ins(%247 : tensor<1x3x1xf64>) outs(%47 : tensor<1x3x1xf64>) {
    ^bb0(%in: f64, %out: f64):
      %300 = arith.divf %in, %cst_8 : f64
      linalg.yield %300 : f64
    } -> tensor<1x3x1xf64>
    %249 = linalg.generic {indexing_maps = [#map5, #map6, #map5], iterator_types = ["parallel", "parallel", "parallel"]} ins(%246, %248 : tensor<1x3x4xf64>, tensor<1x3x1xf64>) outs(%45 : tensor<1x3x4xf64>) {
    ^bb0(%in: f64, %in_208: f64, %out: f64):
      %300 = arith.subf %in, %in_208 : f64
      linalg.yield %300 : f64
    } -> tensor<1x3x4xf64>
    %250 = linalg.generic {indexing_maps = [#map5, #map5, #map5], iterator_types = ["parallel", "parallel", "parallel"]} ins(%249, %249 : tensor<1x3x4xf64>, tensor<1x3x4xf64>) outs(%45 : tensor<1x3x4xf64>) {
    ^bb0(%in: f64, %in_208: f64, %out: f64):
      %300 = arith.mulf %in, %in_208 : f64
      linalg.yield %300 : f64
    } -> tensor<1x3x4xf64>
    %251 = linalg.generic {indexing_maps = [#map5, #map6], iterator_types = ["parallel", "parallel", "reduction"]} ins(%250 : tensor<1x3x4xf64>) outs(%48 : tensor<1x3x1xf64>) {
    ^bb0(%in: f64, %out: f64):
      %300 = arith.addf %in, %out : f64
      linalg.yield %300 : f64
    } -> tensor<1x3x1xf64>
    %252 = linalg.generic {indexing_maps = [#map5, #map5], iterator_types = ["parallel", "parallel", "parallel"]} ins(%251 : tensor<1x3x1xf64>) outs(%47 : tensor<1x3x1xf64>) {
    ^bb0(%in: f64, %out: f64):
      %300 = arith.divf %in, %cst_8 : f64
      linalg.yield %300 : f64
    } -> tensor<1x3x1xf64>
    %253 = linalg.generic {indexing_maps = [#map5, #map5], iterator_types = ["parallel", "parallel", "parallel"]} ins(%252 : tensor<1x3x1xf64>) outs(%55 : tensor<1x3x1xf32>) {
    ^bb0(%in: f64, %out: f32):
      %300 = arith.truncf %in : f64 to f32
      linalg.yield %300 : f32
    } -> tensor<1x3x1xf32>
    %254 = linalg.generic {indexing_maps = [#map5, #map6], iterator_types = ["parallel", "parallel", "reduction"]} ins(%245 : tensor<1x3x4xf32>) outs(%57 : tensor<1x3x1xf32>) {
    ^bb0(%in: f32, %out: f32):
      %300 = arith.addf %in, %out : f32
      linalg.yield %300 : f32
    } -> tensor<1x3x1xf32>
    %255 = linalg.generic {indexing_maps = [#map5, #map5], iterator_types = ["parallel", "parallel", "parallel"]} ins(%254 : tensor<1x3x1xf32>) outs(%55 : tensor<1x3x1xf32>) {
    ^bb0(%in: f32, %out: f32):
      %300 = arith.divf %in, %cst_9 : f32
      linalg.yield %300 : f32
    } -> tensor<1x3x1xf32>
    %256 = linalg.generic {indexing_maps = [#map5, #map5], iterator_types = ["parallel", "parallel", "parallel"]} ins(%253 : tensor<1x3x1xf32>) outs(%55 : tensor<1x3x1xf32>) {
    ^bb0(%in: f32, %out: f32):
      %300 = arith.truncf %cst_5 : f64 to f32
      %301 = arith.addf %in, %300 : f32
      linalg.yield %301 : f32
    } -> tensor<1x3x1xf32>
    %257 = linalg.generic {indexing_maps = [#map5, #map5], iterator_types = ["parallel", "parallel", "parallel"]} ins(%256 : tensor<1x3x1xf32>) outs(%55 : tensor<1x3x1xf32>) {
    ^bb0(%in: f32, %out: f32):
      %300 = math.rsqrt %in : f32
      linalg.yield %300 : f32
    } -> tensor<1x3x1xf32>
    %258 = linalg.generic {indexing_maps = [#map5, #map6, #map5], iterator_types = ["parallel", "parallel", "parallel"]} ins(%245, %255 : tensor<1x3x4xf32>, tensor<1x3x1xf32>) outs(%43 : tensor<1x3x4xf32>) {
    ^bb0(%in: f32, %in_208: f32, %out: f32):
      %300 = arith.subf %in, %in_208 : f32
      linalg.yield %300 : f32
    } -> tensor<1x3x4xf32>
    %259 = linalg.generic {indexing_maps = [#map5, #map6, #map5], iterator_types = ["parallel", "parallel", "parallel"]} ins(%258, %257 : tensor<1x3x4xf32>, tensor<1x3x1xf32>) outs(%43 : tensor<1x3x4xf32>) {
    ^bb0(%in: f32, %in_208: f32, %out: f32):
      %300 = arith.mulf %in, %in_208 : f32
      linalg.yield %300 : f32
    } -> tensor<1x3x4xf32>
    %260 = linalg.generic {indexing_maps = [#map5, #map7, #map5], iterator_types = ["parallel", "parallel", "parallel"]} ins(%259, %cst_46 : tensor<1x3x4xf32>, tensor<4xf32>) outs(%43 : tensor<1x3x4xf32>) {
    ^bb0(%in: f32, %in_208: f32, %out: f32):
      %300 = arith.mulf %in, %in_208 : f32
      linalg.yield %300 : f32
    } -> tensor<1x3x4xf32>
    %261 = linalg.generic {indexing_maps = [#map5, #map7, #map5], iterator_types = ["parallel", "parallel", "parallel"]} ins(%260, %cst_47 : tensor<1x3x4xf32>, tensor<4xf32>) outs(%43 : tensor<1x3x4xf32>) {
    ^bb0(%in: f32, %in_208: f32, %out: f32):
      %300 = arith.addf %in, %in_208 : f32
      linalg.yield %300 : f32
    } -> tensor<1x3x4xf32>
    %collapsed_202 = tensor.collapse_shape %261 [[0, 1], [2]] : tensor<1x3x4xf32> into tensor<3x4xf32>
    %transposed_203 = linalg.transpose ins(%cst_48 : tensor<8x4xf32>) outs(%66 : tensor<4x8xf32>) permutation = [1, 0] 
    %262 = linalg.matmul ins(%collapsed_202, %transposed_203 : tensor<3x4xf32>, tensor<4x8xf32>) outs(%68 : tensor<3x8xf32>) -> tensor<3x8xf32>
    %263 = linalg.generic {indexing_maps = [#map, #map1, #map], iterator_types = ["parallel", "parallel"]} ins(%262, %cst_49 : tensor<3x8xf32>, tensor<8xf32>) outs(%67 : tensor<3x8xf32>) {
    ^bb0(%in: f32, %in_208: f32, %out: f32):
      %300 = arith.addf %in, %in_208 : f32
      linalg.yield %300 : f32
    } -> tensor<3x8xf32>
    %expanded_204 = tensor.expand_shape %263 [[0, 1], [2]] output_shape [1, 3, 8] : tensor<3x8xf32> into tensor<1x3x8xf32>
    %264 = linalg.generic {indexing_maps = [#map5, #map5], iterator_types = ["parallel", "parallel", "parallel"]} ins(%expanded_204 : tensor<1x3x8xf32>) outs(%71 : tensor<1x3x8xf32>) {
    ^bb0(%in: f32, %out: f32):
      %300 = arith.divf %in, %cst_10 : f32
      %301 = math.erf %300 : f32
      %302 = arith.addf %301, %cst_3 : f32
      %303 = arith.mulf %302, %cst_4 : f32
      %304 = arith.mulf %in, %303 : f32
      linalg.yield %304 : f32
    } -> tensor<1x3x8xf32>
    %collapsed_205 = tensor.collapse_shape %264 [[0, 1], [2]] : tensor<1x3x8xf32> into tensor<3x8xf32>
    %transposed_206 = linalg.transpose ins(%cst_50 : tensor<4x8xf32>) outs(%73 : tensor<8x4xf32>) permutation = [1, 0] 
    %265 = linalg.matmul ins(%collapsed_205, %transposed_206 : tensor<3x8xf32>, tensor<8x4xf32>) outs(%40 : tensor<3x4xf32>) -> tensor<3x4xf32>
    %266 = linalg.generic {indexing_maps = [#map, #map1, #map], iterator_types = ["parallel", "parallel"]} ins(%265, %cst_51 : tensor<3x4xf32>, tensor<4xf32>) outs(%39 : tensor<3x4xf32>) {
    ^bb0(%in: f32, %in_208: f32, %out: f32):
      %300 = arith.addf %in, %in_208 : f32
      linalg.yield %300 : f32
    } -> tensor<3x4xf32>
    %expanded_207 = tensor.expand_shape %266 [[0, 1], [2]] output_shape [1, 3, 4] : tensor<3x4xf32> into tensor<1x3x4xf32>
    %267 = linalg.generic {indexing_maps = [#map5, #map5, #map5], iterator_types = ["parallel", "parallel", "parallel"]} ins(%261, %expanded_207 : tensor<1x3x4xf32>, tensor<1x3x4xf32>) outs(%43 : tensor<1x3x4xf32>) {
    ^bb0(%in: f32, %in_208: f32, %out: f32):
      %300 = arith.addf %in, %in_208 : f32
      linalg.yield %300 : f32
    } -> tensor<1x3x4xf32>
    %268 = linalg.generic {indexing_maps = [#map5, #map5], iterator_types = ["parallel", "parallel", "parallel"]} ins(%267 : tensor<1x3x4xf32>) outs(%45 : tensor<1x3x4xf64>) {
    ^bb0(%in: f32, %out: f64):
      %300 = arith.extf %in : f32 to f64
      linalg.yield %300 : f64
    } -> tensor<1x3x4xf64>
    %269 = linalg.generic {indexing_maps = [#map5, #map6], iterator_types = ["parallel", "parallel", "reduction"]} ins(%268 : tensor<1x3x4xf64>) outs(%48 : tensor<1x3x1xf64>) {
    ^bb0(%in: f64, %out: f64):
      %300 = arith.addf %in, %out : f64
      linalg.yield %300 : f64
    } -> tensor<1x3x1xf64>
    %270 = linalg.generic {indexing_maps = [#map5, #map5], iterator_types = ["parallel", "parallel", "parallel"]} ins(%269 : tensor<1x3x1xf64>) outs(%47 : tensor<1x3x1xf64>) {
    ^bb0(%in: f64, %out: f64):
      %300 = arith.divf %in, %cst_8 : f64
      linalg.yield %300 : f64
    } -> tensor<1x3x1xf64>
    %271 = linalg.generic {indexing_maps = [#map5, #map6, #map5], iterator_types = ["parallel", "parallel", "parallel"]} ins(%268, %270 : tensor<1x3x4xf64>, tensor<1x3x1xf64>) outs(%45 : tensor<1x3x4xf64>) {
    ^bb0(%in: f64, %in_208: f64, %out: f64):
      %300 = arith.subf %in, %in_208 : f64
      linalg.yield %300 : f64
    } -> tensor<1x3x4xf64>
    %272 = linalg.generic {indexing_maps = [#map5, #map5, #map5], iterator_types = ["parallel", "parallel", "parallel"]} ins(%271, %271 : tensor<1x3x4xf64>, tensor<1x3x4xf64>) outs(%45 : tensor<1x3x4xf64>) {
    ^bb0(%in: f64, %in_208: f64, %out: f64):
      %300 = arith.mulf %in, %in_208 : f64
      linalg.yield %300 : f64
    } -> tensor<1x3x4xf64>
    %273 = linalg.generic {indexing_maps = [#map5, #map6], iterator_types = ["parallel", "parallel", "reduction"]} ins(%272 : tensor<1x3x4xf64>) outs(%48 : tensor<1x3x1xf64>) {
    ^bb0(%in: f64, %out: f64):
      %300 = arith.addf %in, %out : f64
      linalg.yield %300 : f64
    } -> tensor<1x3x1xf64>
    %274 = linalg.generic {indexing_maps = [#map5, #map5], iterator_types = ["parallel", "parallel", "parallel"]} ins(%273 : tensor<1x3x1xf64>) outs(%47 : tensor<1x3x1xf64>) {
    ^bb0(%in: f64, %out: f64):
      %300 = arith.divf %in, %cst_8 : f64
      linalg.yield %300 : f64
    } -> tensor<1x3x1xf64>
    %275 = linalg.generic {indexing_maps = [#map5, #map5], iterator_types = ["parallel", "parallel", "parallel"]} ins(%274 : tensor<1x3x1xf64>) outs(%55 : tensor<1x3x1xf32>) {
    ^bb0(%in: f64, %out: f32):
      %300 = arith.truncf %in : f64 to f32
      linalg.yield %300 : f32
    } -> tensor<1x3x1xf32>
    %276 = linalg.generic {indexing_maps = [#map5, #map6], iterator_types = ["parallel", "parallel", "reduction"]} ins(%267 : tensor<1x3x4xf32>) outs(%57 : tensor<1x3x1xf32>) {
    ^bb0(%in: f32, %out: f32):
      %300 = arith.addf %in, %out : f32
      linalg.yield %300 : f32
    } -> tensor<1x3x1xf32>
    %277 = linalg.generic {indexing_maps = [#map5, #map5], iterator_types = ["parallel", "parallel", "parallel"]} ins(%276 : tensor<1x3x1xf32>) outs(%55 : tensor<1x3x1xf32>) {
    ^bb0(%in: f32, %out: f32):
      %300 = arith.divf %in, %cst_9 : f32
      linalg.yield %300 : f32
    } -> tensor<1x3x1xf32>
    %278 = linalg.generic {indexing_maps = [#map5, #map5], iterator_types = ["parallel", "parallel", "parallel"]} ins(%275 : tensor<1x3x1xf32>) outs(%55 : tensor<1x3x1xf32>) {
    ^bb0(%in: f32, %out: f32):
      %300 = arith.truncf %cst_5 : f64 to f32
      %301 = arith.addf %in, %300 : f32
      linalg.yield %301 : f32
    } -> tensor<1x3x1xf32>
    %279 = linalg.generic {indexing_maps = [#map5, #map5], iterator_types = ["parallel", "parallel", "parallel"]} ins(%278 : tensor<1x3x1xf32>) outs(%55 : tensor<1x3x1xf32>) {
    ^bb0(%in: f32, %out: f32):
      %300 = math.rsqrt %in : f32
      linalg.yield %300 : f32
    } -> tensor<1x3x1xf32>
    %280 = linalg.generic {indexing_maps = [#map5, #map6, #map5], iterator_types = ["parallel", "parallel", "parallel"]} ins(%267, %277 : tensor<1x3x4xf32>, tensor<1x3x1xf32>) outs(%43 : tensor<1x3x4xf32>) {
    ^bb0(%in: f32, %in_208: f32, %out: f32):
      %300 = arith.subf %in, %in_208 : f32
      linalg.yield %300 : f32
    } -> tensor<1x3x4xf32>
    %281 = linalg.generic {indexing_maps = [#map5, #map6, #map5], iterator_types = ["parallel", "parallel", "parallel"]} ins(%280, %279 : tensor<1x3x4xf32>, tensor<1x3x1xf32>) outs(%43 : tensor<1x3x4xf32>) {
    ^bb0(%in: f32, %in_208: f32, %out: f32):
      %300 = arith.mulf %in, %in_208 : f32
      linalg.yield %300 : f32
    } -> tensor<1x3x4xf32>
    %282 = linalg.generic {indexing_maps = [#map5, #map7, #map5], iterator_types = ["parallel", "parallel", "parallel"]} ins(%281, %cst_52 : tensor<1x3x4xf32>, tensor<4xf32>) outs(%43 : tensor<1x3x4xf32>) {
    ^bb0(%in: f32, %in_208: f32, %out: f32):
      %300 = arith.mulf %in, %in_208 : f32
      linalg.yield %300 : f32
    } -> tensor<1x3x4xf32>
    %283 = linalg.generic {indexing_maps = [#map5, #map7, #map5], iterator_types = ["parallel", "parallel", "parallel"]} ins(%282, %cst_53 : tensor<1x3x4xf32>, tensor<4xf32>) outs(%43 : tensor<1x3x4xf32>) {
    ^bb0(%in: f32, %in_208: f32, %out: f32):
      %300 = arith.addf %in, %in_208 : f32
      linalg.yield %300 : f32
    } -> tensor<1x3x4xf32>
    %284 = linalg.generic {indexing_maps = [#map5, #map5], iterator_types = ["parallel", "parallel", "parallel"]} ins(%283 : tensor<1x3x4xf32>) outs(%45 : tensor<1x3x4xf64>) {
    ^bb0(%in: f32, %out: f64):
      %300 = arith.extf %in : f32 to f64
      linalg.yield %300 : f64
    } -> tensor<1x3x4xf64>
    %285 = linalg.generic {indexing_maps = [#map5, #map6], iterator_types = ["parallel", "parallel", "reduction"]} ins(%284 : tensor<1x3x4xf64>) outs(%48 : tensor<1x3x1xf64>) {
    ^bb0(%in: f64, %out: f64):
      %300 = arith.addf %in, %out : f64
      linalg.yield %300 : f64
    } -> tensor<1x3x1xf64>
    %286 = linalg.generic {indexing_maps = [#map5, #map5], iterator_types = ["parallel", "parallel", "parallel"]} ins(%285 : tensor<1x3x1xf64>) outs(%47 : tensor<1x3x1xf64>) {
    ^bb0(%in: f64, %out: f64):
      %300 = arith.divf %in, %cst_8 : f64
      linalg.yield %300 : f64
    } -> tensor<1x3x1xf64>
    %287 = linalg.generic {indexing_maps = [#map5, #map6, #map5], iterator_types = ["parallel", "parallel", "parallel"]} ins(%284, %286 : tensor<1x3x4xf64>, tensor<1x3x1xf64>) outs(%45 : tensor<1x3x4xf64>) {
    ^bb0(%in: f64, %in_208: f64, %out: f64):
      %300 = arith.subf %in, %in_208 : f64
      linalg.yield %300 : f64
    } -> tensor<1x3x4xf64>
    %288 = linalg.generic {indexing_maps = [#map5, #map5, #map5], iterator_types = ["parallel", "parallel", "parallel"]} ins(%287, %287 : tensor<1x3x4xf64>, tensor<1x3x4xf64>) outs(%45 : tensor<1x3x4xf64>) {
    ^bb0(%in: f64, %in_208: f64, %out: f64):
      %300 = arith.mulf %in, %in_208 : f64
      linalg.yield %300 : f64
    } -> tensor<1x3x4xf64>
    %289 = linalg.generic {indexing_maps = [#map5, #map6], iterator_types = ["parallel", "parallel", "reduction"]} ins(%288 : tensor<1x3x4xf64>) outs(%48 : tensor<1x3x1xf64>) {
    ^bb0(%in: f64, %out: f64):
      %300 = arith.addf %in, %out : f64
      linalg.yield %300 : f64
    } -> tensor<1x3x1xf64>
    %290 = linalg.generic {indexing_maps = [#map5, #map5], iterator_types = ["parallel", "parallel", "parallel"]} ins(%289 : tensor<1x3x1xf64>) outs(%47 : tensor<1x3x1xf64>) {
    ^bb0(%in: f64, %out: f64):
      %300 = arith.divf %in, %cst_8 : f64
      linalg.yield %300 : f64
    } -> tensor<1x3x1xf64>
    %291 = linalg.generic {indexing_maps = [#map5, #map5], iterator_types = ["parallel", "parallel", "parallel"]} ins(%290 : tensor<1x3x1xf64>) outs(%55 : tensor<1x3x1xf32>) {
    ^bb0(%in: f64, %out: f32):
      %300 = arith.truncf %in : f64 to f32
      linalg.yield %300 : f32
    } -> tensor<1x3x1xf32>
    %292 = linalg.generic {indexing_maps = [#map5, #map6], iterator_types = ["parallel", "parallel", "reduction"]} ins(%283 : tensor<1x3x4xf32>) outs(%57 : tensor<1x3x1xf32>) {
    ^bb0(%in: f32, %out: f32):
      %300 = arith.addf %in, %out : f32
      linalg.yield %300 : f32
    } -> tensor<1x3x1xf32>
    %293 = linalg.generic {indexing_maps = [#map5, #map5], iterator_types = ["parallel", "parallel", "parallel"]} ins(%292 : tensor<1x3x1xf32>) outs(%55 : tensor<1x3x1xf32>) {
    ^bb0(%in: f32, %out: f32):
      %300 = arith.divf %in, %cst_9 : f32
      linalg.yield %300 : f32
    } -> tensor<1x3x1xf32>
    %294 = linalg.generic {indexing_maps = [#map5, #map5], iterator_types = ["parallel", "parallel", "parallel"]} ins(%291 : tensor<1x3x1xf32>) outs(%55 : tensor<1x3x1xf32>) {
    ^bb0(%in: f32, %out: f32):
      %300 = arith.truncf %cst_5 : f64 to f32
      %301 = arith.addf %in, %300 : f32
      linalg.yield %301 : f32
    } -> tensor<1x3x1xf32>
    %295 = linalg.generic {indexing_maps = [#map5, #map5], iterator_types = ["parallel", "parallel", "parallel"]} ins(%294 : tensor<1x3x1xf32>) outs(%55 : tensor<1x3x1xf32>) {
    ^bb0(%in: f32, %out: f32):
      %300 = math.rsqrt %in : f32
      linalg.yield %300 : f32
    } -> tensor<1x3x1xf32>
    %296 = linalg.generic {indexing_maps = [#map5, #map6, #map5], iterator_types = ["parallel", "parallel", "parallel"]} ins(%283, %293 : tensor<1x3x4xf32>, tensor<1x3x1xf32>) outs(%43 : tensor<1x3x4xf32>) {
    ^bb0(%in: f32, %in_208: f32, %out: f32):
      %300 = arith.subf %in, %in_208 : f32
      linalg.yield %300 : f32
    } -> tensor<1x3x4xf32>
    %297 = linalg.generic {indexing_maps = [#map5, #map6, #map5], iterator_types = ["parallel", "parallel", "parallel"]} ins(%296, %295 : tensor<1x3x4xf32>, tensor<1x3x1xf32>) outs(%43 : tensor<1x3x4xf32>) {
    ^bb0(%in: f32, %in_208: f32, %out: f32):
      %300 = arith.mulf %in, %in_208 : f32
      linalg.yield %300 : f32
    } -> tensor<1x3x4xf32>
    %298 = linalg.generic {indexing_maps = [#map5, #map7, #map5], iterator_types = ["parallel", "parallel", "parallel"]} ins(%297, %cst_54 : tensor<1x3x4xf32>, tensor<4xf32>) outs(%43 : tensor<1x3x4xf32>) {
    ^bb0(%in: f32, %in_208: f32, %out: f32):
      %300 = arith.mulf %in, %in_208 : f32
      linalg.yield %300 : f32
    } -> tensor<1x3x4xf32>
    %299 = linalg.generic {indexing_maps = [#map5, #map7, #map5], iterator_types = ["parallel", "parallel", "parallel"]} ins(%298, %cst_55 : tensor<1x3x4xf32>, tensor<4xf32>) outs(%43 : tensor<1x3x4xf32>) {
    ^bb0(%in: f32, %in_208: f32, %out: f32):
      %300 = arith.addf %in, %in_208 : f32
      linalg.yield %300 : f32
    } -> tensor<1x3x4xf32>
    return %299 : tensor<1x3x4xf32>
  }
}

{-#
  dialect_resources: {
    builtin: {
      torch_tensor_12_4_torch.float32: "…",
      torch_tensor_12_torch.float32: "…",
      torch_tensor_4_4_torch.float32: "…",
      torch_tensor_4_torch.float32: "0x0400000066111F3C66119F3C199AEE3C66111F3D",
      torch_tensor_4_torch.float32_1: "0x0400000026B4173C26B4973C398EE33C26B4173D",
      torch_tensor_4_torch.float32_2: "0x04000000DA4F163CDA4F963CC877E13CDA4F163D",
      torch_tensor_8_4_torch.float32: "…",
      torch_tensor_8_torch.float32: "…",
      torch_tensor_4_8_torch.float32: "…",
      torch_tensor_4_torch.float32_3: "0x040000001A1F193C1A1F993CA7AEE53C1A1F193D",
      torch_tensor_4_torch.float32_4: "0x0400000009F2143C09F2943C0E6BDF3C09F2143D",
      torch_tensor_4_torch.float32_5: "0x04000000869A133C869A933CC967DD3C869A133D",
      torch_tensor_12_4_torch.float32_1: "…",
      torch_tensor_12_torch.float32_1: "…",
      torch_tensor_4_4_torch.float32_1: "…",
      torch_tensor_4_torch.float32_6: "0x0400000035780E3C35788E3C50B4D53C35780E3D",
      torch_tensor_4_torch.float32_7: "0x040000008988083C8988883CCDCCCC3C8988083D",
      torch_tensor_4_torch.float32_8: "0x04000000AB67073CAB67873C811BCB3CAB67073D",
      torch_tensor_8_4_torch.float32_1: "…",
      torch_tensor_8_torch.float32_1: "…",
      torch_tensor_4_8_torch.float32_1: "…",
      torch_tensor_4_torch.float32_9: "0x0400000041AE093C41AE893C6185CE3C41AE093D",
      torch_tensor_4_torch.float32_10: "0x040000008A4B063C8A4B863C5071C93C8A4B063D",
      torch_tensor_4_torch.float32_11: "0x040000000834053C0834853C0CCEC73C0834053D",
      torch_tensor_4_torch.float32_12: "0x040000000821043C0821843C8C31C63C0821043D",
      torch_tensor_4_torch.float32_13: "0x040000006F12033C6F12833CA69BC43C6F12033D",
      torch_tensor_12_4_torch.float32_2: "…",
      torch_tensor_12_torch.float32_2: "…",
      torch_tensor_4_4_torch.float32_2: "…",
      torch_tensor_4_torch.float32_14: "0x04000000F803FE3BF8037E3CFA82BE3CF803FE3C",
      torch_tensor_4_torch.float32_15: "0x040000000473ED3B04736D3C4316B23C0473ED3C",
      torch_tensor_4_torch.float32_16: "0x04000000B3BDEB3BB3BD6B3C46CEB03CB3BDEB3C",
      torch_tensor_12_4_torch.float32_3: "…",
      torch_tensor_12_torch.float32_3: "…",
      torch_tensor_4_4_torch.float32_3: "…",
      torch_tensor_4_torch.float32_17: "0x040000003E60F63B3E60763C2EC8B83C3E60F63C",
      torch_tensor_4_torch.float32_18: "0x04000000A10EEA3BA10E6A3CF98AAF3CA10EEA3C",
      torch_tensor_4_torch.float32_19: "0x04000000AC65E83BAC65683C414CAE3CAC65E83C",
      torch_tensor_8_4_torch.float32_2: "…",
      torch_tensor_8_torch.float32_2: "…",
      torch_tensor_4_8_torch.float32_2: "…",
      torch_tensor_4_torch.float32_20: "0x04000000B72EEF3BB72E6F3C0963B33CB72EEF3C",
      torch_tensor_4_torch.float32_21: "0x04000000B4C2E63BB4C2663C0712AD3CB4C2E63C",
      torch_tensor_4_torch.float32_22: "0x040000009825E53B9825653C32DCAB3C9825E53C",
      torch_tensor_4_torch.float32_23: "0x04000000398EE33B398E633CABAAAA3C398EE33C",
      torch_tensor_4_torch.float32_24: "0x0400000078FCE13B78FC613C5A7DA93C78FCE13C"
    }
  }
#-}

