// Generated by tests/generate_torch_transformer_fixtures.sh
// Source: tests/torch_transformer.py --mode mlir --encoder-layers 1 --decoder-layers 2
// Pipeline: torch-mlir-opt --torch-backend-to-linalg-on-tensors-backend-pipeline
#map = affine_map<(d0, d1) -> (d0, d1)>
#map1 = affine_map<(d0, d1) -> (d1)>
#map2 = affine_map<(d0, d1, d2, d3) -> (d0, d1, d2, d3)>
#map3 = affine_map<(d0, d1, d2, d3) -> (d0, d1, d2)>
#map4 = affine_map<(d0, d1, d2, d3) -> (d0, d1, d2, 0)>
#map5 = affine_map<(d0, d1, d2) -> (d0, d1, d2)>
#map6 = affine_map<(d0, d1, d2) -> (d0, d1, 0)>
#map7 = affine_map<(d0, d1, d2) -> (d2)>
#map8 = affine_map<(d0) -> (d0)>
#map9 = affine_map<(d0, d1) -> (d0, 0)>
#map10 = affine_map<(d0, d1) -> (0, d1)>
module {
  func.func @forward(%arg0: tensor<1x3x4xf32>, %arg1: tensor<1x3x4xf32>) -> tensor<1x3x4xf32> {
    %cst = arith.constant dense_resource<torch_tensor_12_4_torch.float32> : tensor<12x4xf32>
    %c4_i64 = arith.constant 4 : i64
    %c0_i64 = arith.constant 0 : i64
    %cst_0 = arith.constant 0.000000e+00 : f32
    %c12_i64 = arith.constant 12 : i64
    %cst_1 = arith.constant 0xFF800000 : f32
    %cst_2 = arith.constant 0.000000e+00 : f64
    %false = arith.constant false
    %cst_3 = arith.constant 1.000000e+00 : f32
    %cst_4 = arith.constant 5.000000e-01 : f32
    %c48_i64 = arith.constant 48 : i64
    %cst_5 = arith.constant 1.000000e-05 : f64
    %cst_6 = arith.constant 0xFFF0000000000000 : f64
    %cst_7 = arith.constant 0.8408964152537145 : f64
    %cst_8 = arith.constant 4.000000e+00 : f64
    %cst_9 = arith.constant 4.000000e+00 : f32
    %cst_10 = arith.constant 1.41421354 : f32
    %cst_11 = arith.constant dense_resource<torch_tensor_12_torch.float32> : tensor<12xf32>
    %cst_12 = arith.constant dense_resource<torch_tensor_4_4_torch.float32> : tensor<4x4xf32>
    %cst_13 = arith.constant dense_resource<torch_tensor_4_torch.float32> : tensor<4xf32>
    %cst_14 = arith.constant dense_resource<torch_tensor_4_torch.float32_1> : tensor<4xf32>
    %cst_15 = arith.constant dense_resource<torch_tensor_4_torch.float32_2> : tensor<4xf32>
    %cst_16 = arith.constant dense_resource<torch_tensor_8_4_torch.float32> : tensor<8x4xf32>
    %cst_17 = arith.constant dense_resource<torch_tensor_8_torch.float32> : tensor<8xf32>
    %cst_18 = arith.constant dense_resource<torch_tensor_4_8_torch.float32> : tensor<4x8xf32>
    %cst_19 = arith.constant dense_resource<torch_tensor_4_torch.float32_3> : tensor<4xf32>
    %cst_20 = arith.constant dense_resource<torch_tensor_4_torch.float32_4> : tensor<4xf32>
    %cst_21 = arith.constant dense_resource<torch_tensor_4_torch.float32_5> : tensor<4xf32>
    %cst_22 = arith.constant dense_resource<torch_tensor_4_torch.float32_6> : tensor<4xf32>
    %cst_23 = arith.constant dense_resource<torch_tensor_4_torch.float32_7> : tensor<4xf32>
    %cst_24 = arith.constant dense_resource<torch_tensor_12_4_torch.float32_1> : tensor<12x4xf32>
    %cst_25 = arith.constant dense_resource<torch_tensor_12_torch.float32_1> : tensor<12xf32>
    %cst_26 = arith.constant dense_resource<torch_tensor_4_4_torch.float32_1> : tensor<4x4xf32>
    %cst_27 = arith.constant dense_resource<torch_tensor_4_torch.float32_8> : tensor<4xf32>
    %cst_28 = arith.constant dense_resource<torch_tensor_4_torch.float32_9> : tensor<4xf32>
    %cst_29 = arith.constant dense_resource<torch_tensor_4_torch.float32_10> : tensor<4xf32>
    %cst_30 = arith.constant dense_resource<torch_tensor_12_4_torch.float32_2> : tensor<12x4xf32>
    %cst_31 = arith.constant dense_resource<torch_tensor_12_torch.float32_2> : tensor<12xf32>
    %cst_32 = arith.constant dense_resource<torch_tensor_4_4_torch.float32_2> : tensor<4x4xf32>
    %cst_33 = arith.constant dense_resource<torch_tensor_4_torch.float32_11> : tensor<4xf32>
    %cst_34 = arith.constant dense_resource<torch_tensor_4_torch.float32_12> : tensor<4xf32>
    %cst_35 = arith.constant dense_resource<torch_tensor_4_torch.float32_13> : tensor<4xf32>
    %cst_36 = arith.constant dense_resource<torch_tensor_8_4_torch.float32_1> : tensor<8x4xf32>
    %cst_37 = arith.constant dense_resource<torch_tensor_8_torch.float32_1> : tensor<8xf32>
    %cst_38 = arith.constant dense_resource<torch_tensor_4_8_torch.float32_1> : tensor<4x8xf32>
    %cst_39 = arith.constant dense_resource<torch_tensor_4_torch.float32_14> : tensor<4xf32>
    %cst_40 = arith.constant dense_resource<torch_tensor_4_torch.float32_15> : tensor<4xf32>
    %cst_41 = arith.constant dense_resource<torch_tensor_4_torch.float32_16> : tensor<4xf32>
    %cst_42 = arith.constant dense_resource<torch_tensor_12_4_torch.float32_3> : tensor<12x4xf32>
    %cst_43 = arith.constant dense_resource<torch_tensor_12_torch.float32_3> : tensor<12xf32>
    %cst_44 = arith.constant dense_resource<torch_tensor_4_4_torch.float32_3> : tensor<4x4xf32>
    %cst_45 = arith.constant dense_resource<torch_tensor_4_torch.float32_17> : tensor<4xf32>
    %cst_46 = arith.constant dense_resource<torch_tensor_4_torch.float32_18> : tensor<4xf32>
    %cst_47 = arith.constant dense_resource<torch_tensor_4_torch.float32_19> : tensor<4xf32>
    %cst_48 = arith.constant dense_resource<torch_tensor_12_4_torch.float32_4> : tensor<12x4xf32>
    %cst_49 = arith.constant dense_resource<torch_tensor_12_torch.float32_4> : tensor<12xf32>
    %cst_50 = arith.constant dense_resource<torch_tensor_4_4_torch.float32_4> : tensor<4x4xf32>
    %cst_51 = arith.constant dense_resource<torch_tensor_4_torch.float32_20> : tensor<4xf32>
    %cst_52 = arith.constant dense_resource<torch_tensor_4_torch.float32_21> : tensor<4xf32>
    %cst_53 = arith.constant dense_resource<torch_tensor_4_torch.float32_22> : tensor<4xf32>
    %cst_54 = arith.constant dense_resource<torch_tensor_8_4_torch.float32_2> : tensor<8x4xf32>
    %cst_55 = arith.constant dense_resource<torch_tensor_8_torch.float32_2> : tensor<8xf32>
    %cst_56 = arith.constant dense_resource<torch_tensor_4_8_torch.float32_2> : tensor<4x8xf32>
    %cst_57 = arith.constant dense_resource<torch_tensor_4_torch.float32_23> : tensor<4xf32>
    %cst_58 = arith.constant dense_resource<torch_tensor_4_torch.float32_24> : tensor<4xf32>
    %cst_59 = arith.constant dense_resource<torch_tensor_4_torch.float32_25> : tensor<4xf32>
    %cst_60 = arith.constant dense_resource<torch_tensor_4_torch.float32_26> : tensor<4xf32>
    %cst_61 = arith.constant dense_resource<torch_tensor_4_torch.float32_27> : tensor<4xf32>
    %cst_62 = arith.constant dense<0.000000e+00> : tensor<1x2x3x3xf32>
    %c16_i64 = arith.constant 16 : i64
    %0 = tensor.empty() : tensor<3x1x4xf32>
    %transposed = linalg.transpose ins(%arg0 : tensor<1x3x4xf32>) outs(%0 : tensor<3x1x4xf32>) permutation = [1, 0, 2] 
    %collapsed = tensor.collapse_shape %transposed [[0], [1, 2]] : tensor<3x1x4xf32> into tensor<3x4xf32>
    %1 = tensor.empty() : tensor<4x12xf32>
    %transposed_63 = linalg.transpose ins(%cst : tensor<12x4xf32>) outs(%1 : tensor<4x12xf32>) permutation = [1, 0] 
    %2 = tensor.empty() : tensor<3x12xf32>
    %3 = linalg.fill ins(%cst_0 : f32) outs(%2 : tensor<3x12xf32>) -> tensor<3x12xf32>
    %4 = linalg.matmul ins(%collapsed, %transposed_63 : tensor<3x4xf32>, tensor<4x12xf32>) outs(%3 : tensor<3x12xf32>) -> tensor<3x12xf32>
    %5 = linalg.generic {indexing_maps = [#map, #map1, #map], iterator_types = ["parallel", "parallel"]} ins(%4, %cst_11 : tensor<3x12xf32>, tensor<12xf32>) outs(%2 : tensor<3x12xf32>) {
    ^bb0(%in: f32, %in_248: f32, %out: f32):
      %341 = arith.addf %in, %in_248 : f32
      linalg.yield %341 : f32
    } -> tensor<3x12xf32>
    %expanded = tensor.expand_shape %5 [[0, 1], [2, 3, 4]] output_shape [1, 3, 1, 3, 4] : tensor<3x12xf32> into tensor<1x3x1x3x4xf32>
    %6 = tensor.empty() : tensor<3x3x1x1x4xf32>
    %transposed_64 = linalg.transpose ins(%expanded : tensor<1x3x1x3x4xf32>) outs(%6 : tensor<3x3x1x1x4xf32>) permutation = [3, 1, 2, 0, 4] 
    %collapsed_65 = tensor.collapse_shape %transposed_64 [[0], [1], [2, 3], [4]] : tensor<3x3x1x1x4xf32> into tensor<3x3x1x4xf32>
    %extracted_slice = tensor.extract_slice %collapsed_65[0, 0, 0, 0] [1, 3, 1, 4] [1, 1, 1, 1] : tensor<3x3x1x4xf32> to tensor<1x3x1x4xf32>
    %extracted_slice_66 = tensor.extract_slice %collapsed_65[1, 0, 0, 0] [1, 3, 1, 4] [1, 1, 1, 1] : tensor<3x3x1x4xf32> to tensor<1x3x1x4xf32>
    %extracted_slice_67 = tensor.extract_slice %collapsed_65[2, 0, 0, 0] [1, 3, 1, 4] [1, 1, 1, 1] : tensor<3x3x1x4xf32> to tensor<1x3x1x4xf32>
    %collapsed_68 = tensor.collapse_shape %extracted_slice [[0, 1], [2, 3]] : tensor<1x3x1x4xf32> into tensor<3x4xf32>
    %expanded_69 = tensor.expand_shape %collapsed_68 [[0], [1, 2]] output_shape [3, 2, 2] : tensor<3x4xf32> into tensor<3x2x2xf32>
    %7 = tensor.empty() : tensor<2x3x2xf32>
    %transposed_70 = linalg.transpose ins(%expanded_69 : tensor<3x2x2xf32>) outs(%7 : tensor<2x3x2xf32>) permutation = [1, 0, 2] 
    %collapsed_71 = tensor.collapse_shape %extracted_slice_66 [[0, 1], [2, 3]] : tensor<1x3x1x4xf32> into tensor<3x4xf32>
    %expanded_72 = tensor.expand_shape %collapsed_71 [[0], [1, 2]] output_shape [3, 2, 2] : tensor<3x4xf32> into tensor<3x2x2xf32>
    %transposed_73 = linalg.transpose ins(%expanded_72 : tensor<3x2x2xf32>) outs(%7 : tensor<2x3x2xf32>) permutation = [1, 0, 2] 
    %collapsed_74 = tensor.collapse_shape %extracted_slice_67 [[0, 1], [2, 3]] : tensor<1x3x1x4xf32> into tensor<3x4xf32>
    %expanded_75 = tensor.expand_shape %collapsed_74 [[0], [1, 2]] output_shape [3, 2, 2] : tensor<3x4xf32> into tensor<3x2x2xf32>
    %transposed_76 = linalg.transpose ins(%expanded_75 : tensor<3x2x2xf32>) outs(%7 : tensor<2x3x2xf32>) permutation = [1, 0, 2] 
    %expanded_77 = tensor.expand_shape %transposed_70 [[0, 1], [2], [3]] output_shape [1, 2, 3, 2] : tensor<2x3x2xf32> into tensor<1x2x3x2xf32>
    %expanded_78 = tensor.expand_shape %transposed_73 [[0, 1], [2], [3]] output_shape [1, 2, 3, 2] : tensor<2x3x2xf32> into tensor<1x2x3x2xf32>
    %8 = tensor.empty() : tensor<1x2x3x2xf32>
    %9 = linalg.generic {indexing_maps = [#map2, #map2], iterator_types = ["parallel", "parallel", "parallel", "parallel"]} ins(%expanded_77 : tensor<1x2x3x2xf32>) outs(%8 : tensor<1x2x3x2xf32>) {
    ^bb0(%in: f32, %out: f32):
      %341 = arith.truncf %cst_7 : f64 to f32
      %342 = arith.mulf %in, %341 : f32
      linalg.yield %342 : f32
    } -> tensor<1x2x3x2xf32>
    %10 = tensor.empty() : tensor<1x2x2x3xf32>
    %transposed_79 = linalg.transpose ins(%expanded_78 : tensor<1x2x3x2xf32>) outs(%10 : tensor<1x2x2x3xf32>) permutation = [0, 1, 3, 2] 
    %11 = linalg.generic {indexing_maps = [#map2, #map2], iterator_types = ["parallel", "parallel", "parallel", "parallel"]} ins(%transposed_79 : tensor<1x2x2x3xf32>) outs(%10 : tensor<1x2x2x3xf32>) {
    ^bb0(%in: f32, %out: f32):
      %341 = arith.truncf %cst_7 : f64 to f32
      %342 = arith.mulf %in, %341 : f32
      linalg.yield %342 : f32
    } -> tensor<1x2x2x3xf32>
    %collapsed_80 = tensor.collapse_shape %9 [[0, 1], [2], [3]] : tensor<1x2x3x2xf32> into tensor<2x3x2xf32>
    %collapsed_81 = tensor.collapse_shape %11 [[0, 1], [2], [3]] : tensor<1x2x2x3xf32> into tensor<2x2x3xf32>
    %12 = tensor.empty() : tensor<2x3x3xf32>
    %13 = linalg.fill ins(%cst_0 : f32) outs(%12 : tensor<2x3x3xf32>) -> tensor<2x3x3xf32>
    %14 = linalg.batch_matmul ins(%collapsed_80, %collapsed_81 : tensor<2x3x2xf32>, tensor<2x2x3xf32>) outs(%13 : tensor<2x3x3xf32>) -> tensor<2x3x3xf32>
    %expanded_82 = tensor.expand_shape %14 [[0, 1], [2], [3]] output_shape [1, 2, 3, 3] : tensor<2x3x3xf32> into tensor<1x2x3x3xf32>
    %15 = tensor.empty() : tensor<1x2x3xi64>
    %16 = linalg.fill ins(%c0_i64 : i64) outs(%15 : tensor<1x2x3xi64>) -> tensor<1x2x3xi64>
    %17 = tensor.empty() : tensor<1x2x3xf32>
    %18 = linalg.fill ins(%cst_1 : f32) outs(%17 : tensor<1x2x3xf32>) -> tensor<1x2x3xf32>
    %19:2 = linalg.generic {indexing_maps = [#map2, #map3, #map3], iterator_types = ["parallel", "parallel", "parallel", "reduction"]} ins(%expanded_82 : tensor<1x2x3x3xf32>) outs(%18, %16 : tensor<1x2x3xf32>, tensor<1x2x3xi64>) {
    ^bb0(%in: f32, %out: f32, %out_248: i64):
      %341 = linalg.index 3 : index
      %342 = arith.index_cast %341 : index to i64
      %343 = arith.maximumf %in, %out : f32
      %344 = arith.cmpf ogt, %in, %out : f32
      %345 = arith.select %344, %342, %out_248 : i64
      linalg.yield %343, %345 : f32, i64
    } -> (tensor<1x2x3xf32>, tensor<1x2x3xi64>)
    %expanded_83 = tensor.expand_shape %19#0 [[0], [1], [2, 3]] output_shape [1, 2, 3, 1] : tensor<1x2x3xf32> into tensor<1x2x3x1xf32>
    %20 = tensor.empty() : tensor<1x2x3x3xf32>
    %21 = linalg.generic {indexing_maps = [#map2, #map4, #map2], iterator_types = ["parallel", "parallel", "parallel", "parallel"]} ins(%expanded_82, %expanded_83 : tensor<1x2x3x3xf32>, tensor<1x2x3x1xf32>) outs(%20 : tensor<1x2x3x3xf32>) {
    ^bb0(%in: f32, %in_248: f32, %out: f32):
      %341 = arith.subf %in, %in_248 : f32
      linalg.yield %341 : f32
    } -> tensor<1x2x3x3xf32>
    %22 = linalg.generic {indexing_maps = [#map2, #map2], iterator_types = ["parallel", "parallel", "parallel", "parallel"]} ins(%21 : tensor<1x2x3x3xf32>) outs(%20 : tensor<1x2x3x3xf32>) {
    ^bb0(%in: f32, %out: f32):
      %341 = math.exp %in : f32
      linalg.yield %341 : f32
    } -> tensor<1x2x3x3xf32>
    %23 = tensor.empty() : tensor<1x2x3x1xf32>
    %24 = linalg.fill ins(%cst_0 : f32) outs(%23 : tensor<1x2x3x1xf32>) -> tensor<1x2x3x1xf32>
    %25 = linalg.generic {indexing_maps = [#map2, #map4], iterator_types = ["parallel", "parallel", "parallel", "reduction"]} ins(%22 : tensor<1x2x3x3xf32>) outs(%24 : tensor<1x2x3x1xf32>) {
    ^bb0(%in: f32, %out: f32):
      %341 = arith.addf %in, %out : f32
      linalg.yield %341 : f32
    } -> tensor<1x2x3x1xf32>
    %26 = linalg.generic {indexing_maps = [#map2, #map4, #map2], iterator_types = ["parallel", "parallel", "parallel", "parallel"]} ins(%22, %25 : tensor<1x2x3x3xf32>, tensor<1x2x3x1xf32>) outs(%20 : tensor<1x2x3x3xf32>) {
    ^bb0(%in: f32, %in_248: f32, %out: f32):
      %341 = arith.divf %in, %in_248 : f32
      linalg.yield %341 : f32
    } -> tensor<1x2x3x3xf32>
    %27 = tensor.empty() : tensor<1x2x3x3xi1>
    %28 = linalg.generic {indexing_maps = [#map2, #map2], iterator_types = ["parallel", "parallel", "parallel", "parallel"]} ins(%expanded_82 : tensor<1x2x3x3xf32>) outs(%27 : tensor<1x2x3x3xi1>) {
    ^bb0(%in: f32, %out: i1):
      %341 = arith.extf %in : f32 to f64
      %342 = arith.cmpf oeq, %341, %cst_6 : f64
      linalg.yield %342 : i1
    } -> tensor<1x2x3x3xi1>
    %29 = linalg.generic {indexing_maps = [#map2, #map2], iterator_types = ["parallel", "parallel", "parallel", "parallel"]} ins(%28 : tensor<1x2x3x3xi1>) outs(%27 : tensor<1x2x3x3xi1>) {
    ^bb0(%in: i1, %out: i1):
      %341 = arith.cmpi eq, %in, %false : i1
      linalg.yield %341 : i1
    } -> tensor<1x2x3x3xi1>
    %30 = tensor.empty() : tensor<1x2x3x1xi1>
    %31 = linalg.fill ins(%false : i1) outs(%30 : tensor<1x2x3x1xi1>) -> tensor<1x2x3x1xi1>
    %32 = linalg.generic {indexing_maps = [#map2, #map4], iterator_types = ["parallel", "parallel", "parallel", "reduction"]} ins(%29 : tensor<1x2x3x3xi1>) outs(%31 : tensor<1x2x3x1xi1>) {
    ^bb0(%in: i1, %out: i1):
      %341 = arith.ori %in, %out : i1
      linalg.yield %341 : i1
    } -> tensor<1x2x3x1xi1>
    %33 = linalg.generic {indexing_maps = [#map2, #map2], iterator_types = ["parallel", "parallel", "parallel", "parallel"]} ins(%32 : tensor<1x2x3x1xi1>) outs(%30 : tensor<1x2x3x1xi1>) {
    ^bb0(%in: i1, %out: i1):
      %341 = arith.cmpi eq, %in, %false : i1
      linalg.yield %341 : i1
    } -> tensor<1x2x3x1xi1>
    %34 = linalg.generic {indexing_maps = [#map4, #map2, #map2, #map2], iterator_types = ["parallel", "parallel", "parallel", "parallel"]} ins(%33, %cst_62, %26 : tensor<1x2x3x1xi1>, tensor<1x2x3x3xf32>, tensor<1x2x3x3xf32>) outs(%20 : tensor<1x2x3x3xf32>) {
    ^bb0(%in: i1, %in_248: f32, %in_249: f32, %out: f32):
      %341 = arith.select %in, %in_248, %in_249 : f32
      linalg.yield %341 : f32
    } -> tensor<1x2x3x3xf32>
    %collapsed_84 = tensor.collapse_shape %34 [[0, 1], [2], [3]] : tensor<1x2x3x3xf32> into tensor<2x3x3xf32>
    %35 = linalg.fill ins(%cst_0 : f32) outs(%7 : tensor<2x3x2xf32>) -> tensor<2x3x2xf32>
    %36 = linalg.batch_matmul ins(%collapsed_84, %transposed_76 : tensor<2x3x3xf32>, tensor<2x3x2xf32>) outs(%35 : tensor<2x3x2xf32>) -> tensor<2x3x2xf32>
    %expanded_85 = tensor.expand_shape %36 [[0, 1], [2], [3]] output_shape [1, 2, 3, 2] : tensor<2x3x2xf32> into tensor<1x2x3x2xf32>
    %37 = tensor.empty() : tensor<3x1x2x2xf32>
    %transposed_86 = linalg.transpose ins(%expanded_85 : tensor<1x2x3x2xf32>) outs(%37 : tensor<3x1x2x2xf32>) permutation = [2, 0, 1, 3] 
    %collapsed_87 = tensor.collapse_shape %transposed_86 [[0], [1, 2, 3]] : tensor<3x1x2x2xf32> into tensor<3x4xf32>
    %38 = tensor.empty() : tensor<4x4xf32>
    %transposed_88 = linalg.transpose ins(%cst_12 : tensor<4x4xf32>) outs(%38 : tensor<4x4xf32>) permutation = [1, 0] 
    %39 = tensor.empty() : tensor<3x4xf32>
    %40 = linalg.fill ins(%cst_0 : f32) outs(%39 : tensor<3x4xf32>) -> tensor<3x4xf32>
    %41 = linalg.matmul ins(%collapsed_87, %transposed_88 : tensor<3x4xf32>, tensor<4x4xf32>) outs(%40 : tensor<3x4xf32>) -> tensor<3x4xf32>
    %42 = linalg.generic {indexing_maps = [#map, #map1, #map], iterator_types = ["parallel", "parallel"]} ins(%41, %cst_13 : tensor<3x4xf32>, tensor<4xf32>) outs(%39 : tensor<3x4xf32>) {
    ^bb0(%in: f32, %in_248: f32, %out: f32):
      %341 = arith.addf %in, %in_248 : f32
      linalg.yield %341 : f32
    } -> tensor<3x4xf32>
    %expanded_89 = tensor.expand_shape %42 [[0], [1, 2]] output_shape [3, 1, 4] : tensor<3x4xf32> into tensor<3x1x4xf32>
    %43 = tensor.empty() : tensor<1x3x4xf32>
    %transposed_90 = linalg.transpose ins(%expanded_89 : tensor<3x1x4xf32>) outs(%43 : tensor<1x3x4xf32>) permutation = [1, 0, 2] 
    %44 = linalg.generic {indexing_maps = [#map5, #map5, #map5], iterator_types = ["parallel", "parallel", "parallel"]} ins(%arg0, %transposed_90 : tensor<1x3x4xf32>, tensor<1x3x4xf32>) outs(%43 : tensor<1x3x4xf32>) {
    ^bb0(%in: f32, %in_248: f32, %out: f32):
      %341 = arith.addf %in, %in_248 : f32
      linalg.yield %341 : f32
    } -> tensor<1x3x4xf32>
    %45 = tensor.empty() : tensor<1x3x4xf64>
    %46 = linalg.generic {indexing_maps = [#map5, #map5], iterator_types = ["parallel", "parallel", "parallel"]} ins(%44 : tensor<1x3x4xf32>) outs(%45 : tensor<1x3x4xf64>) {
    ^bb0(%in: f32, %out: f64):
      %341 = arith.extf %in : f32 to f64
      linalg.yield %341 : f64
    } -> tensor<1x3x4xf64>
    %47 = tensor.empty() : tensor<1x3x1xf64>
    %48 = linalg.fill ins(%cst_2 : f64) outs(%47 : tensor<1x3x1xf64>) -> tensor<1x3x1xf64>
    %49 = linalg.generic {indexing_maps = [#map5, #map6], iterator_types = ["parallel", "parallel", "reduction"]} ins(%46 : tensor<1x3x4xf64>) outs(%48 : tensor<1x3x1xf64>) {
    ^bb0(%in: f64, %out: f64):
      %341 = arith.addf %in, %out : f64
      linalg.yield %341 : f64
    } -> tensor<1x3x1xf64>
    %50 = linalg.generic {indexing_maps = [#map5, #map5], iterator_types = ["parallel", "parallel", "parallel"]} ins(%49 : tensor<1x3x1xf64>) outs(%47 : tensor<1x3x1xf64>) {
    ^bb0(%in: f64, %out: f64):
      %341 = arith.divf %in, %cst_8 : f64
      linalg.yield %341 : f64
    } -> tensor<1x3x1xf64>
    %51 = linalg.generic {indexing_maps = [#map5, #map6, #map5], iterator_types = ["parallel", "parallel", "parallel"]} ins(%46, %50 : tensor<1x3x4xf64>, tensor<1x3x1xf64>) outs(%45 : tensor<1x3x4xf64>) {
    ^bb0(%in: f64, %in_248: f64, %out: f64):
      %341 = arith.subf %in, %in_248 : f64
      linalg.yield %341 : f64
    } -> tensor<1x3x4xf64>
    %52 = linalg.generic {indexing_maps = [#map5, #map5, #map5], iterator_types = ["parallel", "parallel", "parallel"]} ins(%51, %51 : tensor<1x3x4xf64>, tensor<1x3x4xf64>) outs(%45 : tensor<1x3x4xf64>) {
    ^bb0(%in: f64, %in_248: f64, %out: f64):
      %341 = arith.mulf %in, %in_248 : f64
      linalg.yield %341 : f64
    } -> tensor<1x3x4xf64>
    %53 = linalg.generic {indexing_maps = [#map5, #map6], iterator_types = ["parallel", "parallel", "reduction"]} ins(%52 : tensor<1x3x4xf64>) outs(%48 : tensor<1x3x1xf64>) {
    ^bb0(%in: f64, %out: f64):
      %341 = arith.addf %in, %out : f64
      linalg.yield %341 : f64
    } -> tensor<1x3x1xf64>
    %54 = linalg.generic {indexing_maps = [#map5, #map5], iterator_types = ["parallel", "parallel", "parallel"]} ins(%53 : tensor<1x3x1xf64>) outs(%47 : tensor<1x3x1xf64>) {
    ^bb0(%in: f64, %out: f64):
      %341 = arith.divf %in, %cst_8 : f64
      linalg.yield %341 : f64
    } -> tensor<1x3x1xf64>
    %55 = tensor.empty() : tensor<1x3x1xf32>
    %56 = linalg.generic {indexing_maps = [#map5, #map5], iterator_types = ["parallel", "parallel", "parallel"]} ins(%54 : tensor<1x3x1xf64>) outs(%55 : tensor<1x3x1xf32>) {
    ^bb0(%in: f64, %out: f32):
      %341 = arith.truncf %in : f64 to f32
      linalg.yield %341 : f32
    } -> tensor<1x3x1xf32>
    %57 = linalg.fill ins(%cst_0 : f32) outs(%55 : tensor<1x3x1xf32>) -> tensor<1x3x1xf32>
    %58 = linalg.generic {indexing_maps = [#map5, #map6], iterator_types = ["parallel", "parallel", "reduction"]} ins(%44 : tensor<1x3x4xf32>) outs(%57 : tensor<1x3x1xf32>) {
    ^bb0(%in: f32, %out: f32):
      %341 = arith.addf %in, %out : f32
      linalg.yield %341 : f32
    } -> tensor<1x3x1xf32>
    %59 = linalg.generic {indexing_maps = [#map5, #map5], iterator_types = ["parallel", "parallel", "parallel"]} ins(%58 : tensor<1x3x1xf32>) outs(%55 : tensor<1x3x1xf32>) {
    ^bb0(%in: f32, %out: f32):
      %341 = arith.divf %in, %cst_9 : f32
      linalg.yield %341 : f32
    } -> tensor<1x3x1xf32>
    %60 = linalg.generic {indexing_maps = [#map5, #map5], iterator_types = ["parallel", "parallel", "parallel"]} ins(%56 : tensor<1x3x1xf32>) outs(%55 : tensor<1x3x1xf32>) {
    ^bb0(%in: f32, %out: f32):
      %341 = arith.truncf %cst_5 : f64 to f32
      %342 = arith.addf %in, %341 : f32
      linalg.yield %342 : f32
    } -> tensor<1x3x1xf32>
    %61 = linalg.generic {indexing_maps = [#map5, #map5], iterator_types = ["parallel", "parallel", "parallel"]} ins(%60 : tensor<1x3x1xf32>) outs(%55 : tensor<1x3x1xf32>) {
    ^bb0(%in: f32, %out: f32):
      %341 = math.rsqrt %in : f32
      linalg.yield %341 : f32
    } -> tensor<1x3x1xf32>
    %62 = linalg.generic {indexing_maps = [#map5, #map6, #map5], iterator_types = ["parallel", "parallel", "parallel"]} ins(%44, %59 : tensor<1x3x4xf32>, tensor<1x3x1xf32>) outs(%43 : tensor<1x3x4xf32>) {
    ^bb0(%in: f32, %in_248: f32, %out: f32):
      %341 = arith.subf %in, %in_248 : f32
      linalg.yield %341 : f32
    } -> tensor<1x3x4xf32>
    %63 = linalg.generic {indexing_maps = [#map5, #map6, #map5], iterator_types = ["parallel", "parallel", "parallel"]} ins(%62, %61 : tensor<1x3x4xf32>, tensor<1x3x1xf32>) outs(%43 : tensor<1x3x4xf32>) {
    ^bb0(%in: f32, %in_248: f32, %out: f32):
      %341 = arith.mulf %in, %in_248 : f32
      linalg.yield %341 : f32
    } -> tensor<1x3x4xf32>
    %64 = linalg.generic {indexing_maps = [#map5, #map7, #map5], iterator_types = ["parallel", "parallel", "parallel"]} ins(%63, %cst_14 : tensor<1x3x4xf32>, tensor<4xf32>) outs(%43 : tensor<1x3x4xf32>) {
    ^bb0(%in: f32, %in_248: f32, %out: f32):
      %341 = arith.mulf %in, %in_248 : f32
      linalg.yield %341 : f32
    } -> tensor<1x3x4xf32>
    %65 = linalg.generic {indexing_maps = [#map5, #map7, #map5], iterator_types = ["parallel", "parallel", "parallel"]} ins(%64, %cst_15 : tensor<1x3x4xf32>, tensor<4xf32>) outs(%43 : tensor<1x3x4xf32>) {
    ^bb0(%in: f32, %in_248: f32, %out: f32):
      %341 = arith.addf %in, %in_248 : f32
      linalg.yield %341 : f32
    } -> tensor<1x3x4xf32>
    %collapsed_91 = tensor.collapse_shape %65 [[0, 1], [2]] : tensor<1x3x4xf32> into tensor<3x4xf32>
    %66 = tensor.empty() : tensor<4x8xf32>
    %transposed_92 = linalg.transpose ins(%cst_16 : tensor<8x4xf32>) outs(%66 : tensor<4x8xf32>) permutation = [1, 0] 
    %67 = tensor.empty() : tensor<3x8xf32>
    %68 = linalg.fill ins(%cst_0 : f32) outs(%67 : tensor<3x8xf32>) -> tensor<3x8xf32>
    %69 = linalg.matmul ins(%collapsed_91, %transposed_92 : tensor<3x4xf32>, tensor<4x8xf32>) outs(%68 : tensor<3x8xf32>) -> tensor<3x8xf32>
    %70 = linalg.generic {indexing_maps = [#map, #map1, #map], iterator_types = ["parallel", "parallel"]} ins(%69, %cst_17 : tensor<3x8xf32>, tensor<8xf32>) outs(%67 : tensor<3x8xf32>) {
    ^bb0(%in: f32, %in_248: f32, %out: f32):
      %341 = arith.addf %in, %in_248 : f32
      linalg.yield %341 : f32
    } -> tensor<3x8xf32>
    %expanded_93 = tensor.expand_shape %70 [[0, 1], [2]] output_shape [1, 3, 8] : tensor<3x8xf32> into tensor<1x3x8xf32>
    %71 = tensor.empty() : tensor<1x3x8xf32>
    %72 = linalg.generic {indexing_maps = [#map5, #map5], iterator_types = ["parallel", "parallel", "parallel"]} ins(%expanded_93 : tensor<1x3x8xf32>) outs(%71 : tensor<1x3x8xf32>) {
    ^bb0(%in: f32, %out: f32):
      %341 = arith.divf %in, %cst_10 : f32
      %342 = math.erf %341 : f32
      %343 = arith.addf %342, %cst_3 : f32
      %344 = arith.mulf %343, %cst_4 : f32
      %345 = arith.mulf %in, %344 : f32
      linalg.yield %345 : f32
    } -> tensor<1x3x8xf32>
    %collapsed_94 = tensor.collapse_shape %72 [[0, 1], [2]] : tensor<1x3x8xf32> into tensor<3x8xf32>
    %73 = tensor.empty() : tensor<8x4xf32>
    %transposed_95 = linalg.transpose ins(%cst_18 : tensor<4x8xf32>) outs(%73 : tensor<8x4xf32>) permutation = [1, 0] 
    %74 = linalg.matmul ins(%collapsed_94, %transposed_95 : tensor<3x8xf32>, tensor<8x4xf32>) outs(%40 : tensor<3x4xf32>) -> tensor<3x4xf32>
    %75 = linalg.generic {indexing_maps = [#map, #map1, #map], iterator_types = ["parallel", "parallel"]} ins(%74, %cst_19 : tensor<3x4xf32>, tensor<4xf32>) outs(%39 : tensor<3x4xf32>) {
    ^bb0(%in: f32, %in_248: f32, %out: f32):
      %341 = arith.addf %in, %in_248 : f32
      linalg.yield %341 : f32
    } -> tensor<3x4xf32>
    %expanded_96 = tensor.expand_shape %75 [[0, 1], [2]] output_shape [1, 3, 4] : tensor<3x4xf32> into tensor<1x3x4xf32>
    %76 = linalg.generic {indexing_maps = [#map5, #map5, #map5], iterator_types = ["parallel", "parallel", "parallel"]} ins(%65, %expanded_96 : tensor<1x3x4xf32>, tensor<1x3x4xf32>) outs(%43 : tensor<1x3x4xf32>) {
    ^bb0(%in: f32, %in_248: f32, %out: f32):
      %341 = arith.addf %in, %in_248 : f32
      linalg.yield %341 : f32
    } -> tensor<1x3x4xf32>
    %77 = linalg.generic {indexing_maps = [#map5, #map5], iterator_types = ["parallel", "parallel", "parallel"]} ins(%76 : tensor<1x3x4xf32>) outs(%45 : tensor<1x3x4xf64>) {
    ^bb0(%in: f32, %out: f64):
      %341 = arith.extf %in : f32 to f64
      linalg.yield %341 : f64
    } -> tensor<1x3x4xf64>
    %78 = linalg.generic {indexing_maps = [#map5, #map6], iterator_types = ["parallel", "parallel", "reduction"]} ins(%77 : tensor<1x3x4xf64>) outs(%48 : tensor<1x3x1xf64>) {
    ^bb0(%in: f64, %out: f64):
      %341 = arith.addf %in, %out : f64
      linalg.yield %341 : f64
    } -> tensor<1x3x1xf64>
    %79 = linalg.generic {indexing_maps = [#map5, #map5], iterator_types = ["parallel", "parallel", "parallel"]} ins(%78 : tensor<1x3x1xf64>) outs(%47 : tensor<1x3x1xf64>) {
    ^bb0(%in: f64, %out: f64):
      %341 = arith.divf %in, %cst_8 : f64
      linalg.yield %341 : f64
    } -> tensor<1x3x1xf64>
    %80 = linalg.generic {indexing_maps = [#map5, #map6, #map5], iterator_types = ["parallel", "parallel", "parallel"]} ins(%77, %79 : tensor<1x3x4xf64>, tensor<1x3x1xf64>) outs(%45 : tensor<1x3x4xf64>) {
    ^bb0(%in: f64, %in_248: f64, %out: f64):
      %341 = arith.subf %in, %in_248 : f64
      linalg.yield %341 : f64
    } -> tensor<1x3x4xf64>
    %81 = linalg.generic {indexing_maps = [#map5, #map5, #map5], iterator_types = ["parallel", "parallel", "parallel"]} ins(%80, %80 : tensor<1x3x4xf64>, tensor<1x3x4xf64>) outs(%45 : tensor<1x3x4xf64>) {
    ^bb0(%in: f64, %in_248: f64, %out: f64):
      %341 = arith.mulf %in, %in_248 : f64
      linalg.yield %341 : f64
    } -> tensor<1x3x4xf64>
    %82 = linalg.generic {indexing_maps = [#map5, #map6], iterator_types = ["parallel", "parallel", "reduction"]} ins(%81 : tensor<1x3x4xf64>) outs(%48 : tensor<1x3x1xf64>) {
    ^bb0(%in: f64, %out: f64):
      %341 = arith.addf %in, %out : f64
      linalg.yield %341 : f64
    } -> tensor<1x3x1xf64>
    %83 = linalg.generic {indexing_maps = [#map5, #map5], iterator_types = ["parallel", "parallel", "parallel"]} ins(%82 : tensor<1x3x1xf64>) outs(%47 : tensor<1x3x1xf64>) {
    ^bb0(%in: f64, %out: f64):
      %341 = arith.divf %in, %cst_8 : f64
      linalg.yield %341 : f64
    } -> tensor<1x3x1xf64>
    %84 = linalg.generic {indexing_maps = [#map5, #map5], iterator_types = ["parallel", "parallel", "parallel"]} ins(%83 : tensor<1x3x1xf64>) outs(%55 : tensor<1x3x1xf32>) {
    ^bb0(%in: f64, %out: f32):
      %341 = arith.truncf %in : f64 to f32
      linalg.yield %341 : f32
    } -> tensor<1x3x1xf32>
    %85 = linalg.generic {indexing_maps = [#map5, #map6], iterator_types = ["parallel", "parallel", "reduction"]} ins(%76 : tensor<1x3x4xf32>) outs(%57 : tensor<1x3x1xf32>) {
    ^bb0(%in: f32, %out: f32):
      %341 = arith.addf %in, %out : f32
      linalg.yield %341 : f32
    } -> tensor<1x3x1xf32>
    %86 = linalg.generic {indexing_maps = [#map5, #map5], iterator_types = ["parallel", "parallel", "parallel"]} ins(%85 : tensor<1x3x1xf32>) outs(%55 : tensor<1x3x1xf32>) {
    ^bb0(%in: f32, %out: f32):
      %341 = arith.divf %in, %cst_9 : f32
      linalg.yield %341 : f32
    } -> tensor<1x3x1xf32>
    %87 = linalg.generic {indexing_maps = [#map5, #map5], iterator_types = ["parallel", "parallel", "parallel"]} ins(%84 : tensor<1x3x1xf32>) outs(%55 : tensor<1x3x1xf32>) {
    ^bb0(%in: f32, %out: f32):
      %341 = arith.truncf %cst_5 : f64 to f32
      %342 = arith.addf %in, %341 : f32
      linalg.yield %342 : f32
    } -> tensor<1x3x1xf32>
    %88 = linalg.generic {indexing_maps = [#map5, #map5], iterator_types = ["parallel", "parallel", "parallel"]} ins(%87 : tensor<1x3x1xf32>) outs(%55 : tensor<1x3x1xf32>) {
    ^bb0(%in: f32, %out: f32):
      %341 = math.rsqrt %in : f32
      linalg.yield %341 : f32
    } -> tensor<1x3x1xf32>
    %89 = linalg.generic {indexing_maps = [#map5, #map6, #map5], iterator_types = ["parallel", "parallel", "parallel"]} ins(%76, %86 : tensor<1x3x4xf32>, tensor<1x3x1xf32>) outs(%43 : tensor<1x3x4xf32>) {
    ^bb0(%in: f32, %in_248: f32, %out: f32):
      %341 = arith.subf %in, %in_248 : f32
      linalg.yield %341 : f32
    } -> tensor<1x3x4xf32>
    %90 = linalg.generic {indexing_maps = [#map5, #map6, #map5], iterator_types = ["parallel", "parallel", "parallel"]} ins(%89, %88 : tensor<1x3x4xf32>, tensor<1x3x1xf32>) outs(%43 : tensor<1x3x4xf32>) {
    ^bb0(%in: f32, %in_248: f32, %out: f32):
      %341 = arith.mulf %in, %in_248 : f32
      linalg.yield %341 : f32
    } -> tensor<1x3x4xf32>
    %91 = linalg.generic {indexing_maps = [#map5, #map7, #map5], iterator_types = ["parallel", "parallel", "parallel"]} ins(%90, %cst_20 : tensor<1x3x4xf32>, tensor<4xf32>) outs(%43 : tensor<1x3x4xf32>) {
    ^bb0(%in: f32, %in_248: f32, %out: f32):
      %341 = arith.mulf %in, %in_248 : f32
      linalg.yield %341 : f32
    } -> tensor<1x3x4xf32>
    %92 = linalg.generic {indexing_maps = [#map5, #map7, #map5], iterator_types = ["parallel", "parallel", "parallel"]} ins(%91, %cst_21 : tensor<1x3x4xf32>, tensor<4xf32>) outs(%43 : tensor<1x3x4xf32>) {
    ^bb0(%in: f32, %in_248: f32, %out: f32):
      %341 = arith.addf %in, %in_248 : f32
      linalg.yield %341 : f32
    } -> tensor<1x3x4xf32>
    %93 = linalg.generic {indexing_maps = [#map5, #map5], iterator_types = ["parallel", "parallel", "parallel"]} ins(%92 : tensor<1x3x4xf32>) outs(%45 : tensor<1x3x4xf64>) {
    ^bb0(%in: f32, %out: f64):
      %341 = arith.extf %in : f32 to f64
      linalg.yield %341 : f64
    } -> tensor<1x3x4xf64>
    %94 = linalg.generic {indexing_maps = [#map5, #map6], iterator_types = ["parallel", "parallel", "reduction"]} ins(%93 : tensor<1x3x4xf64>) outs(%48 : tensor<1x3x1xf64>) {
    ^bb0(%in: f64, %out: f64):
      %341 = arith.addf %in, %out : f64
      linalg.yield %341 : f64
    } -> tensor<1x3x1xf64>
    %95 = linalg.generic {indexing_maps = [#map5, #map5], iterator_types = ["parallel", "parallel", "parallel"]} ins(%94 : tensor<1x3x1xf64>) outs(%47 : tensor<1x3x1xf64>) {
    ^bb0(%in: f64, %out: f64):
      %341 = arith.divf %in, %cst_8 : f64
      linalg.yield %341 : f64
    } -> tensor<1x3x1xf64>
    %96 = linalg.generic {indexing_maps = [#map5, #map6, #map5], iterator_types = ["parallel", "parallel", "parallel"]} ins(%93, %95 : tensor<1x3x4xf64>, tensor<1x3x1xf64>) outs(%45 : tensor<1x3x4xf64>) {
    ^bb0(%in: f64, %in_248: f64, %out: f64):
      %341 = arith.subf %in, %in_248 : f64
      linalg.yield %341 : f64
    } -> tensor<1x3x4xf64>
    %97 = linalg.generic {indexing_maps = [#map5, #map5, #map5], iterator_types = ["parallel", "parallel", "parallel"]} ins(%96, %96 : tensor<1x3x4xf64>, tensor<1x3x4xf64>) outs(%45 : tensor<1x3x4xf64>) {
    ^bb0(%in: f64, %in_248: f64, %out: f64):
      %341 = arith.mulf %in, %in_248 : f64
      linalg.yield %341 : f64
    } -> tensor<1x3x4xf64>
    %98 = linalg.generic {indexing_maps = [#map5, #map6], iterator_types = ["parallel", "parallel", "reduction"]} ins(%97 : tensor<1x3x4xf64>) outs(%48 : tensor<1x3x1xf64>) {
    ^bb0(%in: f64, %out: f64):
      %341 = arith.addf %in, %out : f64
      linalg.yield %341 : f64
    } -> tensor<1x3x1xf64>
    %99 = linalg.generic {indexing_maps = [#map5, #map5], iterator_types = ["parallel", "parallel", "parallel"]} ins(%98 : tensor<1x3x1xf64>) outs(%47 : tensor<1x3x1xf64>) {
    ^bb0(%in: f64, %out: f64):
      %341 = arith.divf %in, %cst_8 : f64
      linalg.yield %341 : f64
    } -> tensor<1x3x1xf64>
    %100 = linalg.generic {indexing_maps = [#map5, #map5], iterator_types = ["parallel", "parallel", "parallel"]} ins(%99 : tensor<1x3x1xf64>) outs(%55 : tensor<1x3x1xf32>) {
    ^bb0(%in: f64, %out: f32):
      %341 = arith.truncf %in : f64 to f32
      linalg.yield %341 : f32
    } -> tensor<1x3x1xf32>
    %101 = linalg.generic {indexing_maps = [#map5, #map6], iterator_types = ["parallel", "parallel", "reduction"]} ins(%92 : tensor<1x3x4xf32>) outs(%57 : tensor<1x3x1xf32>) {
    ^bb0(%in: f32, %out: f32):
      %341 = arith.addf %in, %out : f32
      linalg.yield %341 : f32
    } -> tensor<1x3x1xf32>
    %102 = linalg.generic {indexing_maps = [#map5, #map5], iterator_types = ["parallel", "parallel", "parallel"]} ins(%101 : tensor<1x3x1xf32>) outs(%55 : tensor<1x3x1xf32>) {
    ^bb0(%in: f32, %out: f32):
      %341 = arith.divf %in, %cst_9 : f32
      linalg.yield %341 : f32
    } -> tensor<1x3x1xf32>
    %103 = linalg.generic {indexing_maps = [#map5, #map5], iterator_types = ["parallel", "parallel", "parallel"]} ins(%100 : tensor<1x3x1xf32>) outs(%55 : tensor<1x3x1xf32>) {
    ^bb0(%in: f32, %out: f32):
      %341 = arith.truncf %cst_5 : f64 to f32
      %342 = arith.addf %in, %341 : f32
      linalg.yield %342 : f32
    } -> tensor<1x3x1xf32>
    %104 = linalg.generic {indexing_maps = [#map5, #map5], iterator_types = ["parallel", "parallel", "parallel"]} ins(%103 : tensor<1x3x1xf32>) outs(%55 : tensor<1x3x1xf32>) {
    ^bb0(%in: f32, %out: f32):
      %341 = math.rsqrt %in : f32
      linalg.yield %341 : f32
    } -> tensor<1x3x1xf32>
    %105 = linalg.generic {indexing_maps = [#map5, #map6, #map5], iterator_types = ["parallel", "parallel", "parallel"]} ins(%92, %102 : tensor<1x3x4xf32>, tensor<1x3x1xf32>) outs(%43 : tensor<1x3x4xf32>) {
    ^bb0(%in: f32, %in_248: f32, %out: f32):
      %341 = arith.subf %in, %in_248 : f32
      linalg.yield %341 : f32
    } -> tensor<1x3x4xf32>
    %106 = linalg.generic {indexing_maps = [#map5, #map6, #map5], iterator_types = ["parallel", "parallel", "parallel"]} ins(%105, %104 : tensor<1x3x4xf32>, tensor<1x3x1xf32>) outs(%43 : tensor<1x3x4xf32>) {
    ^bb0(%in: f32, %in_248: f32, %out: f32):
      %341 = arith.mulf %in, %in_248 : f32
      linalg.yield %341 : f32
    } -> tensor<1x3x4xf32>
    %107 = linalg.generic {indexing_maps = [#map5, #map7, #map5], iterator_types = ["parallel", "parallel", "parallel"]} ins(%106, %cst_22 : tensor<1x3x4xf32>, tensor<4xf32>) outs(%43 : tensor<1x3x4xf32>) {
    ^bb0(%in: f32, %in_248: f32, %out: f32):
      %341 = arith.mulf %in, %in_248 : f32
      linalg.yield %341 : f32
    } -> tensor<1x3x4xf32>
    %108 = linalg.generic {indexing_maps = [#map5, #map7, #map5], iterator_types = ["parallel", "parallel", "parallel"]} ins(%107, %cst_23 : tensor<1x3x4xf32>, tensor<4xf32>) outs(%43 : tensor<1x3x4xf32>) {
    ^bb0(%in: f32, %in_248: f32, %out: f32):
      %341 = arith.addf %in, %in_248 : f32
      linalg.yield %341 : f32
    } -> tensor<1x3x4xf32>
    %transposed_97 = linalg.transpose ins(%arg1 : tensor<1x3x4xf32>) outs(%0 : tensor<3x1x4xf32>) permutation = [1, 0, 2] 
    %collapsed_98 = tensor.collapse_shape %transposed_97 [[0], [1, 2]] : tensor<3x1x4xf32> into tensor<3x4xf32>
    %transposed_99 = linalg.transpose ins(%cst_24 : tensor<12x4xf32>) outs(%1 : tensor<4x12xf32>) permutation = [1, 0] 
    %109 = linalg.matmul ins(%collapsed_98, %transposed_99 : tensor<3x4xf32>, tensor<4x12xf32>) outs(%3 : tensor<3x12xf32>) -> tensor<3x12xf32>
    %110 = linalg.generic {indexing_maps = [#map, #map1, #map], iterator_types = ["parallel", "parallel"]} ins(%109, %cst_25 : tensor<3x12xf32>, tensor<12xf32>) outs(%2 : tensor<3x12xf32>) {
    ^bb0(%in: f32, %in_248: f32, %out: f32):
      %341 = arith.addf %in, %in_248 : f32
      linalg.yield %341 : f32
    } -> tensor<3x12xf32>
    %expanded_100 = tensor.expand_shape %110 [[0, 1], [2, 3, 4]] output_shape [1, 3, 1, 3, 4] : tensor<3x12xf32> into tensor<1x3x1x3x4xf32>
    %transposed_101 = linalg.transpose ins(%expanded_100 : tensor<1x3x1x3x4xf32>) outs(%6 : tensor<3x3x1x1x4xf32>) permutation = [3, 1, 2, 0, 4] 
    %collapsed_102 = tensor.collapse_shape %transposed_101 [[0], [1], [2, 3], [4]] : tensor<3x3x1x1x4xf32> into tensor<3x3x1x4xf32>
    %extracted_slice_103 = tensor.extract_slice %collapsed_102[0, 0, 0, 0] [1, 3, 1, 4] [1, 1, 1, 1] : tensor<3x3x1x4xf32> to tensor<1x3x1x4xf32>
    %extracted_slice_104 = tensor.extract_slice %collapsed_102[1, 0, 0, 0] [1, 3, 1, 4] [1, 1, 1, 1] : tensor<3x3x1x4xf32> to tensor<1x3x1x4xf32>
    %extracted_slice_105 = tensor.extract_slice %collapsed_102[2, 0, 0, 0] [1, 3, 1, 4] [1, 1, 1, 1] : tensor<3x3x1x4xf32> to tensor<1x3x1x4xf32>
    %collapsed_106 = tensor.collapse_shape %extracted_slice_103 [[0, 1], [2, 3]] : tensor<1x3x1x4xf32> into tensor<3x4xf32>
    %expanded_107 = tensor.expand_shape %collapsed_106 [[0], [1, 2]] output_shape [3, 2, 2] : tensor<3x4xf32> into tensor<3x2x2xf32>
    %transposed_108 = linalg.transpose ins(%expanded_107 : tensor<3x2x2xf32>) outs(%7 : tensor<2x3x2xf32>) permutation = [1, 0, 2] 
    %collapsed_109 = tensor.collapse_shape %extracted_slice_104 [[0, 1], [2, 3]] : tensor<1x3x1x4xf32> into tensor<3x4xf32>
    %expanded_110 = tensor.expand_shape %collapsed_109 [[0], [1, 2]] output_shape [3, 2, 2] : tensor<3x4xf32> into tensor<3x2x2xf32>
    %transposed_111 = linalg.transpose ins(%expanded_110 : tensor<3x2x2xf32>) outs(%7 : tensor<2x3x2xf32>) permutation = [1, 0, 2] 
    %collapsed_112 = tensor.collapse_shape %extracted_slice_105 [[0, 1], [2, 3]] : tensor<1x3x1x4xf32> into tensor<3x4xf32>
    %expanded_113 = tensor.expand_shape %collapsed_112 [[0], [1, 2]] output_shape [3, 2, 2] : tensor<3x4xf32> into tensor<3x2x2xf32>
    %transposed_114 = linalg.transpose ins(%expanded_113 : tensor<3x2x2xf32>) outs(%7 : tensor<2x3x2xf32>) permutation = [1, 0, 2] 
    %expanded_115 = tensor.expand_shape %transposed_108 [[0, 1], [2], [3]] output_shape [1, 2, 3, 2] : tensor<2x3x2xf32> into tensor<1x2x3x2xf32>
    %expanded_116 = tensor.expand_shape %transposed_111 [[0, 1], [2], [3]] output_shape [1, 2, 3, 2] : tensor<2x3x2xf32> into tensor<1x2x3x2xf32>
    %111 = linalg.generic {indexing_maps = [#map2, #map2], iterator_types = ["parallel", "parallel", "parallel", "parallel"]} ins(%expanded_115 : tensor<1x2x3x2xf32>) outs(%8 : tensor<1x2x3x2xf32>) {
    ^bb0(%in: f32, %out: f32):
      %341 = arith.truncf %cst_7 : f64 to f32
      %342 = arith.mulf %in, %341 : f32
      linalg.yield %342 : f32
    } -> tensor<1x2x3x2xf32>
    %transposed_117 = linalg.transpose ins(%expanded_116 : tensor<1x2x3x2xf32>) outs(%10 : tensor<1x2x2x3xf32>) permutation = [0, 1, 3, 2] 
    %112 = linalg.generic {indexing_maps = [#map2, #map2], iterator_types = ["parallel", "parallel", "parallel", "parallel"]} ins(%transposed_117 : tensor<1x2x2x3xf32>) outs(%10 : tensor<1x2x2x3xf32>) {
    ^bb0(%in: f32, %out: f32):
      %341 = arith.truncf %cst_7 : f64 to f32
      %342 = arith.mulf %in, %341 : f32
      linalg.yield %342 : f32
    } -> tensor<1x2x2x3xf32>
    %collapsed_118 = tensor.collapse_shape %111 [[0, 1], [2], [3]] : tensor<1x2x3x2xf32> into tensor<2x3x2xf32>
    %collapsed_119 = tensor.collapse_shape %112 [[0, 1], [2], [3]] : tensor<1x2x2x3xf32> into tensor<2x2x3xf32>
    %113 = linalg.batch_matmul ins(%collapsed_118, %collapsed_119 : tensor<2x3x2xf32>, tensor<2x2x3xf32>) outs(%13 : tensor<2x3x3xf32>) -> tensor<2x3x3xf32>
    %expanded_120 = tensor.expand_shape %113 [[0, 1], [2], [3]] output_shape [1, 2, 3, 3] : tensor<2x3x3xf32> into tensor<1x2x3x3xf32>
    %114:2 = linalg.generic {indexing_maps = [#map2, #map3, #map3], iterator_types = ["parallel", "parallel", "parallel", "reduction"]} ins(%expanded_120 : tensor<1x2x3x3xf32>) outs(%18, %16 : tensor<1x2x3xf32>, tensor<1x2x3xi64>) {
    ^bb0(%in: f32, %out: f32, %out_248: i64):
      %341 = linalg.index 3 : index
      %342 = arith.index_cast %341 : index to i64
      %343 = arith.maximumf %in, %out : f32
      %344 = arith.cmpf ogt, %in, %out : f32
      %345 = arith.select %344, %342, %out_248 : i64
      linalg.yield %343, %345 : f32, i64
    } -> (tensor<1x2x3xf32>, tensor<1x2x3xi64>)
    %expanded_121 = tensor.expand_shape %114#0 [[0], [1], [2, 3]] output_shape [1, 2, 3, 1] : tensor<1x2x3xf32> into tensor<1x2x3x1xf32>
    %115 = linalg.generic {indexing_maps = [#map2, #map4, #map2], iterator_types = ["parallel", "parallel", "parallel", "parallel"]} ins(%expanded_120, %expanded_121 : tensor<1x2x3x3xf32>, tensor<1x2x3x1xf32>) outs(%20 : tensor<1x2x3x3xf32>) {
    ^bb0(%in: f32, %in_248: f32, %out: f32):
      %341 = arith.subf %in, %in_248 : f32
      linalg.yield %341 : f32
    } -> tensor<1x2x3x3xf32>
    %116 = linalg.generic {indexing_maps = [#map2, #map2], iterator_types = ["parallel", "parallel", "parallel", "parallel"]} ins(%115 : tensor<1x2x3x3xf32>) outs(%20 : tensor<1x2x3x3xf32>) {
    ^bb0(%in: f32, %out: f32):
      %341 = math.exp %in : f32
      linalg.yield %341 : f32
    } -> tensor<1x2x3x3xf32>
    %117 = linalg.generic {indexing_maps = [#map2, #map4], iterator_types = ["parallel", "parallel", "parallel", "reduction"]} ins(%116 : tensor<1x2x3x3xf32>) outs(%24 : tensor<1x2x3x1xf32>) {
    ^bb0(%in: f32, %out: f32):
      %341 = arith.addf %in, %out : f32
      linalg.yield %341 : f32
    } -> tensor<1x2x3x1xf32>
    %118 = linalg.generic {indexing_maps = [#map2, #map4, #map2], iterator_types = ["parallel", "parallel", "parallel", "parallel"]} ins(%116, %117 : tensor<1x2x3x3xf32>, tensor<1x2x3x1xf32>) outs(%20 : tensor<1x2x3x3xf32>) {
    ^bb0(%in: f32, %in_248: f32, %out: f32):
      %341 = arith.divf %in, %in_248 : f32
      linalg.yield %341 : f32
    } -> tensor<1x2x3x3xf32>
    %119 = linalg.generic {indexing_maps = [#map2, #map2], iterator_types = ["parallel", "parallel", "parallel", "parallel"]} ins(%expanded_120 : tensor<1x2x3x3xf32>) outs(%27 : tensor<1x2x3x3xi1>) {
    ^bb0(%in: f32, %out: i1):
      %341 = arith.extf %in : f32 to f64
      %342 = arith.cmpf oeq, %341, %cst_6 : f64
      linalg.yield %342 : i1
    } -> tensor<1x2x3x3xi1>
    %120 = linalg.generic {indexing_maps = [#map2, #map2], iterator_types = ["parallel", "parallel", "parallel", "parallel"]} ins(%119 : tensor<1x2x3x3xi1>) outs(%27 : tensor<1x2x3x3xi1>) {
    ^bb0(%in: i1, %out: i1):
      %341 = arith.cmpi eq, %in, %false : i1
      linalg.yield %341 : i1
    } -> tensor<1x2x3x3xi1>
    %121 = linalg.generic {indexing_maps = [#map2, #map4], iterator_types = ["parallel", "parallel", "parallel", "reduction"]} ins(%120 : tensor<1x2x3x3xi1>) outs(%31 : tensor<1x2x3x1xi1>) {
    ^bb0(%in: i1, %out: i1):
      %341 = arith.ori %in, %out : i1
      linalg.yield %341 : i1
    } -> tensor<1x2x3x1xi1>
    %122 = linalg.generic {indexing_maps = [#map2, #map2], iterator_types = ["parallel", "parallel", "parallel", "parallel"]} ins(%121 : tensor<1x2x3x1xi1>) outs(%30 : tensor<1x2x3x1xi1>) {
    ^bb0(%in: i1, %out: i1):
      %341 = arith.cmpi eq, %in, %false : i1
      linalg.yield %341 : i1
    } -> tensor<1x2x3x1xi1>
    %123 = linalg.generic {indexing_maps = [#map4, #map2, #map2, #map2], iterator_types = ["parallel", "parallel", "parallel", "parallel"]} ins(%122, %cst_62, %118 : tensor<1x2x3x1xi1>, tensor<1x2x3x3xf32>, tensor<1x2x3x3xf32>) outs(%20 : tensor<1x2x3x3xf32>) {
    ^bb0(%in: i1, %in_248: f32, %in_249: f32, %out: f32):
      %341 = arith.select %in, %in_248, %in_249 : f32
      linalg.yield %341 : f32
    } -> tensor<1x2x3x3xf32>
    %collapsed_122 = tensor.collapse_shape %123 [[0, 1], [2], [3]] : tensor<1x2x3x3xf32> into tensor<2x3x3xf32>
    %124 = linalg.batch_matmul ins(%collapsed_122, %transposed_114 : tensor<2x3x3xf32>, tensor<2x3x2xf32>) outs(%35 : tensor<2x3x2xf32>) -> tensor<2x3x2xf32>
    %expanded_123 = tensor.expand_shape %124 [[0, 1], [2], [3]] output_shape [1, 2, 3, 2] : tensor<2x3x2xf32> into tensor<1x2x3x2xf32>
    %transposed_124 = linalg.transpose ins(%expanded_123 : tensor<1x2x3x2xf32>) outs(%37 : tensor<3x1x2x2xf32>) permutation = [2, 0, 1, 3] 
    %collapsed_125 = tensor.collapse_shape %transposed_124 [[0], [1, 2, 3]] : tensor<3x1x2x2xf32> into tensor<3x4xf32>
    %transposed_126 = linalg.transpose ins(%cst_26 : tensor<4x4xf32>) outs(%38 : tensor<4x4xf32>) permutation = [1, 0] 
    %125 = linalg.matmul ins(%collapsed_125, %transposed_126 : tensor<3x4xf32>, tensor<4x4xf32>) outs(%40 : tensor<3x4xf32>) -> tensor<3x4xf32>
    %126 = linalg.generic {indexing_maps = [#map, #map1, #map], iterator_types = ["parallel", "parallel"]} ins(%125, %cst_27 : tensor<3x4xf32>, tensor<4xf32>) outs(%39 : tensor<3x4xf32>) {
    ^bb0(%in: f32, %in_248: f32, %out: f32):
      %341 = arith.addf %in, %in_248 : f32
      linalg.yield %341 : f32
    } -> tensor<3x4xf32>
    %expanded_127 = tensor.expand_shape %126 [[0], [1, 2]] output_shape [3, 1, 4] : tensor<3x4xf32> into tensor<3x1x4xf32>
    %transposed_128 = linalg.transpose ins(%expanded_127 : tensor<3x1x4xf32>) outs(%43 : tensor<1x3x4xf32>) permutation = [1, 0, 2] 
    %127 = linalg.generic {indexing_maps = [#map5, #map5, #map5], iterator_types = ["parallel", "parallel", "parallel"]} ins(%arg1, %transposed_128 : tensor<1x3x4xf32>, tensor<1x3x4xf32>) outs(%43 : tensor<1x3x4xf32>) {
    ^bb0(%in: f32, %in_248: f32, %out: f32):
      %341 = arith.addf %in, %in_248 : f32
      linalg.yield %341 : f32
    } -> tensor<1x3x4xf32>
    %128 = linalg.generic {indexing_maps = [#map5, #map5], iterator_types = ["parallel", "parallel", "parallel"]} ins(%127 : tensor<1x3x4xf32>) outs(%45 : tensor<1x3x4xf64>) {
    ^bb0(%in: f32, %out: f64):
      %341 = arith.extf %in : f32 to f64
      linalg.yield %341 : f64
    } -> tensor<1x3x4xf64>
    %129 = linalg.generic {indexing_maps = [#map5, #map6], iterator_types = ["parallel", "parallel", "reduction"]} ins(%128 : tensor<1x3x4xf64>) outs(%48 : tensor<1x3x1xf64>) {
    ^bb0(%in: f64, %out: f64):
      %341 = arith.addf %in, %out : f64
      linalg.yield %341 : f64
    } -> tensor<1x3x1xf64>
    %130 = linalg.generic {indexing_maps = [#map5, #map5], iterator_types = ["parallel", "parallel", "parallel"]} ins(%129 : tensor<1x3x1xf64>) outs(%47 : tensor<1x3x1xf64>) {
    ^bb0(%in: f64, %out: f64):
      %341 = arith.divf %in, %cst_8 : f64
      linalg.yield %341 : f64
    } -> tensor<1x3x1xf64>
    %131 = linalg.generic {indexing_maps = [#map5, #map6, #map5], iterator_types = ["parallel", "parallel", "parallel"]} ins(%128, %130 : tensor<1x3x4xf64>, tensor<1x3x1xf64>) outs(%45 : tensor<1x3x4xf64>) {
    ^bb0(%in: f64, %in_248: f64, %out: f64):
      %341 = arith.subf %in, %in_248 : f64
      linalg.yield %341 : f64
    } -> tensor<1x3x4xf64>
    %132 = linalg.generic {indexing_maps = [#map5, #map5, #map5], iterator_types = ["parallel", "parallel", "parallel"]} ins(%131, %131 : tensor<1x3x4xf64>, tensor<1x3x4xf64>) outs(%45 : tensor<1x3x4xf64>) {
    ^bb0(%in: f64, %in_248: f64, %out: f64):
      %341 = arith.mulf %in, %in_248 : f64
      linalg.yield %341 : f64
    } -> tensor<1x3x4xf64>
    %133 = linalg.generic {indexing_maps = [#map5, #map6], iterator_types = ["parallel", "parallel", "reduction"]} ins(%132 : tensor<1x3x4xf64>) outs(%48 : tensor<1x3x1xf64>) {
    ^bb0(%in: f64, %out: f64):
      %341 = arith.addf %in, %out : f64
      linalg.yield %341 : f64
    } -> tensor<1x3x1xf64>
    %134 = linalg.generic {indexing_maps = [#map5, #map5], iterator_types = ["parallel", "parallel", "parallel"]} ins(%133 : tensor<1x3x1xf64>) outs(%47 : tensor<1x3x1xf64>) {
    ^bb0(%in: f64, %out: f64):
      %341 = arith.divf %in, %cst_8 : f64
      linalg.yield %341 : f64
    } -> tensor<1x3x1xf64>
    %135 = linalg.generic {indexing_maps = [#map5, #map5], iterator_types = ["parallel", "parallel", "parallel"]} ins(%134 : tensor<1x3x1xf64>) outs(%55 : tensor<1x3x1xf32>) {
    ^bb0(%in: f64, %out: f32):
      %341 = arith.truncf %in : f64 to f32
      linalg.yield %341 : f32
    } -> tensor<1x3x1xf32>
    %136 = linalg.generic {indexing_maps = [#map5, #map6], iterator_types = ["parallel", "parallel", "reduction"]} ins(%127 : tensor<1x3x4xf32>) outs(%57 : tensor<1x3x1xf32>) {
    ^bb0(%in: f32, %out: f32):
      %341 = arith.addf %in, %out : f32
      linalg.yield %341 : f32
    } -> tensor<1x3x1xf32>
    %137 = linalg.generic {indexing_maps = [#map5, #map5], iterator_types = ["parallel", "parallel", "parallel"]} ins(%136 : tensor<1x3x1xf32>) outs(%55 : tensor<1x3x1xf32>) {
    ^bb0(%in: f32, %out: f32):
      %341 = arith.divf %in, %cst_9 : f32
      linalg.yield %341 : f32
    } -> tensor<1x3x1xf32>
    %138 = linalg.generic {indexing_maps = [#map5, #map5], iterator_types = ["parallel", "parallel", "parallel"]} ins(%135 : tensor<1x3x1xf32>) outs(%55 : tensor<1x3x1xf32>) {
    ^bb0(%in: f32, %out: f32):
      %341 = arith.truncf %cst_5 : f64 to f32
      %342 = arith.addf %in, %341 : f32
      linalg.yield %342 : f32
    } -> tensor<1x3x1xf32>
    %139 = linalg.generic {indexing_maps = [#map5, #map5], iterator_types = ["parallel", "parallel", "parallel"]} ins(%138 : tensor<1x3x1xf32>) outs(%55 : tensor<1x3x1xf32>) {
    ^bb0(%in: f32, %out: f32):
      %341 = math.rsqrt %in : f32
      linalg.yield %341 : f32
    } -> tensor<1x3x1xf32>
    %140 = linalg.generic {indexing_maps = [#map5, #map6, #map5], iterator_types = ["parallel", "parallel", "parallel"]} ins(%127, %137 : tensor<1x3x4xf32>, tensor<1x3x1xf32>) outs(%43 : tensor<1x3x4xf32>) {
    ^bb0(%in: f32, %in_248: f32, %out: f32):
      %341 = arith.subf %in, %in_248 : f32
      linalg.yield %341 : f32
    } -> tensor<1x3x4xf32>
    %141 = linalg.generic {indexing_maps = [#map5, #map6, #map5], iterator_types = ["parallel", "parallel", "parallel"]} ins(%140, %139 : tensor<1x3x4xf32>, tensor<1x3x1xf32>) outs(%43 : tensor<1x3x4xf32>) {
    ^bb0(%in: f32, %in_248: f32, %out: f32):
      %341 = arith.mulf %in, %in_248 : f32
      linalg.yield %341 : f32
    } -> tensor<1x3x4xf32>
    %142 = linalg.generic {indexing_maps = [#map5, #map7, #map5], iterator_types = ["parallel", "parallel", "parallel"]} ins(%141, %cst_28 : tensor<1x3x4xf32>, tensor<4xf32>) outs(%43 : tensor<1x3x4xf32>) {
    ^bb0(%in: f32, %in_248: f32, %out: f32):
      %341 = arith.mulf %in, %in_248 : f32
      linalg.yield %341 : f32
    } -> tensor<1x3x4xf32>
    %143 = linalg.generic {indexing_maps = [#map5, #map7, #map5], iterator_types = ["parallel", "parallel", "parallel"]} ins(%142, %cst_29 : tensor<1x3x4xf32>, tensor<4xf32>) outs(%43 : tensor<1x3x4xf32>) {
    ^bb0(%in: f32, %in_248: f32, %out: f32):
      %341 = arith.addf %in, %in_248 : f32
      linalg.yield %341 : f32
    } -> tensor<1x3x4xf32>
    %transposed_129 = linalg.transpose ins(%143 : tensor<1x3x4xf32>) outs(%0 : tensor<3x1x4xf32>) permutation = [1, 0, 2] 
    %transposed_130 = linalg.transpose ins(%108 : tensor<1x3x4xf32>) outs(%0 : tensor<3x1x4xf32>) permutation = [1, 0, 2] 
    %collapsed_131 = tensor.collapse_shape %cst_30 [[0, 1]] : tensor<12x4xf32> into tensor<48xf32>
    %144 = tensor.empty() : tensor<4xi64>
    %145 = linalg.generic {indexing_maps = [#map8], iterator_types = ["parallel"]} outs(%144 : tensor<4xi64>) {
    ^bb0(%out: i64):
      %341 = linalg.index 0 : index
      %342 = arith.index_cast %341 : index to i64
      linalg.yield %342 : i64
    } -> tensor<4xi64>
    %expanded_132 = tensor.expand_shape %145 [[0, 1]] output_shape [4, 1] : tensor<4xi64> into tensor<4x1xi64>
    %146 = tensor.empty() : tensor<4x1xi64>
    %147 = linalg.generic {indexing_maps = [#map, #map], iterator_types = ["parallel", "parallel"]} ins(%expanded_132 : tensor<4x1xi64>) outs(%146 : tensor<4x1xi64>) {
    ^bb0(%in: i64, %out: i64):
      %341 = arith.muli %in, %c4_i64 : i64
      linalg.yield %341 : i64
    } -> tensor<4x1xi64>
    %expanded_133 = tensor.expand_shape %145 [[0, 1]] output_shape [1, 4] : tensor<4xi64> into tensor<1x4xi64>
    %148 = tensor.empty() : tensor<4x4xi64>
    %149 = linalg.generic {indexing_maps = [#map9, #map10, #map], iterator_types = ["parallel", "parallel"]} ins(%147, %expanded_133 : tensor<4x1xi64>, tensor<1x4xi64>) outs(%148 : tensor<4x4xi64>) {
    ^bb0(%in: i64, %in_248: i64, %out: i64):
      %341 = arith.addi %in, %in_248 : i64
      linalg.yield %341 : i64
    } -> tensor<4x4xi64>
    %collapsed_134 = tensor.collapse_shape %149 [[0, 1]] : tensor<4x4xi64> into tensor<16xi64>
    %150 = tensor.empty() : tensor<16xf32>
    %151 = linalg.generic {indexing_maps = [#map8, #map8], iterator_types = ["parallel"]} ins(%collapsed_134 : tensor<16xi64>) outs(%150 : tensor<16xf32>) {
    ^bb0(%in: i64, %out: f32):
      %341 = arith.cmpi slt, %in, %c0_i64 : i64
      %342 = arith.addi %in, %c48_i64 : i64
      %343 = arith.select %341, %342, %in : i64
      %344 = arith.index_cast %343 : i64 to index
      %extracted = tensor.extract %collapsed_131[%344] : tensor<48xf32>
      linalg.yield %extracted : f32
    } -> tensor<16xf32>
    %expanded_135 = tensor.expand_shape %151 [[0, 1]] output_shape [4, 4] : tensor<16xf32> into tensor<4x4xf32>
    %152 = tensor.empty() : tensor<8xi64>
    %153 = linalg.generic {indexing_maps = [#map8], iterator_types = ["parallel"]} outs(%152 : tensor<8xi64>) {
    ^bb0(%out: i64):
      %341 = linalg.index 0 : index
      %342 = arith.index_cast %341 : index to i64
      linalg.yield %342 : i64
    } -> tensor<8xi64>
    %expanded_136 = tensor.expand_shape %153 [[0, 1]] output_shape [8, 1] : tensor<8xi64> into tensor<8x1xi64>
    %154 = tensor.empty() : tensor<8x1xi64>
    %155 = linalg.generic {indexing_maps = [#map, #map], iterator_types = ["parallel", "parallel"]} ins(%expanded_136 : tensor<8x1xi64>) outs(%154 : tensor<8x1xi64>) {
    ^bb0(%in: i64, %out: i64):
      %341 = arith.muli %in, %c4_i64 : i64
      linalg.yield %341 : i64
    } -> tensor<8x1xi64>
    %156 = tensor.empty() : tensor<8x4xi64>
    %157 = linalg.generic {indexing_maps = [#map9, #map10, #map], iterator_types = ["parallel", "parallel"]} ins(%155, %expanded_133 : tensor<8x1xi64>, tensor<1x4xi64>) outs(%156 : tensor<8x4xi64>) {
    ^bb0(%in: i64, %in_248: i64, %out: i64):
      %341 = arith.addi %in, %in_248 : i64
      linalg.yield %341 : i64
    } -> tensor<8x4xi64>
    %collapsed_137 = tensor.collapse_shape %157 [[0, 1]] : tensor<8x4xi64> into tensor<32xi64>
    %158 = tensor.empty() : tensor<32xi64>
    %159 = linalg.generic {indexing_maps = [#map8, #map8], iterator_types = ["parallel"]} ins(%collapsed_137 : tensor<32xi64>) outs(%158 : tensor<32xi64>) {
    ^bb0(%in: i64, %out: i64):
      %341 = arith.addi %in, %c16_i64 : i64
      linalg.yield %341 : i64
    } -> tensor<32xi64>
    %160 = tensor.empty() : tensor<32xf32>
    %161 = linalg.generic {indexing_maps = [#map8, #map8], iterator_types = ["parallel"]} ins(%159 : tensor<32xi64>) outs(%160 : tensor<32xf32>) {
    ^bb0(%in: i64, %out: f32):
      %341 = arith.cmpi slt, %in, %c0_i64 : i64
      %342 = arith.addi %in, %c48_i64 : i64
      %343 = arith.select %341, %342, %in : i64
      %344 = arith.index_cast %343 : i64 to index
      %extracted = tensor.extract %collapsed_131[%344] : tensor<48xf32>
      linalg.yield %extracted : f32
    } -> tensor<32xf32>
    %expanded_138 = tensor.expand_shape %161 [[0, 1]] output_shape [8, 4] : tensor<32xf32> into tensor<8x4xf32>
    %162 = tensor.empty() : tensor<4xf32>
    %163 = linalg.generic {indexing_maps = [#map8, #map8], iterator_types = ["parallel"]} ins(%145 : tensor<4xi64>) outs(%162 : tensor<4xf32>) {
    ^bb0(%in: i64, %out: f32):
      %341 = arith.cmpi slt, %in, %c0_i64 : i64
      %342 = arith.addi %in, %c12_i64 : i64
      %343 = arith.select %341, %342, %in : i64
      %344 = arith.index_cast %343 : i64 to index
      %extracted = tensor.extract %cst_31[%344] : tensor<12xf32>
      linalg.yield %extracted : f32
    } -> tensor<4xf32>
    %164 = linalg.generic {indexing_maps = [#map8, #map8], iterator_types = ["parallel"]} ins(%153 : tensor<8xi64>) outs(%152 : tensor<8xi64>) {
    ^bb0(%in: i64, %out: i64):
      %341 = arith.addi %in, %c4_i64 : i64
      linalg.yield %341 : i64
    } -> tensor<8xi64>
    %165 = tensor.empty() : tensor<8xf32>
    %166 = linalg.generic {indexing_maps = [#map8, #map8], iterator_types = ["parallel"]} ins(%164 : tensor<8xi64>) outs(%165 : tensor<8xf32>) {
    ^bb0(%in: i64, %out: f32):
      %341 = arith.cmpi slt, %in, %c0_i64 : i64
      %342 = arith.addi %in, %c12_i64 : i64
      %343 = arith.select %341, %342, %in : i64
      %344 = arith.index_cast %343 : i64 to index
      %extracted = tensor.extract %cst_31[%344] : tensor<12xf32>
      linalg.yield %extracted : f32
    } -> tensor<8xf32>
    %collapsed_139 = tensor.collapse_shape %transposed_129 [[0], [1, 2]] : tensor<3x1x4xf32> into tensor<3x4xf32>
    %transposed_140 = linalg.transpose ins(%expanded_135 : tensor<4x4xf32>) outs(%38 : tensor<4x4xf32>) permutation = [1, 0] 
    %167 = linalg.matmul ins(%collapsed_139, %transposed_140 : tensor<3x4xf32>, tensor<4x4xf32>) outs(%40 : tensor<3x4xf32>) -> tensor<3x4xf32>
    %168 = linalg.generic {indexing_maps = [#map, #map1, #map], iterator_types = ["parallel", "parallel"]} ins(%167, %163 : tensor<3x4xf32>, tensor<4xf32>) outs(%39 : tensor<3x4xf32>) {
    ^bb0(%in: f32, %in_248: f32, %out: f32):
      %341 = arith.addf %in, %in_248 : f32
      linalg.yield %341 : f32
    } -> tensor<3x4xf32>
    %collapsed_141 = tensor.collapse_shape %transposed_130 [[0], [1, 2]] : tensor<3x1x4xf32> into tensor<3x4xf32>
    %transposed_142 = linalg.transpose ins(%expanded_138 : tensor<8x4xf32>) outs(%66 : tensor<4x8xf32>) permutation = [1, 0] 
    %169 = linalg.matmul ins(%collapsed_141, %transposed_142 : tensor<3x4xf32>, tensor<4x8xf32>) outs(%68 : tensor<3x8xf32>) -> tensor<3x8xf32>
    %170 = linalg.generic {indexing_maps = [#map, #map1, #map], iterator_types = ["parallel", "parallel"]} ins(%169, %166 : tensor<3x8xf32>, tensor<8xf32>) outs(%67 : tensor<3x8xf32>) {
    ^bb0(%in: f32, %in_248: f32, %out: f32):
      %341 = arith.addf %in, %in_248 : f32
      linalg.yield %341 : f32
    } -> tensor<3x8xf32>
    %expanded_143 = tensor.expand_shape %170 [[0, 1], [2, 3, 4]] output_shape [1, 3, 1, 2, 4] : tensor<3x8xf32> into tensor<1x3x1x2x4xf32>
    %171 = tensor.empty() : tensor<2x3x1x1x4xf32>
    %transposed_144 = linalg.transpose ins(%expanded_143 : tensor<1x3x1x2x4xf32>) outs(%171 : tensor<2x3x1x1x4xf32>) permutation = [3, 1, 2, 0, 4] 
    %collapsed_145 = tensor.collapse_shape %transposed_144 [[0], [1], [2, 3], [4]] : tensor<2x3x1x1x4xf32> into tensor<2x3x1x4xf32>
    %extracted_slice_146 = tensor.extract_slice %collapsed_145[0, 0, 0, 0] [1, 3, 1, 4] [1, 1, 1, 1] : tensor<2x3x1x4xf32> to tensor<1x3x1x4xf32>
    %extracted_slice_147 = tensor.extract_slice %collapsed_145[1, 0, 0, 0] [1, 3, 1, 4] [1, 1, 1, 1] : tensor<2x3x1x4xf32> to tensor<1x3x1x4xf32>
    %expanded_148 = tensor.expand_shape %168 [[0], [1, 2]] output_shape [3, 2, 2] : tensor<3x4xf32> into tensor<3x2x2xf32>
    %transposed_149 = linalg.transpose ins(%expanded_148 : tensor<3x2x2xf32>) outs(%7 : tensor<2x3x2xf32>) permutation = [1, 0, 2] 
    %collapsed_150 = tensor.collapse_shape %extracted_slice_146 [[0, 1], [2, 3]] : tensor<1x3x1x4xf32> into tensor<3x4xf32>
    %expanded_151 = tensor.expand_shape %collapsed_150 [[0], [1, 2]] output_shape [3, 2, 2] : tensor<3x4xf32> into tensor<3x2x2xf32>
    %transposed_152 = linalg.transpose ins(%expanded_151 : tensor<3x2x2xf32>) outs(%7 : tensor<2x3x2xf32>) permutation = [1, 0, 2] 
    %collapsed_153 = tensor.collapse_shape %extracted_slice_147 [[0, 1], [2, 3]] : tensor<1x3x1x4xf32> into tensor<3x4xf32>
    %expanded_154 = tensor.expand_shape %collapsed_153 [[0], [1, 2]] output_shape [3, 2, 2] : tensor<3x4xf32> into tensor<3x2x2xf32>
    %transposed_155 = linalg.transpose ins(%expanded_154 : tensor<3x2x2xf32>) outs(%7 : tensor<2x3x2xf32>) permutation = [1, 0, 2] 
    %expanded_156 = tensor.expand_shape %transposed_149 [[0, 1], [2], [3]] output_shape [1, 2, 3, 2] : tensor<2x3x2xf32> into tensor<1x2x3x2xf32>
    %expanded_157 = tensor.expand_shape %transposed_152 [[0, 1], [2], [3]] output_shape [1, 2, 3, 2] : tensor<2x3x2xf32> into tensor<1x2x3x2xf32>
    %172 = linalg.generic {indexing_maps = [#map2, #map2], iterator_types = ["parallel", "parallel", "parallel", "parallel"]} ins(%expanded_156 : tensor<1x2x3x2xf32>) outs(%8 : tensor<1x2x3x2xf32>) {
    ^bb0(%in: f32, %out: f32):
      %341 = arith.truncf %cst_7 : f64 to f32
      %342 = arith.mulf %in, %341 : f32
      linalg.yield %342 : f32
    } -> tensor<1x2x3x2xf32>
    %transposed_158 = linalg.transpose ins(%expanded_157 : tensor<1x2x3x2xf32>) outs(%10 : tensor<1x2x2x3xf32>) permutation = [0, 1, 3, 2] 
    %173 = linalg.generic {indexing_maps = [#map2, #map2], iterator_types = ["parallel", "parallel", "parallel", "parallel"]} ins(%transposed_158 : tensor<1x2x2x3xf32>) outs(%10 : tensor<1x2x2x3xf32>) {
    ^bb0(%in: f32, %out: f32):
      %341 = arith.truncf %cst_7 : f64 to f32
      %342 = arith.mulf %in, %341 : f32
      linalg.yield %342 : f32
    } -> tensor<1x2x2x3xf32>
    %collapsed_159 = tensor.collapse_shape %172 [[0, 1], [2], [3]] : tensor<1x2x3x2xf32> into tensor<2x3x2xf32>
    %collapsed_160 = tensor.collapse_shape %173 [[0, 1], [2], [3]] : tensor<1x2x2x3xf32> into tensor<2x2x3xf32>
    %174 = linalg.batch_matmul ins(%collapsed_159, %collapsed_160 : tensor<2x3x2xf32>, tensor<2x2x3xf32>) outs(%13 : tensor<2x3x3xf32>) -> tensor<2x3x3xf32>
    %expanded_161 = tensor.expand_shape %174 [[0, 1], [2], [3]] output_shape [1, 2, 3, 3] : tensor<2x3x3xf32> into tensor<1x2x3x3xf32>
    %175:2 = linalg.generic {indexing_maps = [#map2, #map3, #map3], iterator_types = ["parallel", "parallel", "parallel", "reduction"]} ins(%expanded_161 : tensor<1x2x3x3xf32>) outs(%18, %16 : tensor<1x2x3xf32>, tensor<1x2x3xi64>) {
    ^bb0(%in: f32, %out: f32, %out_248: i64):
      %341 = linalg.index 3 : index
      %342 = arith.index_cast %341 : index to i64
      %343 = arith.maximumf %in, %out : f32
      %344 = arith.cmpf ogt, %in, %out : f32
      %345 = arith.select %344, %342, %out_248 : i64
      linalg.yield %343, %345 : f32, i64
    } -> (tensor<1x2x3xf32>, tensor<1x2x3xi64>)
    %expanded_162 = tensor.expand_shape %175#0 [[0], [1], [2, 3]] output_shape [1, 2, 3, 1] : tensor<1x2x3xf32> into tensor<1x2x3x1xf32>
    %176 = linalg.generic {indexing_maps = [#map2, #map4, #map2], iterator_types = ["parallel", "parallel", "parallel", "parallel"]} ins(%expanded_161, %expanded_162 : tensor<1x2x3x3xf32>, tensor<1x2x3x1xf32>) outs(%20 : tensor<1x2x3x3xf32>) {
    ^bb0(%in: f32, %in_248: f32, %out: f32):
      %341 = arith.subf %in, %in_248 : f32
      linalg.yield %341 : f32
    } -> tensor<1x2x3x3xf32>
    %177 = linalg.generic {indexing_maps = [#map2, #map2], iterator_types = ["parallel", "parallel", "parallel", "parallel"]} ins(%176 : tensor<1x2x3x3xf32>) outs(%20 : tensor<1x2x3x3xf32>) {
    ^bb0(%in: f32, %out: f32):
      %341 = math.exp %in : f32
      linalg.yield %341 : f32
    } -> tensor<1x2x3x3xf32>
    %178 = linalg.generic {indexing_maps = [#map2, #map4], iterator_types = ["parallel", "parallel", "parallel", "reduction"]} ins(%177 : tensor<1x2x3x3xf32>) outs(%24 : tensor<1x2x3x1xf32>) {
    ^bb0(%in: f32, %out: f32):
      %341 = arith.addf %in, %out : f32
      linalg.yield %341 : f32
    } -> tensor<1x2x3x1xf32>
    %179 = linalg.generic {indexing_maps = [#map2, #map4, #map2], iterator_types = ["parallel", "parallel", "parallel", "parallel"]} ins(%177, %178 : tensor<1x2x3x3xf32>, tensor<1x2x3x1xf32>) outs(%20 : tensor<1x2x3x3xf32>) {
    ^bb0(%in: f32, %in_248: f32, %out: f32):
      %341 = arith.divf %in, %in_248 : f32
      linalg.yield %341 : f32
    } -> tensor<1x2x3x3xf32>
    %180 = linalg.generic {indexing_maps = [#map2, #map2], iterator_types = ["parallel", "parallel", "parallel", "parallel"]} ins(%expanded_161 : tensor<1x2x3x3xf32>) outs(%27 : tensor<1x2x3x3xi1>) {
    ^bb0(%in: f32, %out: i1):
      %341 = arith.extf %in : f32 to f64
      %342 = arith.cmpf oeq, %341, %cst_6 : f64
      linalg.yield %342 : i1
    } -> tensor<1x2x3x3xi1>
    %181 = linalg.generic {indexing_maps = [#map2, #map2], iterator_types = ["parallel", "parallel", "parallel", "parallel"]} ins(%180 : tensor<1x2x3x3xi1>) outs(%27 : tensor<1x2x3x3xi1>) {
    ^bb0(%in: i1, %out: i1):
      %341 = arith.cmpi eq, %in, %false : i1
      linalg.yield %341 : i1
    } -> tensor<1x2x3x3xi1>
    %182 = linalg.generic {indexing_maps = [#map2, #map4], iterator_types = ["parallel", "parallel", "parallel", "reduction"]} ins(%181 : tensor<1x2x3x3xi1>) outs(%31 : tensor<1x2x3x1xi1>) {
    ^bb0(%in: i1, %out: i1):
      %341 = arith.ori %in, %out : i1
      linalg.yield %341 : i1
    } -> tensor<1x2x3x1xi1>
    %183 = linalg.generic {indexing_maps = [#map2, #map2], iterator_types = ["parallel", "parallel", "parallel", "parallel"]} ins(%182 : tensor<1x2x3x1xi1>) outs(%30 : tensor<1x2x3x1xi1>) {
    ^bb0(%in: i1, %out: i1):
      %341 = arith.cmpi eq, %in, %false : i1
      linalg.yield %341 : i1
    } -> tensor<1x2x3x1xi1>
    %184 = linalg.generic {indexing_maps = [#map4, #map2, #map2, #map2], iterator_types = ["parallel", "parallel", "parallel", "parallel"]} ins(%183, %cst_62, %179 : tensor<1x2x3x1xi1>, tensor<1x2x3x3xf32>, tensor<1x2x3x3xf32>) outs(%20 : tensor<1x2x3x3xf32>) {
    ^bb0(%in: i1, %in_248: f32, %in_249: f32, %out: f32):
      %341 = arith.select %in, %in_248, %in_249 : f32
      linalg.yield %341 : f32
    } -> tensor<1x2x3x3xf32>
    %collapsed_163 = tensor.collapse_shape %184 [[0, 1], [2], [3]] : tensor<1x2x3x3xf32> into tensor<2x3x3xf32>
    %185 = linalg.batch_matmul ins(%collapsed_163, %transposed_155 : tensor<2x3x3xf32>, tensor<2x3x2xf32>) outs(%35 : tensor<2x3x2xf32>) -> tensor<2x3x2xf32>
    %expanded_164 = tensor.expand_shape %185 [[0, 1], [2], [3]] output_shape [1, 2, 3, 2] : tensor<2x3x2xf32> into tensor<1x2x3x2xf32>
    %transposed_165 = linalg.transpose ins(%expanded_164 : tensor<1x2x3x2xf32>) outs(%37 : tensor<3x1x2x2xf32>) permutation = [2, 0, 1, 3] 
    %collapsed_166 = tensor.collapse_shape %transposed_165 [[0], [1, 2, 3]] : tensor<3x1x2x2xf32> into tensor<3x4xf32>
    %transposed_167 = linalg.transpose ins(%cst_32 : tensor<4x4xf32>) outs(%38 : tensor<4x4xf32>) permutation = [1, 0] 
    %186 = linalg.matmul ins(%collapsed_166, %transposed_167 : tensor<3x4xf32>, tensor<4x4xf32>) outs(%40 : tensor<3x4xf32>) -> tensor<3x4xf32>
    %187 = linalg.generic {indexing_maps = [#map, #map1, #map], iterator_types = ["parallel", "parallel"]} ins(%186, %cst_33 : tensor<3x4xf32>, tensor<4xf32>) outs(%39 : tensor<3x4xf32>) {
    ^bb0(%in: f32, %in_248: f32, %out: f32):
      %341 = arith.addf %in, %in_248 : f32
      linalg.yield %341 : f32
    } -> tensor<3x4xf32>
    %expanded_168 = tensor.expand_shape %187 [[0], [1, 2]] output_shape [3, 1, 4] : tensor<3x4xf32> into tensor<3x1x4xf32>
    %transposed_169 = linalg.transpose ins(%expanded_168 : tensor<3x1x4xf32>) outs(%43 : tensor<1x3x4xf32>) permutation = [1, 0, 2] 
    %188 = linalg.generic {indexing_maps = [#map5, #map5, #map5], iterator_types = ["parallel", "parallel", "parallel"]} ins(%143, %transposed_169 : tensor<1x3x4xf32>, tensor<1x3x4xf32>) outs(%43 : tensor<1x3x4xf32>) {
    ^bb0(%in: f32, %in_248: f32, %out: f32):
      %341 = arith.addf %in, %in_248 : f32
      linalg.yield %341 : f32
    } -> tensor<1x3x4xf32>
    %189 = linalg.generic {indexing_maps = [#map5, #map5], iterator_types = ["parallel", "parallel", "parallel"]} ins(%188 : tensor<1x3x4xf32>) outs(%45 : tensor<1x3x4xf64>) {
    ^bb0(%in: f32, %out: f64):
      %341 = arith.extf %in : f32 to f64
      linalg.yield %341 : f64
    } -> tensor<1x3x4xf64>
    %190 = linalg.generic {indexing_maps = [#map5, #map6], iterator_types = ["parallel", "parallel", "reduction"]} ins(%189 : tensor<1x3x4xf64>) outs(%48 : tensor<1x3x1xf64>) {
    ^bb0(%in: f64, %out: f64):
      %341 = arith.addf %in, %out : f64
      linalg.yield %341 : f64
    } -> tensor<1x3x1xf64>
    %191 = linalg.generic {indexing_maps = [#map5, #map5], iterator_types = ["parallel", "parallel", "parallel"]} ins(%190 : tensor<1x3x1xf64>) outs(%47 : tensor<1x3x1xf64>) {
    ^bb0(%in: f64, %out: f64):
      %341 = arith.divf %in, %cst_8 : f64
      linalg.yield %341 : f64
    } -> tensor<1x3x1xf64>
    %192 = linalg.generic {indexing_maps = [#map5, #map6, #map5], iterator_types = ["parallel", "parallel", "parallel"]} ins(%189, %191 : tensor<1x3x4xf64>, tensor<1x3x1xf64>) outs(%45 : tensor<1x3x4xf64>) {
    ^bb0(%in: f64, %in_248: f64, %out: f64):
      %341 = arith.subf %in, %in_248 : f64
      linalg.yield %341 : f64
    } -> tensor<1x3x4xf64>
    %193 = linalg.generic {indexing_maps = [#map5, #map5, #map5], iterator_types = ["parallel", "parallel", "parallel"]} ins(%192, %192 : tensor<1x3x4xf64>, tensor<1x3x4xf64>) outs(%45 : tensor<1x3x4xf64>) {
    ^bb0(%in: f64, %in_248: f64, %out: f64):
      %341 = arith.mulf %in, %in_248 : f64
      linalg.yield %341 : f64
    } -> tensor<1x3x4xf64>
    %194 = linalg.generic {indexing_maps = [#map5, #map6], iterator_types = ["parallel", "parallel", "reduction"]} ins(%193 : tensor<1x3x4xf64>) outs(%48 : tensor<1x3x1xf64>) {
    ^bb0(%in: f64, %out: f64):
      %341 = arith.addf %in, %out : f64
      linalg.yield %341 : f64
    } -> tensor<1x3x1xf64>
    %195 = linalg.generic {indexing_maps = [#map5, #map5], iterator_types = ["parallel", "parallel", "parallel"]} ins(%194 : tensor<1x3x1xf64>) outs(%47 : tensor<1x3x1xf64>) {
    ^bb0(%in: f64, %out: f64):
      %341 = arith.divf %in, %cst_8 : f64
      linalg.yield %341 : f64
    } -> tensor<1x3x1xf64>
    %196 = linalg.generic {indexing_maps = [#map5, #map5], iterator_types = ["parallel", "parallel", "parallel"]} ins(%195 : tensor<1x3x1xf64>) outs(%55 : tensor<1x3x1xf32>) {
    ^bb0(%in: f64, %out: f32):
      %341 = arith.truncf %in : f64 to f32
      linalg.yield %341 : f32
    } -> tensor<1x3x1xf32>
    %197 = linalg.generic {indexing_maps = [#map5, #map6], iterator_types = ["parallel", "parallel", "reduction"]} ins(%188 : tensor<1x3x4xf32>) outs(%57 : tensor<1x3x1xf32>) {
    ^bb0(%in: f32, %out: f32):
      %341 = arith.addf %in, %out : f32
      linalg.yield %341 : f32
    } -> tensor<1x3x1xf32>
    %198 = linalg.generic {indexing_maps = [#map5, #map5], iterator_types = ["parallel", "parallel", "parallel"]} ins(%197 : tensor<1x3x1xf32>) outs(%55 : tensor<1x3x1xf32>) {
    ^bb0(%in: f32, %out: f32):
      %341 = arith.divf %in, %cst_9 : f32
      linalg.yield %341 : f32
    } -> tensor<1x3x1xf32>
    %199 = linalg.generic {indexing_maps = [#map5, #map5], iterator_types = ["parallel", "parallel", "parallel"]} ins(%196 : tensor<1x3x1xf32>) outs(%55 : tensor<1x3x1xf32>) {
    ^bb0(%in: f32, %out: f32):
      %341 = arith.truncf %cst_5 : f64 to f32
      %342 = arith.addf %in, %341 : f32
      linalg.yield %342 : f32
    } -> tensor<1x3x1xf32>
    %200 = linalg.generic {indexing_maps = [#map5, #map5], iterator_types = ["parallel", "parallel", "parallel"]} ins(%199 : tensor<1x3x1xf32>) outs(%55 : tensor<1x3x1xf32>) {
    ^bb0(%in: f32, %out: f32):
      %341 = math.rsqrt %in : f32
      linalg.yield %341 : f32
    } -> tensor<1x3x1xf32>
    %201 = linalg.generic {indexing_maps = [#map5, #map6, #map5], iterator_types = ["parallel", "parallel", "parallel"]} ins(%188, %198 : tensor<1x3x4xf32>, tensor<1x3x1xf32>) outs(%43 : tensor<1x3x4xf32>) {
    ^bb0(%in: f32, %in_248: f32, %out: f32):
      %341 = arith.subf %in, %in_248 : f32
      linalg.yield %341 : f32
    } -> tensor<1x3x4xf32>
    %202 = linalg.generic {indexing_maps = [#map5, #map6, #map5], iterator_types = ["parallel", "parallel", "parallel"]} ins(%201, %200 : tensor<1x3x4xf32>, tensor<1x3x1xf32>) outs(%43 : tensor<1x3x4xf32>) {
    ^bb0(%in: f32, %in_248: f32, %out: f32):
      %341 = arith.mulf %in, %in_248 : f32
      linalg.yield %341 : f32
    } -> tensor<1x3x4xf32>
    %203 = linalg.generic {indexing_maps = [#map5, #map7, #map5], iterator_types = ["parallel", "parallel", "parallel"]} ins(%202, %cst_34 : tensor<1x3x4xf32>, tensor<4xf32>) outs(%43 : tensor<1x3x4xf32>) {
    ^bb0(%in: f32, %in_248: f32, %out: f32):
      %341 = arith.mulf %in, %in_248 : f32
      linalg.yield %341 : f32
    } -> tensor<1x3x4xf32>
    %204 = linalg.generic {indexing_maps = [#map5, #map7, #map5], iterator_types = ["parallel", "parallel", "parallel"]} ins(%203, %cst_35 : tensor<1x3x4xf32>, tensor<4xf32>) outs(%43 : tensor<1x3x4xf32>) {
    ^bb0(%in: f32, %in_248: f32, %out: f32):
      %341 = arith.addf %in, %in_248 : f32
      linalg.yield %341 : f32
    } -> tensor<1x3x4xf32>
    %collapsed_170 = tensor.collapse_shape %204 [[0, 1], [2]] : tensor<1x3x4xf32> into tensor<3x4xf32>
    %transposed_171 = linalg.transpose ins(%cst_36 : tensor<8x4xf32>) outs(%66 : tensor<4x8xf32>) permutation = [1, 0] 
    %205 = linalg.matmul ins(%collapsed_170, %transposed_171 : tensor<3x4xf32>, tensor<4x8xf32>) outs(%68 : tensor<3x8xf32>) -> tensor<3x8xf32>
    %206 = linalg.generic {indexing_maps = [#map, #map1, #map], iterator_types = ["parallel", "parallel"]} ins(%205, %cst_37 : tensor<3x8xf32>, tensor<8xf32>) outs(%67 : tensor<3x8xf32>) {
    ^bb0(%in: f32, %in_248: f32, %out: f32):
      %341 = arith.addf %in, %in_248 : f32
      linalg.yield %341 : f32
    } -> tensor<3x8xf32>
    %expanded_172 = tensor.expand_shape %206 [[0, 1], [2]] output_shape [1, 3, 8] : tensor<3x8xf32> into tensor<1x3x8xf32>
    %207 = linalg.generic {indexing_maps = [#map5, #map5], iterator_types = ["parallel", "parallel", "parallel"]} ins(%expanded_172 : tensor<1x3x8xf32>) outs(%71 : tensor<1x3x8xf32>) {
    ^bb0(%in: f32, %out: f32):
      %341 = arith.divf %in, %cst_10 : f32
      %342 = math.erf %341 : f32
      %343 = arith.addf %342, %cst_3 : f32
      %344 = arith.mulf %343, %cst_4 : f32
      %345 = arith.mulf %in, %344 : f32
      linalg.yield %345 : f32
    } -> tensor<1x3x8xf32>
    %collapsed_173 = tensor.collapse_shape %207 [[0, 1], [2]] : tensor<1x3x8xf32> into tensor<3x8xf32>
    %transposed_174 = linalg.transpose ins(%cst_38 : tensor<4x8xf32>) outs(%73 : tensor<8x4xf32>) permutation = [1, 0] 
    %208 = linalg.matmul ins(%collapsed_173, %transposed_174 : tensor<3x8xf32>, tensor<8x4xf32>) outs(%40 : tensor<3x4xf32>) -> tensor<3x4xf32>
    %209 = linalg.generic {indexing_maps = [#map, #map1, #map], iterator_types = ["parallel", "parallel"]} ins(%208, %cst_39 : tensor<3x4xf32>, tensor<4xf32>) outs(%39 : tensor<3x4xf32>) {
    ^bb0(%in: f32, %in_248: f32, %out: f32):
      %341 = arith.addf %in, %in_248 : f32
      linalg.yield %341 : f32
    } -> tensor<3x4xf32>
    %expanded_175 = tensor.expand_shape %209 [[0, 1], [2]] output_shape [1, 3, 4] : tensor<3x4xf32> into tensor<1x3x4xf32>
    %210 = linalg.generic {indexing_maps = [#map5, #map5, #map5], iterator_types = ["parallel", "parallel", "parallel"]} ins(%204, %expanded_175 : tensor<1x3x4xf32>, tensor<1x3x4xf32>) outs(%43 : tensor<1x3x4xf32>) {
    ^bb0(%in: f32, %in_248: f32, %out: f32):
      %341 = arith.addf %in, %in_248 : f32
      linalg.yield %341 : f32
    } -> tensor<1x3x4xf32>
    %211 = linalg.generic {indexing_maps = [#map5, #map5], iterator_types = ["parallel", "parallel", "parallel"]} ins(%210 : tensor<1x3x4xf32>) outs(%45 : tensor<1x3x4xf64>) {
    ^bb0(%in: f32, %out: f64):
      %341 = arith.extf %in : f32 to f64
      linalg.yield %341 : f64
    } -> tensor<1x3x4xf64>
    %212 = linalg.generic {indexing_maps = [#map5, #map6], iterator_types = ["parallel", "parallel", "reduction"]} ins(%211 : tensor<1x3x4xf64>) outs(%48 : tensor<1x3x1xf64>) {
    ^bb0(%in: f64, %out: f64):
      %341 = arith.addf %in, %out : f64
      linalg.yield %341 : f64
    } -> tensor<1x3x1xf64>
    %213 = linalg.generic {indexing_maps = [#map5, #map5], iterator_types = ["parallel", "parallel", "parallel"]} ins(%212 : tensor<1x3x1xf64>) outs(%47 : tensor<1x3x1xf64>) {
    ^bb0(%in: f64, %out: f64):
      %341 = arith.divf %in, %cst_8 : f64
      linalg.yield %341 : f64
    } -> tensor<1x3x1xf64>
    %214 = linalg.generic {indexing_maps = [#map5, #map6, #map5], iterator_types = ["parallel", "parallel", "parallel"]} ins(%211, %213 : tensor<1x3x4xf64>, tensor<1x3x1xf64>) outs(%45 : tensor<1x3x4xf64>) {
    ^bb0(%in: f64, %in_248: f64, %out: f64):
      %341 = arith.subf %in, %in_248 : f64
      linalg.yield %341 : f64
    } -> tensor<1x3x4xf64>
    %215 = linalg.generic {indexing_maps = [#map5, #map5, #map5], iterator_types = ["parallel", "parallel", "parallel"]} ins(%214, %214 : tensor<1x3x4xf64>, tensor<1x3x4xf64>) outs(%45 : tensor<1x3x4xf64>) {
    ^bb0(%in: f64, %in_248: f64, %out: f64):
      %341 = arith.mulf %in, %in_248 : f64
      linalg.yield %341 : f64
    } -> tensor<1x3x4xf64>
    %216 = linalg.generic {indexing_maps = [#map5, #map6], iterator_types = ["parallel", "parallel", "reduction"]} ins(%215 : tensor<1x3x4xf64>) outs(%48 : tensor<1x3x1xf64>) {
    ^bb0(%in: f64, %out: f64):
      %341 = arith.addf %in, %out : f64
      linalg.yield %341 : f64
    } -> tensor<1x3x1xf64>
    %217 = linalg.generic {indexing_maps = [#map5, #map5], iterator_types = ["parallel", "parallel", "parallel"]} ins(%216 : tensor<1x3x1xf64>) outs(%47 : tensor<1x3x1xf64>) {
    ^bb0(%in: f64, %out: f64):
      %341 = arith.divf %in, %cst_8 : f64
      linalg.yield %341 : f64
    } -> tensor<1x3x1xf64>
    %218 = linalg.generic {indexing_maps = [#map5, #map5], iterator_types = ["parallel", "parallel", "parallel"]} ins(%217 : tensor<1x3x1xf64>) outs(%55 : tensor<1x3x1xf32>) {
    ^bb0(%in: f64, %out: f32):
      %341 = arith.truncf %in : f64 to f32
      linalg.yield %341 : f32
    } -> tensor<1x3x1xf32>
    %219 = linalg.generic {indexing_maps = [#map5, #map6], iterator_types = ["parallel", "parallel", "reduction"]} ins(%210 : tensor<1x3x4xf32>) outs(%57 : tensor<1x3x1xf32>) {
    ^bb0(%in: f32, %out: f32):
      %341 = arith.addf %in, %out : f32
      linalg.yield %341 : f32
    } -> tensor<1x3x1xf32>
    %220 = linalg.generic {indexing_maps = [#map5, #map5], iterator_types = ["parallel", "parallel", "parallel"]} ins(%219 : tensor<1x3x1xf32>) outs(%55 : tensor<1x3x1xf32>) {
    ^bb0(%in: f32, %out: f32):
      %341 = arith.divf %in, %cst_9 : f32
      linalg.yield %341 : f32
    } -> tensor<1x3x1xf32>
    %221 = linalg.generic {indexing_maps = [#map5, #map5], iterator_types = ["parallel", "parallel", "parallel"]} ins(%218 : tensor<1x3x1xf32>) outs(%55 : tensor<1x3x1xf32>) {
    ^bb0(%in: f32, %out: f32):
      %341 = arith.truncf %cst_5 : f64 to f32
      %342 = arith.addf %in, %341 : f32
      linalg.yield %342 : f32
    } -> tensor<1x3x1xf32>
    %222 = linalg.generic {indexing_maps = [#map5, #map5], iterator_types = ["parallel", "parallel", "parallel"]} ins(%221 : tensor<1x3x1xf32>) outs(%55 : tensor<1x3x1xf32>) {
    ^bb0(%in: f32, %out: f32):
      %341 = math.rsqrt %in : f32
      linalg.yield %341 : f32
    } -> tensor<1x3x1xf32>
    %223 = linalg.generic {indexing_maps = [#map5, #map6, #map5], iterator_types = ["parallel", "parallel", "parallel"]} ins(%210, %220 : tensor<1x3x4xf32>, tensor<1x3x1xf32>) outs(%43 : tensor<1x3x4xf32>) {
    ^bb0(%in: f32, %in_248: f32, %out: f32):
      %341 = arith.subf %in, %in_248 : f32
      linalg.yield %341 : f32
    } -> tensor<1x3x4xf32>
    %224 = linalg.generic {indexing_maps = [#map5, #map6, #map5], iterator_types = ["parallel", "parallel", "parallel"]} ins(%223, %222 : tensor<1x3x4xf32>, tensor<1x3x1xf32>) outs(%43 : tensor<1x3x4xf32>) {
    ^bb0(%in: f32, %in_248: f32, %out: f32):
      %341 = arith.mulf %in, %in_248 : f32
      linalg.yield %341 : f32
    } -> tensor<1x3x4xf32>
    %225 = linalg.generic {indexing_maps = [#map5, #map7, #map5], iterator_types = ["parallel", "parallel", "parallel"]} ins(%224, %cst_40 : tensor<1x3x4xf32>, tensor<4xf32>) outs(%43 : tensor<1x3x4xf32>) {
    ^bb0(%in: f32, %in_248: f32, %out: f32):
      %341 = arith.mulf %in, %in_248 : f32
      linalg.yield %341 : f32
    } -> tensor<1x3x4xf32>
    %226 = linalg.generic {indexing_maps = [#map5, #map7, #map5], iterator_types = ["parallel", "parallel", "parallel"]} ins(%225, %cst_41 : tensor<1x3x4xf32>, tensor<4xf32>) outs(%43 : tensor<1x3x4xf32>) {
    ^bb0(%in: f32, %in_248: f32, %out: f32):
      %341 = arith.addf %in, %in_248 : f32
      linalg.yield %341 : f32
    } -> tensor<1x3x4xf32>
    %transposed_176 = linalg.transpose ins(%226 : tensor<1x3x4xf32>) outs(%0 : tensor<3x1x4xf32>) permutation = [1, 0, 2] 
    %collapsed_177 = tensor.collapse_shape %transposed_176 [[0], [1, 2]] : tensor<3x1x4xf32> into tensor<3x4xf32>
    %transposed_178 = linalg.transpose ins(%cst_42 : tensor<12x4xf32>) outs(%1 : tensor<4x12xf32>) permutation = [1, 0] 
    %227 = linalg.matmul ins(%collapsed_177, %transposed_178 : tensor<3x4xf32>, tensor<4x12xf32>) outs(%3 : tensor<3x12xf32>) -> tensor<3x12xf32>
    %228 = linalg.generic {indexing_maps = [#map, #map1, #map], iterator_types = ["parallel", "parallel"]} ins(%227, %cst_43 : tensor<3x12xf32>, tensor<12xf32>) outs(%2 : tensor<3x12xf32>) {
    ^bb0(%in: f32, %in_248: f32, %out: f32):
      %341 = arith.addf %in, %in_248 : f32
      linalg.yield %341 : f32
    } -> tensor<3x12xf32>
    %expanded_179 = tensor.expand_shape %228 [[0, 1], [2, 3, 4]] output_shape [1, 3, 1, 3, 4] : tensor<3x12xf32> into tensor<1x3x1x3x4xf32>
    %transposed_180 = linalg.transpose ins(%expanded_179 : tensor<1x3x1x3x4xf32>) outs(%6 : tensor<3x3x1x1x4xf32>) permutation = [3, 1, 2, 0, 4] 
    %collapsed_181 = tensor.collapse_shape %transposed_180 [[0], [1], [2, 3], [4]] : tensor<3x3x1x1x4xf32> into tensor<3x3x1x4xf32>
    %extracted_slice_182 = tensor.extract_slice %collapsed_181[0, 0, 0, 0] [1, 3, 1, 4] [1, 1, 1, 1] : tensor<3x3x1x4xf32> to tensor<1x3x1x4xf32>
    %extracted_slice_183 = tensor.extract_slice %collapsed_181[1, 0, 0, 0] [1, 3, 1, 4] [1, 1, 1, 1] : tensor<3x3x1x4xf32> to tensor<1x3x1x4xf32>
    %extracted_slice_184 = tensor.extract_slice %collapsed_181[2, 0, 0, 0] [1, 3, 1, 4] [1, 1, 1, 1] : tensor<3x3x1x4xf32> to tensor<1x3x1x4xf32>
    %collapsed_185 = tensor.collapse_shape %extracted_slice_182 [[0, 1], [2, 3]] : tensor<1x3x1x4xf32> into tensor<3x4xf32>
    %expanded_186 = tensor.expand_shape %collapsed_185 [[0], [1, 2]] output_shape [3, 2, 2] : tensor<3x4xf32> into tensor<3x2x2xf32>
    %transposed_187 = linalg.transpose ins(%expanded_186 : tensor<3x2x2xf32>) outs(%7 : tensor<2x3x2xf32>) permutation = [1, 0, 2] 
    %collapsed_188 = tensor.collapse_shape %extracted_slice_183 [[0, 1], [2, 3]] : tensor<1x3x1x4xf32> into tensor<3x4xf32>
    %expanded_189 = tensor.expand_shape %collapsed_188 [[0], [1, 2]] output_shape [3, 2, 2] : tensor<3x4xf32> into tensor<3x2x2xf32>
    %transposed_190 = linalg.transpose ins(%expanded_189 : tensor<3x2x2xf32>) outs(%7 : tensor<2x3x2xf32>) permutation = [1, 0, 2] 
    %collapsed_191 = tensor.collapse_shape %extracted_slice_184 [[0, 1], [2, 3]] : tensor<1x3x1x4xf32> into tensor<3x4xf32>
    %expanded_192 = tensor.expand_shape %collapsed_191 [[0], [1, 2]] output_shape [3, 2, 2] : tensor<3x4xf32> into tensor<3x2x2xf32>
    %transposed_193 = linalg.transpose ins(%expanded_192 : tensor<3x2x2xf32>) outs(%7 : tensor<2x3x2xf32>) permutation = [1, 0, 2] 
    %expanded_194 = tensor.expand_shape %transposed_187 [[0, 1], [2], [3]] output_shape [1, 2, 3, 2] : tensor<2x3x2xf32> into tensor<1x2x3x2xf32>
    %expanded_195 = tensor.expand_shape %transposed_190 [[0, 1], [2], [3]] output_shape [1, 2, 3, 2] : tensor<2x3x2xf32> into tensor<1x2x3x2xf32>
    %229 = linalg.generic {indexing_maps = [#map2, #map2], iterator_types = ["parallel", "parallel", "parallel", "parallel"]} ins(%expanded_194 : tensor<1x2x3x2xf32>) outs(%8 : tensor<1x2x3x2xf32>) {
    ^bb0(%in: f32, %out: f32):
      %341 = arith.truncf %cst_7 : f64 to f32
      %342 = arith.mulf %in, %341 : f32
      linalg.yield %342 : f32
    } -> tensor<1x2x3x2xf32>
    %transposed_196 = linalg.transpose ins(%expanded_195 : tensor<1x2x3x2xf32>) outs(%10 : tensor<1x2x2x3xf32>) permutation = [0, 1, 3, 2] 
    %230 = linalg.generic {indexing_maps = [#map2, #map2], iterator_types = ["parallel", "parallel", "parallel", "parallel"]} ins(%transposed_196 : tensor<1x2x2x3xf32>) outs(%10 : tensor<1x2x2x3xf32>) {
    ^bb0(%in: f32, %out: f32):
      %341 = arith.truncf %cst_7 : f64 to f32
      %342 = arith.mulf %in, %341 : f32
      linalg.yield %342 : f32
    } -> tensor<1x2x2x3xf32>
    %collapsed_197 = tensor.collapse_shape %229 [[0, 1], [2], [3]] : tensor<1x2x3x2xf32> into tensor<2x3x2xf32>
    %collapsed_198 = tensor.collapse_shape %230 [[0, 1], [2], [3]] : tensor<1x2x2x3xf32> into tensor<2x2x3xf32>
    %231 = linalg.batch_matmul ins(%collapsed_197, %collapsed_198 : tensor<2x3x2xf32>, tensor<2x2x3xf32>) outs(%13 : tensor<2x3x3xf32>) -> tensor<2x3x3xf32>
    %expanded_199 = tensor.expand_shape %231 [[0, 1], [2], [3]] output_shape [1, 2, 3, 3] : tensor<2x3x3xf32> into tensor<1x2x3x3xf32>
    %232:2 = linalg.generic {indexing_maps = [#map2, #map3, #map3], iterator_types = ["parallel", "parallel", "parallel", "reduction"]} ins(%expanded_199 : tensor<1x2x3x3xf32>) outs(%18, %16 : tensor<1x2x3xf32>, tensor<1x2x3xi64>) {
    ^bb0(%in: f32, %out: f32, %out_248: i64):
      %341 = linalg.index 3 : index
      %342 = arith.index_cast %341 : index to i64
      %343 = arith.maximumf %in, %out : f32
      %344 = arith.cmpf ogt, %in, %out : f32
      %345 = arith.select %344, %342, %out_248 : i64
      linalg.yield %343, %345 : f32, i64
    } -> (tensor<1x2x3xf32>, tensor<1x2x3xi64>)
    %expanded_200 = tensor.expand_shape %232#0 [[0], [1], [2, 3]] output_shape [1, 2, 3, 1] : tensor<1x2x3xf32> into tensor<1x2x3x1xf32>
    %233 = linalg.generic {indexing_maps = [#map2, #map4, #map2], iterator_types = ["parallel", "parallel", "parallel", "parallel"]} ins(%expanded_199, %expanded_200 : tensor<1x2x3x3xf32>, tensor<1x2x3x1xf32>) outs(%20 : tensor<1x2x3x3xf32>) {
    ^bb0(%in: f32, %in_248: f32, %out: f32):
      %341 = arith.subf %in, %in_248 : f32
      linalg.yield %341 : f32
    } -> tensor<1x2x3x3xf32>
    %234 = linalg.generic {indexing_maps = [#map2, #map2], iterator_types = ["parallel", "parallel", "parallel", "parallel"]} ins(%233 : tensor<1x2x3x3xf32>) outs(%20 : tensor<1x2x3x3xf32>) {
    ^bb0(%in: f32, %out: f32):
      %341 = math.exp %in : f32
      linalg.yield %341 : f32
    } -> tensor<1x2x3x3xf32>
    %235 = linalg.generic {indexing_maps = [#map2, #map4], iterator_types = ["parallel", "parallel", "parallel", "reduction"]} ins(%234 : tensor<1x2x3x3xf32>) outs(%24 : tensor<1x2x3x1xf32>) {
    ^bb0(%in: f32, %out: f32):
      %341 = arith.addf %in, %out : f32
      linalg.yield %341 : f32
    } -> tensor<1x2x3x1xf32>
    %236 = linalg.generic {indexing_maps = [#map2, #map4, #map2], iterator_types = ["parallel", "parallel", "parallel", "parallel"]} ins(%234, %235 : tensor<1x2x3x3xf32>, tensor<1x2x3x1xf32>) outs(%20 : tensor<1x2x3x3xf32>) {
    ^bb0(%in: f32, %in_248: f32, %out: f32):
      %341 = arith.divf %in, %in_248 : f32
      linalg.yield %341 : f32
    } -> tensor<1x2x3x3xf32>
    %237 = linalg.generic {indexing_maps = [#map2, #map2], iterator_types = ["parallel", "parallel", "parallel", "parallel"]} ins(%expanded_199 : tensor<1x2x3x3xf32>) outs(%27 : tensor<1x2x3x3xi1>) {
    ^bb0(%in: f32, %out: i1):
      %341 = arith.extf %in : f32 to f64
      %342 = arith.cmpf oeq, %341, %cst_6 : f64
      linalg.yield %342 : i1
    } -> tensor<1x2x3x3xi1>
    %238 = linalg.generic {indexing_maps = [#map2, #map2], iterator_types = ["parallel", "parallel", "parallel", "parallel"]} ins(%237 : tensor<1x2x3x3xi1>) outs(%27 : tensor<1x2x3x3xi1>) {
    ^bb0(%in: i1, %out: i1):
      %341 = arith.cmpi eq, %in, %false : i1
      linalg.yield %341 : i1
    } -> tensor<1x2x3x3xi1>
    %239 = linalg.generic {indexing_maps = [#map2, #map4], iterator_types = ["parallel", "parallel", "parallel", "reduction"]} ins(%238 : tensor<1x2x3x3xi1>) outs(%31 : tensor<1x2x3x1xi1>) {
    ^bb0(%in: i1, %out: i1):
      %341 = arith.ori %in, %out : i1
      linalg.yield %341 : i1
    } -> tensor<1x2x3x1xi1>
    %240 = linalg.generic {indexing_maps = [#map2, #map2], iterator_types = ["parallel", "parallel", "parallel", "parallel"]} ins(%239 : tensor<1x2x3x1xi1>) outs(%30 : tensor<1x2x3x1xi1>) {
    ^bb0(%in: i1, %out: i1):
      %341 = arith.cmpi eq, %in, %false : i1
      linalg.yield %341 : i1
    } -> tensor<1x2x3x1xi1>
    %241 = linalg.generic {indexing_maps = [#map4, #map2, #map2, #map2], iterator_types = ["parallel", "parallel", "parallel", "parallel"]} ins(%240, %cst_62, %236 : tensor<1x2x3x1xi1>, tensor<1x2x3x3xf32>, tensor<1x2x3x3xf32>) outs(%20 : tensor<1x2x3x3xf32>) {
    ^bb0(%in: i1, %in_248: f32, %in_249: f32, %out: f32):
      %341 = arith.select %in, %in_248, %in_249 : f32
      linalg.yield %341 : f32
    } -> tensor<1x2x3x3xf32>
    %collapsed_201 = tensor.collapse_shape %241 [[0, 1], [2], [3]] : tensor<1x2x3x3xf32> into tensor<2x3x3xf32>
    %242 = linalg.batch_matmul ins(%collapsed_201, %transposed_193 : tensor<2x3x3xf32>, tensor<2x3x2xf32>) outs(%35 : tensor<2x3x2xf32>) -> tensor<2x3x2xf32>
    %expanded_202 = tensor.expand_shape %242 [[0, 1], [2], [3]] output_shape [1, 2, 3, 2] : tensor<2x3x2xf32> into tensor<1x2x3x2xf32>
    %transposed_203 = linalg.transpose ins(%expanded_202 : tensor<1x2x3x2xf32>) outs(%37 : tensor<3x1x2x2xf32>) permutation = [2, 0, 1, 3] 
    %collapsed_204 = tensor.collapse_shape %transposed_203 [[0], [1, 2, 3]] : tensor<3x1x2x2xf32> into tensor<3x4xf32>
    %transposed_205 = linalg.transpose ins(%cst_44 : tensor<4x4xf32>) outs(%38 : tensor<4x4xf32>) permutation = [1, 0] 
    %243 = linalg.matmul ins(%collapsed_204, %transposed_205 : tensor<3x4xf32>, tensor<4x4xf32>) outs(%40 : tensor<3x4xf32>) -> tensor<3x4xf32>
    %244 = linalg.generic {indexing_maps = [#map, #map1, #map], iterator_types = ["parallel", "parallel"]} ins(%243, %cst_45 : tensor<3x4xf32>, tensor<4xf32>) outs(%39 : tensor<3x4xf32>) {
    ^bb0(%in: f32, %in_248: f32, %out: f32):
      %341 = arith.addf %in, %in_248 : f32
      linalg.yield %341 : f32
    } -> tensor<3x4xf32>
    %expanded_206 = tensor.expand_shape %244 [[0], [1, 2]] output_shape [3, 1, 4] : tensor<3x4xf32> into tensor<3x1x4xf32>
    %transposed_207 = linalg.transpose ins(%expanded_206 : tensor<3x1x4xf32>) outs(%43 : tensor<1x3x4xf32>) permutation = [1, 0, 2] 
    %245 = linalg.generic {indexing_maps = [#map5, #map5, #map5], iterator_types = ["parallel", "parallel", "parallel"]} ins(%226, %transposed_207 : tensor<1x3x4xf32>, tensor<1x3x4xf32>) outs(%43 : tensor<1x3x4xf32>) {
    ^bb0(%in: f32, %in_248: f32, %out: f32):
      %341 = arith.addf %in, %in_248 : f32
      linalg.yield %341 : f32
    } -> tensor<1x3x4xf32>
    %246 = linalg.generic {indexing_maps = [#map5, #map5], iterator_types = ["parallel", "parallel", "parallel"]} ins(%245 : tensor<1x3x4xf32>) outs(%45 : tensor<1x3x4xf64>) {
    ^bb0(%in: f32, %out: f64):
      %341 = arith.extf %in : f32 to f64
      linalg.yield %341 : f64
    } -> tensor<1x3x4xf64>
    %247 = linalg.generic {indexing_maps = [#map5, #map6], iterator_types = ["parallel", "parallel", "reduction"]} ins(%246 : tensor<1x3x4xf64>) outs(%48 : tensor<1x3x1xf64>) {
    ^bb0(%in: f64, %out: f64):
      %341 = arith.addf %in, %out : f64
      linalg.yield %341 : f64
    } -> tensor<1x3x1xf64>
    %248 = linalg.generic {indexing_maps = [#map5, #map5], iterator_types = ["parallel", "parallel", "parallel"]} ins(%247 : tensor<1x3x1xf64>) outs(%47 : tensor<1x3x1xf64>) {
    ^bb0(%in: f64, %out: f64):
      %341 = arith.divf %in, %cst_8 : f64
      linalg.yield %341 : f64
    } -> tensor<1x3x1xf64>
    %249 = linalg.generic {indexing_maps = [#map5, #map6, #map5], iterator_types = ["parallel", "parallel", "parallel"]} ins(%246, %248 : tensor<1x3x4xf64>, tensor<1x3x1xf64>) outs(%45 : tensor<1x3x4xf64>) {
    ^bb0(%in: f64, %in_248: f64, %out: f64):
      %341 = arith.subf %in, %in_248 : f64
      linalg.yield %341 : f64
    } -> tensor<1x3x4xf64>
    %250 = linalg.generic {indexing_maps = [#map5, #map5, #map5], iterator_types = ["parallel", "parallel", "parallel"]} ins(%249, %249 : tensor<1x3x4xf64>, tensor<1x3x4xf64>) outs(%45 : tensor<1x3x4xf64>) {
    ^bb0(%in: f64, %in_248: f64, %out: f64):
      %341 = arith.mulf %in, %in_248 : f64
      linalg.yield %341 : f64
    } -> tensor<1x3x4xf64>
    %251 = linalg.generic {indexing_maps = [#map5, #map6], iterator_types = ["parallel", "parallel", "reduction"]} ins(%250 : tensor<1x3x4xf64>) outs(%48 : tensor<1x3x1xf64>) {
    ^bb0(%in: f64, %out: f64):
      %341 = arith.addf %in, %out : f64
      linalg.yield %341 : f64
    } -> tensor<1x3x1xf64>
    %252 = linalg.generic {indexing_maps = [#map5, #map5], iterator_types = ["parallel", "parallel", "parallel"]} ins(%251 : tensor<1x3x1xf64>) outs(%47 : tensor<1x3x1xf64>) {
    ^bb0(%in: f64, %out: f64):
      %341 = arith.divf %in, %cst_8 : f64
      linalg.yield %341 : f64
    } -> tensor<1x3x1xf64>
    %253 = linalg.generic {indexing_maps = [#map5, #map5], iterator_types = ["parallel", "parallel", "parallel"]} ins(%252 : tensor<1x3x1xf64>) outs(%55 : tensor<1x3x1xf32>) {
    ^bb0(%in: f64, %out: f32):
      %341 = arith.truncf %in : f64 to f32
      linalg.yield %341 : f32
    } -> tensor<1x3x1xf32>
    %254 = linalg.generic {indexing_maps = [#map5, #map6], iterator_types = ["parallel", "parallel", "reduction"]} ins(%245 : tensor<1x3x4xf32>) outs(%57 : tensor<1x3x1xf32>) {
    ^bb0(%in: f32, %out: f32):
      %341 = arith.addf %in, %out : f32
      linalg.yield %341 : f32
    } -> tensor<1x3x1xf32>
    %255 = linalg.generic {indexing_maps = [#map5, #map5], iterator_types = ["parallel", "parallel", "parallel"]} ins(%254 : tensor<1x3x1xf32>) outs(%55 : tensor<1x3x1xf32>) {
    ^bb0(%in: f32, %out: f32):
      %341 = arith.divf %in, %cst_9 : f32
      linalg.yield %341 : f32
    } -> tensor<1x3x1xf32>
    %256 = linalg.generic {indexing_maps = [#map5, #map5], iterator_types = ["parallel", "parallel", "parallel"]} ins(%253 : tensor<1x3x1xf32>) outs(%55 : tensor<1x3x1xf32>) {
    ^bb0(%in: f32, %out: f32):
      %341 = arith.truncf %cst_5 : f64 to f32
      %342 = arith.addf %in, %341 : f32
      linalg.yield %342 : f32
    } -> tensor<1x3x1xf32>
    %257 = linalg.generic {indexing_maps = [#map5, #map5], iterator_types = ["parallel", "parallel", "parallel"]} ins(%256 : tensor<1x3x1xf32>) outs(%55 : tensor<1x3x1xf32>) {
    ^bb0(%in: f32, %out: f32):
      %341 = math.rsqrt %in : f32
      linalg.yield %341 : f32
    } -> tensor<1x3x1xf32>
    %258 = linalg.generic {indexing_maps = [#map5, #map6, #map5], iterator_types = ["parallel", "parallel", "parallel"]} ins(%245, %255 : tensor<1x3x4xf32>, tensor<1x3x1xf32>) outs(%43 : tensor<1x3x4xf32>) {
    ^bb0(%in: f32, %in_248: f32, %out: f32):
      %341 = arith.subf %in, %in_248 : f32
      linalg.yield %341 : f32
    } -> tensor<1x3x4xf32>
    %259 = linalg.generic {indexing_maps = [#map5, #map6, #map5], iterator_types = ["parallel", "parallel", "parallel"]} ins(%258, %257 : tensor<1x3x4xf32>, tensor<1x3x1xf32>) outs(%43 : tensor<1x3x4xf32>) {
    ^bb0(%in: f32, %in_248: f32, %out: f32):
      %341 = arith.mulf %in, %in_248 : f32
      linalg.yield %341 : f32
    } -> tensor<1x3x4xf32>
    %260 = linalg.generic {indexing_maps = [#map5, #map7, #map5], iterator_types = ["parallel", "parallel", "parallel"]} ins(%259, %cst_46 : tensor<1x3x4xf32>, tensor<4xf32>) outs(%43 : tensor<1x3x4xf32>) {
    ^bb0(%in: f32, %in_248: f32, %out: f32):
      %341 = arith.mulf %in, %in_248 : f32
      linalg.yield %341 : f32
    } -> tensor<1x3x4xf32>
    %261 = linalg.generic {indexing_maps = [#map5, #map7, #map5], iterator_types = ["parallel", "parallel", "parallel"]} ins(%260, %cst_47 : tensor<1x3x4xf32>, tensor<4xf32>) outs(%43 : tensor<1x3x4xf32>) {
    ^bb0(%in: f32, %in_248: f32, %out: f32):
      %341 = arith.addf %in, %in_248 : f32
      linalg.yield %341 : f32
    } -> tensor<1x3x4xf32>
    %transposed_208 = linalg.transpose ins(%261 : tensor<1x3x4xf32>) outs(%0 : tensor<3x1x4xf32>) permutation = [1, 0, 2] 
    %collapsed_209 = tensor.collapse_shape %cst_48 [[0, 1]] : tensor<12x4xf32> into tensor<48xf32>
    %262 = linalg.generic {indexing_maps = [#map8, #map8], iterator_types = ["parallel"]} ins(%collapsed_134 : tensor<16xi64>) outs(%150 : tensor<16xf32>) {
    ^bb0(%in: i64, %out: f32):
      %341 = arith.cmpi slt, %in, %c0_i64 : i64
      %342 = arith.addi %in, %c48_i64 : i64
      %343 = arith.select %341, %342, %in : i64
      %344 = arith.index_cast %343 : i64 to index
      %extracted = tensor.extract %collapsed_209[%344] : tensor<48xf32>
      linalg.yield %extracted : f32
    } -> tensor<16xf32>
    %expanded_210 = tensor.expand_shape %262 [[0, 1]] output_shape [4, 4] : tensor<16xf32> into tensor<4x4xf32>
    %263 = linalg.generic {indexing_maps = [#map8, #map8], iterator_types = ["parallel"]} ins(%159 : tensor<32xi64>) outs(%160 : tensor<32xf32>) {
    ^bb0(%in: i64, %out: f32):
      %341 = arith.cmpi slt, %in, %c0_i64 : i64
      %342 = arith.addi %in, %c48_i64 : i64
      %343 = arith.select %341, %342, %in : i64
      %344 = arith.index_cast %343 : i64 to index
      %extracted = tensor.extract %collapsed_209[%344] : tensor<48xf32>
      linalg.yield %extracted : f32
    } -> tensor<32xf32>
    %expanded_211 = tensor.expand_shape %263 [[0, 1]] output_shape [8, 4] : tensor<32xf32> into tensor<8x4xf32>
    %264 = linalg.generic {indexing_maps = [#map8, #map8], iterator_types = ["parallel"]} ins(%145 : tensor<4xi64>) outs(%162 : tensor<4xf32>) {
    ^bb0(%in: i64, %out: f32):
      %341 = arith.cmpi slt, %in, %c0_i64 : i64
      %342 = arith.addi %in, %c12_i64 : i64
      %343 = arith.select %341, %342, %in : i64
      %344 = arith.index_cast %343 : i64 to index
      %extracted = tensor.extract %cst_49[%344] : tensor<12xf32>
      linalg.yield %extracted : f32
    } -> tensor<4xf32>
    %265 = linalg.generic {indexing_maps = [#map8, #map8], iterator_types = ["parallel"]} ins(%164 : tensor<8xi64>) outs(%165 : tensor<8xf32>) {
    ^bb0(%in: i64, %out: f32):
      %341 = arith.cmpi slt, %in, %c0_i64 : i64
      %342 = arith.addi %in, %c12_i64 : i64
      %343 = arith.select %341, %342, %in : i64
      %344 = arith.index_cast %343 : i64 to index
      %extracted = tensor.extract %cst_49[%344] : tensor<12xf32>
      linalg.yield %extracted : f32
    } -> tensor<8xf32>
    %collapsed_212 = tensor.collapse_shape %transposed_208 [[0], [1, 2]] : tensor<3x1x4xf32> into tensor<3x4xf32>
    %transposed_213 = linalg.transpose ins(%expanded_210 : tensor<4x4xf32>) outs(%38 : tensor<4x4xf32>) permutation = [1, 0] 
    %266 = linalg.matmul ins(%collapsed_212, %transposed_213 : tensor<3x4xf32>, tensor<4x4xf32>) outs(%40 : tensor<3x4xf32>) -> tensor<3x4xf32>
    %267 = linalg.generic {indexing_maps = [#map, #map1, #map], iterator_types = ["parallel", "parallel"]} ins(%266, %264 : tensor<3x4xf32>, tensor<4xf32>) outs(%39 : tensor<3x4xf32>) {
    ^bb0(%in: f32, %in_248: f32, %out: f32):
      %341 = arith.addf %in, %in_248 : f32
      linalg.yield %341 : f32
    } -> tensor<3x4xf32>
    %transposed_214 = linalg.transpose ins(%expanded_211 : tensor<8x4xf32>) outs(%66 : tensor<4x8xf32>) permutation = [1, 0] 
    %268 = linalg.matmul ins(%collapsed_141, %transposed_214 : tensor<3x4xf32>, tensor<4x8xf32>) outs(%68 : tensor<3x8xf32>) -> tensor<3x8xf32>
    %269 = linalg.generic {indexing_maps = [#map, #map1, #map], iterator_types = ["parallel", "parallel"]} ins(%268, %265 : tensor<3x8xf32>, tensor<8xf32>) outs(%67 : tensor<3x8xf32>) {
    ^bb0(%in: f32, %in_248: f32, %out: f32):
      %341 = arith.addf %in, %in_248 : f32
      linalg.yield %341 : f32
    } -> tensor<3x8xf32>
    %expanded_215 = tensor.expand_shape %269 [[0, 1], [2, 3, 4]] output_shape [1, 3, 1, 2, 4] : tensor<3x8xf32> into tensor<1x3x1x2x4xf32>
    %transposed_216 = linalg.transpose ins(%expanded_215 : tensor<1x3x1x2x4xf32>) outs(%171 : tensor<2x3x1x1x4xf32>) permutation = [3, 1, 2, 0, 4] 
    %collapsed_217 = tensor.collapse_shape %transposed_216 [[0], [1], [2, 3], [4]] : tensor<2x3x1x1x4xf32> into tensor<2x3x1x4xf32>
    %extracted_slice_218 = tensor.extract_slice %collapsed_217[0, 0, 0, 0] [1, 3, 1, 4] [1, 1, 1, 1] : tensor<2x3x1x4xf32> to tensor<1x3x1x4xf32>
    %extracted_slice_219 = tensor.extract_slice %collapsed_217[1, 0, 0, 0] [1, 3, 1, 4] [1, 1, 1, 1] : tensor<2x3x1x4xf32> to tensor<1x3x1x4xf32>
    %expanded_220 = tensor.expand_shape %267 [[0], [1, 2]] output_shape [3, 2, 2] : tensor<3x4xf32> into tensor<3x2x2xf32>
    %transposed_221 = linalg.transpose ins(%expanded_220 : tensor<3x2x2xf32>) outs(%7 : tensor<2x3x2xf32>) permutation = [1, 0, 2] 
    %collapsed_222 = tensor.collapse_shape %extracted_slice_218 [[0, 1], [2, 3]] : tensor<1x3x1x4xf32> into tensor<3x4xf32>
    %expanded_223 = tensor.expand_shape %collapsed_222 [[0], [1, 2]] output_shape [3, 2, 2] : tensor<3x4xf32> into tensor<3x2x2xf32>
    %transposed_224 = linalg.transpose ins(%expanded_223 : tensor<3x2x2xf32>) outs(%7 : tensor<2x3x2xf32>) permutation = [1, 0, 2] 
    %collapsed_225 = tensor.collapse_shape %extracted_slice_219 [[0, 1], [2, 3]] : tensor<1x3x1x4xf32> into tensor<3x4xf32>
    %expanded_226 = tensor.expand_shape %collapsed_225 [[0], [1, 2]] output_shape [3, 2, 2] : tensor<3x4xf32> into tensor<3x2x2xf32>
    %transposed_227 = linalg.transpose ins(%expanded_226 : tensor<3x2x2xf32>) outs(%7 : tensor<2x3x2xf32>) permutation = [1, 0, 2] 
    %expanded_228 = tensor.expand_shape %transposed_221 [[0, 1], [2], [3]] output_shape [1, 2, 3, 2] : tensor<2x3x2xf32> into tensor<1x2x3x2xf32>
    %expanded_229 = tensor.expand_shape %transposed_224 [[0, 1], [2], [3]] output_shape [1, 2, 3, 2] : tensor<2x3x2xf32> into tensor<1x2x3x2xf32>
    %270 = linalg.generic {indexing_maps = [#map2, #map2], iterator_types = ["parallel", "parallel", "parallel", "parallel"]} ins(%expanded_228 : tensor<1x2x3x2xf32>) outs(%8 : tensor<1x2x3x2xf32>) {
    ^bb0(%in: f32, %out: f32):
      %341 = arith.truncf %cst_7 : f64 to f32
      %342 = arith.mulf %in, %341 : f32
      linalg.yield %342 : f32
    } -> tensor<1x2x3x2xf32>
    %transposed_230 = linalg.transpose ins(%expanded_229 : tensor<1x2x3x2xf32>) outs(%10 : tensor<1x2x2x3xf32>) permutation = [0, 1, 3, 2] 
    %271 = linalg.generic {indexing_maps = [#map2, #map2], iterator_types = ["parallel", "parallel", "parallel", "parallel"]} ins(%transposed_230 : tensor<1x2x2x3xf32>) outs(%10 : tensor<1x2x2x3xf32>) {
    ^bb0(%in: f32, %out: f32):
      %341 = arith.truncf %cst_7 : f64 to f32
      %342 = arith.mulf %in, %341 : f32
      linalg.yield %342 : f32
    } -> tensor<1x2x2x3xf32>
    %collapsed_231 = tensor.collapse_shape %270 [[0, 1], [2], [3]] : tensor<1x2x3x2xf32> into tensor<2x3x2xf32>
    %collapsed_232 = tensor.collapse_shape %271 [[0, 1], [2], [3]] : tensor<1x2x2x3xf32> into tensor<2x2x3xf32>
    %272 = linalg.batch_matmul ins(%collapsed_231, %collapsed_232 : tensor<2x3x2xf32>, tensor<2x2x3xf32>) outs(%13 : tensor<2x3x3xf32>) -> tensor<2x3x3xf32>
    %expanded_233 = tensor.expand_shape %272 [[0, 1], [2], [3]] output_shape [1, 2, 3, 3] : tensor<2x3x3xf32> into tensor<1x2x3x3xf32>
    %273:2 = linalg.generic {indexing_maps = [#map2, #map3, #map3], iterator_types = ["parallel", "parallel", "parallel", "reduction"]} ins(%expanded_233 : tensor<1x2x3x3xf32>) outs(%18, %16 : tensor<1x2x3xf32>, tensor<1x2x3xi64>) {
    ^bb0(%in: f32, %out: f32, %out_248: i64):
      %341 = linalg.index 3 : index
      %342 = arith.index_cast %341 : index to i64
      %343 = arith.maximumf %in, %out : f32
      %344 = arith.cmpf ogt, %in, %out : f32
      %345 = arith.select %344, %342, %out_248 : i64
      linalg.yield %343, %345 : f32, i64
    } -> (tensor<1x2x3xf32>, tensor<1x2x3xi64>)
    %expanded_234 = tensor.expand_shape %273#0 [[0], [1], [2, 3]] output_shape [1, 2, 3, 1] : tensor<1x2x3xf32> into tensor<1x2x3x1xf32>
    %274 = linalg.generic {indexing_maps = [#map2, #map4, #map2], iterator_types = ["parallel", "parallel", "parallel", "parallel"]} ins(%expanded_233, %expanded_234 : tensor<1x2x3x3xf32>, tensor<1x2x3x1xf32>) outs(%20 : tensor<1x2x3x3xf32>) {
    ^bb0(%in: f32, %in_248: f32, %out: f32):
      %341 = arith.subf %in, %in_248 : f32
      linalg.yield %341 : f32
    } -> tensor<1x2x3x3xf32>
    %275 = linalg.generic {indexing_maps = [#map2, #map2], iterator_types = ["parallel", "parallel", "parallel", "parallel"]} ins(%274 : tensor<1x2x3x3xf32>) outs(%20 : tensor<1x2x3x3xf32>) {
    ^bb0(%in: f32, %out: f32):
      %341 = math.exp %in : f32
      linalg.yield %341 : f32
    } -> tensor<1x2x3x3xf32>
    %276 = linalg.generic {indexing_maps = [#map2, #map4], iterator_types = ["parallel", "parallel", "parallel", "reduction"]} ins(%275 : tensor<1x2x3x3xf32>) outs(%24 : tensor<1x2x3x1xf32>) {
    ^bb0(%in: f32, %out: f32):
      %341 = arith.addf %in, %out : f32
      linalg.yield %341 : f32
    } -> tensor<1x2x3x1xf32>
    %277 = linalg.generic {indexing_maps = [#map2, #map4, #map2], iterator_types = ["parallel", "parallel", "parallel", "parallel"]} ins(%275, %276 : tensor<1x2x3x3xf32>, tensor<1x2x3x1xf32>) outs(%20 : tensor<1x2x3x3xf32>) {
    ^bb0(%in: f32, %in_248: f32, %out: f32):
      %341 = arith.divf %in, %in_248 : f32
      linalg.yield %341 : f32
    } -> tensor<1x2x3x3xf32>
    %278 = linalg.generic {indexing_maps = [#map2, #map2], iterator_types = ["parallel", "parallel", "parallel", "parallel"]} ins(%expanded_233 : tensor<1x2x3x3xf32>) outs(%27 : tensor<1x2x3x3xi1>) {
    ^bb0(%in: f32, %out: i1):
      %341 = arith.extf %in : f32 to f64
      %342 = arith.cmpf oeq, %341, %cst_6 : f64
      linalg.yield %342 : i1
    } -> tensor<1x2x3x3xi1>
    %279 = linalg.generic {indexing_maps = [#map2, #map2], iterator_types = ["parallel", "parallel", "parallel", "parallel"]} ins(%278 : tensor<1x2x3x3xi1>) outs(%27 : tensor<1x2x3x3xi1>) {
    ^bb0(%in: i1, %out: i1):
      %341 = arith.cmpi eq, %in, %false : i1
      linalg.yield %341 : i1
    } -> tensor<1x2x3x3xi1>
    %280 = linalg.generic {indexing_maps = [#map2, #map4], iterator_types = ["parallel", "parallel", "parallel", "reduction"]} ins(%279 : tensor<1x2x3x3xi1>) outs(%31 : tensor<1x2x3x1xi1>) {
    ^bb0(%in: i1, %out: i1):
      %341 = arith.ori %in, %out : i1
      linalg.yield %341 : i1
    } -> tensor<1x2x3x1xi1>
    %281 = linalg.generic {indexing_maps = [#map2, #map2], iterator_types = ["parallel", "parallel", "parallel", "parallel"]} ins(%280 : tensor<1x2x3x1xi1>) outs(%30 : tensor<1x2x3x1xi1>) {
    ^bb0(%in: i1, %out: i1):
      %341 = arith.cmpi eq, %in, %false : i1
      linalg.yield %341 : i1
    } -> tensor<1x2x3x1xi1>
    %282 = linalg.generic {indexing_maps = [#map4, #map2, #map2, #map2], iterator_types = ["parallel", "parallel", "parallel", "parallel"]} ins(%281, %cst_62, %277 : tensor<1x2x3x1xi1>, tensor<1x2x3x3xf32>, tensor<1x2x3x3xf32>) outs(%20 : tensor<1x2x3x3xf32>) {
    ^bb0(%in: i1, %in_248: f32, %in_249: f32, %out: f32):
      %341 = arith.select %in, %in_248, %in_249 : f32
      linalg.yield %341 : f32
    } -> tensor<1x2x3x3xf32>
    %collapsed_235 = tensor.collapse_shape %282 [[0, 1], [2], [3]] : tensor<1x2x3x3xf32> into tensor<2x3x3xf32>
    %283 = linalg.batch_matmul ins(%collapsed_235, %transposed_227 : tensor<2x3x3xf32>, tensor<2x3x2xf32>) outs(%35 : tensor<2x3x2xf32>) -> tensor<2x3x2xf32>
    %expanded_236 = tensor.expand_shape %283 [[0, 1], [2], [3]] output_shape [1, 2, 3, 2] : tensor<2x3x2xf32> into tensor<1x2x3x2xf32>
    %transposed_237 = linalg.transpose ins(%expanded_236 : tensor<1x2x3x2xf32>) outs(%37 : tensor<3x1x2x2xf32>) permutation = [2, 0, 1, 3] 
    %collapsed_238 = tensor.collapse_shape %transposed_237 [[0], [1, 2, 3]] : tensor<3x1x2x2xf32> into tensor<3x4xf32>
    %transposed_239 = linalg.transpose ins(%cst_50 : tensor<4x4xf32>) outs(%38 : tensor<4x4xf32>) permutation = [1, 0] 
    %284 = linalg.matmul ins(%collapsed_238, %transposed_239 : tensor<3x4xf32>, tensor<4x4xf32>) outs(%40 : tensor<3x4xf32>) -> tensor<3x4xf32>
    %285 = linalg.generic {indexing_maps = [#map, #map1, #map], iterator_types = ["parallel", "parallel"]} ins(%284, %cst_51 : tensor<3x4xf32>, tensor<4xf32>) outs(%39 : tensor<3x4xf32>) {
    ^bb0(%in: f32, %in_248: f32, %out: f32):
      %341 = arith.addf %in, %in_248 : f32
      linalg.yield %341 : f32
    } -> tensor<3x4xf32>
    %expanded_240 = tensor.expand_shape %285 [[0], [1, 2]] output_shape [3, 1, 4] : tensor<3x4xf32> into tensor<3x1x4xf32>
    %transposed_241 = linalg.transpose ins(%expanded_240 : tensor<3x1x4xf32>) outs(%43 : tensor<1x3x4xf32>) permutation = [1, 0, 2] 
    %286 = linalg.generic {indexing_maps = [#map5, #map5, #map5], iterator_types = ["parallel", "parallel", "parallel"]} ins(%261, %transposed_241 : tensor<1x3x4xf32>, tensor<1x3x4xf32>) outs(%43 : tensor<1x3x4xf32>) {
    ^bb0(%in: f32, %in_248: f32, %out: f32):
      %341 = arith.addf %in, %in_248 : f32
      linalg.yield %341 : f32
    } -> tensor<1x3x4xf32>
    %287 = linalg.generic {indexing_maps = [#map5, #map5], iterator_types = ["parallel", "parallel", "parallel"]} ins(%286 : tensor<1x3x4xf32>) outs(%45 : tensor<1x3x4xf64>) {
    ^bb0(%in: f32, %out: f64):
      %341 = arith.extf %in : f32 to f64
      linalg.yield %341 : f64
    } -> tensor<1x3x4xf64>
    %288 = linalg.generic {indexing_maps = [#map5, #map6], iterator_types = ["parallel", "parallel", "reduction"]} ins(%287 : tensor<1x3x4xf64>) outs(%48 : tensor<1x3x1xf64>) {
    ^bb0(%in: f64, %out: f64):
      %341 = arith.addf %in, %out : f64
      linalg.yield %341 : f64
    } -> tensor<1x3x1xf64>
    %289 = linalg.generic {indexing_maps = [#map5, #map5], iterator_types = ["parallel", "parallel", "parallel"]} ins(%288 : tensor<1x3x1xf64>) outs(%47 : tensor<1x3x1xf64>) {
    ^bb0(%in: f64, %out: f64):
      %341 = arith.divf %in, %cst_8 : f64
      linalg.yield %341 : f64
    } -> tensor<1x3x1xf64>
    %290 = linalg.generic {indexing_maps = [#map5, #map6, #map5], iterator_types = ["parallel", "parallel", "parallel"]} ins(%287, %289 : tensor<1x3x4xf64>, tensor<1x3x1xf64>) outs(%45 : tensor<1x3x4xf64>) {
    ^bb0(%in: f64, %in_248: f64, %out: f64):
      %341 = arith.subf %in, %in_248 : f64
      linalg.yield %341 : f64
    } -> tensor<1x3x4xf64>
    %291 = linalg.generic {indexing_maps = [#map5, #map5, #map5], iterator_types = ["parallel", "parallel", "parallel"]} ins(%290, %290 : tensor<1x3x4xf64>, tensor<1x3x4xf64>) outs(%45 : tensor<1x3x4xf64>) {
    ^bb0(%in: f64, %in_248: f64, %out: f64):
      %341 = arith.mulf %in, %in_248 : f64
      linalg.yield %341 : f64
    } -> tensor<1x3x4xf64>
    %292 = linalg.generic {indexing_maps = [#map5, #map6], iterator_types = ["parallel", "parallel", "reduction"]} ins(%291 : tensor<1x3x4xf64>) outs(%48 : tensor<1x3x1xf64>) {
    ^bb0(%in: f64, %out: f64):
      %341 = arith.addf %in, %out : f64
      linalg.yield %341 : f64
    } -> tensor<1x3x1xf64>
    %293 = linalg.generic {indexing_maps = [#map5, #map5], iterator_types = ["parallel", "parallel", "parallel"]} ins(%292 : tensor<1x3x1xf64>) outs(%47 : tensor<1x3x1xf64>) {
    ^bb0(%in: f64, %out: f64):
      %341 = arith.divf %in, %cst_8 : f64
      linalg.yield %341 : f64
    } -> tensor<1x3x1xf64>
    %294 = linalg.generic {indexing_maps = [#map5, #map5], iterator_types = ["parallel", "parallel", "parallel"]} ins(%293 : tensor<1x3x1xf64>) outs(%55 : tensor<1x3x1xf32>) {
    ^bb0(%in: f64, %out: f32):
      %341 = arith.truncf %in : f64 to f32
      linalg.yield %341 : f32
    } -> tensor<1x3x1xf32>
    %295 = linalg.generic {indexing_maps = [#map5, #map6], iterator_types = ["parallel", "parallel", "reduction"]} ins(%286 : tensor<1x3x4xf32>) outs(%57 : tensor<1x3x1xf32>) {
    ^bb0(%in: f32, %out: f32):
      %341 = arith.addf %in, %out : f32
      linalg.yield %341 : f32
    } -> tensor<1x3x1xf32>
    %296 = linalg.generic {indexing_maps = [#map5, #map5], iterator_types = ["parallel", "parallel", "parallel"]} ins(%295 : tensor<1x3x1xf32>) outs(%55 : tensor<1x3x1xf32>) {
    ^bb0(%in: f32, %out: f32):
      %341 = arith.divf %in, %cst_9 : f32
      linalg.yield %341 : f32
    } -> tensor<1x3x1xf32>
    %297 = linalg.generic {indexing_maps = [#map5, #map5], iterator_types = ["parallel", "parallel", "parallel"]} ins(%294 : tensor<1x3x1xf32>) outs(%55 : tensor<1x3x1xf32>) {
    ^bb0(%in: f32, %out: f32):
      %341 = arith.truncf %cst_5 : f64 to f32
      %342 = arith.addf %in, %341 : f32
      linalg.yield %342 : f32
    } -> tensor<1x3x1xf32>
    %298 = linalg.generic {indexing_maps = [#map5, #map5], iterator_types = ["parallel", "parallel", "parallel"]} ins(%297 : tensor<1x3x1xf32>) outs(%55 : tensor<1x3x1xf32>) {
    ^bb0(%in: f32, %out: f32):
      %341 = math.rsqrt %in : f32
      linalg.yield %341 : f32
    } -> tensor<1x3x1xf32>
    %299 = linalg.generic {indexing_maps = [#map5, #map6, #map5], iterator_types = ["parallel", "parallel", "parallel"]} ins(%286, %296 : tensor<1x3x4xf32>, tensor<1x3x1xf32>) outs(%43 : tensor<1x3x4xf32>) {
    ^bb0(%in: f32, %in_248: f32, %out: f32):
      %341 = arith.subf %in, %in_248 : f32
      linalg.yield %341 : f32
    } -> tensor<1x3x4xf32>
    %300 = linalg.generic {indexing_maps = [#map5, #map6, #map5], iterator_types = ["parallel", "parallel", "parallel"]} ins(%299, %298 : tensor<1x3x4xf32>, tensor<1x3x1xf32>) outs(%43 : tensor<1x3x4xf32>) {
    ^bb0(%in: f32, %in_248: f32, %out: f32):
      %341 = arith.mulf %in, %in_248 : f32
      linalg.yield %341 : f32
    } -> tensor<1x3x4xf32>
    %301 = linalg.generic {indexing_maps = [#map5, #map7, #map5], iterator_types = ["parallel", "parallel", "parallel"]} ins(%300, %cst_52 : tensor<1x3x4xf32>, tensor<4xf32>) outs(%43 : tensor<1x3x4xf32>) {
    ^bb0(%in: f32, %in_248: f32, %out: f32):
      %341 = arith.mulf %in, %in_248 : f32
      linalg.yield %341 : f32
    } -> tensor<1x3x4xf32>
    %302 = linalg.generic {indexing_maps = [#map5, #map7, #map5], iterator_types = ["parallel", "parallel", "parallel"]} ins(%301, %cst_53 : tensor<1x3x4xf32>, tensor<4xf32>) outs(%43 : tensor<1x3x4xf32>) {
    ^bb0(%in: f32, %in_248: f32, %out: f32):
      %341 = arith.addf %in, %in_248 : f32
      linalg.yield %341 : f32
    } -> tensor<1x3x4xf32>
    %collapsed_242 = tensor.collapse_shape %302 [[0, 1], [2]] : tensor<1x3x4xf32> into tensor<3x4xf32>
    %transposed_243 = linalg.transpose ins(%cst_54 : tensor<8x4xf32>) outs(%66 : tensor<4x8xf32>) permutation = [1, 0] 
    %303 = linalg.matmul ins(%collapsed_242, %transposed_243 : tensor<3x4xf32>, tensor<4x8xf32>) outs(%68 : tensor<3x8xf32>) -> tensor<3x8xf32>
    %304 = linalg.generic {indexing_maps = [#map, #map1, #map], iterator_types = ["parallel", "parallel"]} ins(%303, %cst_55 : tensor<3x8xf32>, tensor<8xf32>) outs(%67 : tensor<3x8xf32>) {
    ^bb0(%in: f32, %in_248: f32, %out: f32):
      %341 = arith.addf %in, %in_248 : f32
      linalg.yield %341 : f32
    } -> tensor<3x8xf32>
    %expanded_244 = tensor.expand_shape %304 [[0, 1], [2]] output_shape [1, 3, 8] : tensor<3x8xf32> into tensor<1x3x8xf32>
    %305 = linalg.generic {indexing_maps = [#map5, #map5], iterator_types = ["parallel", "parallel", "parallel"]} ins(%expanded_244 : tensor<1x3x8xf32>) outs(%71 : tensor<1x3x8xf32>) {
    ^bb0(%in: f32, %out: f32):
      %341 = arith.divf %in, %cst_10 : f32
      %342 = math.erf %341 : f32
      %343 = arith.addf %342, %cst_3 : f32
      %344 = arith.mulf %343, %cst_4 : f32
      %345 = arith.mulf %in, %344 : f32
      linalg.yield %345 : f32
    } -> tensor<1x3x8xf32>
    %collapsed_245 = tensor.collapse_shape %305 [[0, 1], [2]] : tensor<1x3x8xf32> into tensor<3x8xf32>
    %transposed_246 = linalg.transpose ins(%cst_56 : tensor<4x8xf32>) outs(%73 : tensor<8x4xf32>) permutation = [1, 0] 
    %306 = linalg.matmul ins(%collapsed_245, %transposed_246 : tensor<3x8xf32>, tensor<8x4xf32>) outs(%40 : tensor<3x4xf32>) -> tensor<3x4xf32>
    %307 = linalg.generic {indexing_maps = [#map, #map1, #map], iterator_types = ["parallel", "parallel"]} ins(%306, %cst_57 : tensor<3x4xf32>, tensor<4xf32>) outs(%39 : tensor<3x4xf32>) {
    ^bb0(%in: f32, %in_248: f32, %out: f32):
      %341 = arith.addf %in, %in_248 : f32
      linalg.yield %341 : f32
    } -> tensor<3x4xf32>
    %expanded_247 = tensor.expand_shape %307 [[0, 1], [2]] output_shape [1, 3, 4] : tensor<3x4xf32> into tensor<1x3x4xf32>
    %308 = linalg.generic {indexing_maps = [#map5, #map5, #map5], iterator_types = ["parallel", "parallel", "parallel"]} ins(%302, %expanded_247 : tensor<1x3x4xf32>, tensor<1x3x4xf32>) outs(%43 : tensor<1x3x4xf32>) {
    ^bb0(%in: f32, %in_248: f32, %out: f32):
      %341 = arith.addf %in, %in_248 : f32
      linalg.yield %341 : f32
    } -> tensor<1x3x4xf32>
    %309 = linalg.generic {indexing_maps = [#map5, #map5], iterator_types = ["parallel", "parallel", "parallel"]} ins(%308 : tensor<1x3x4xf32>) outs(%45 : tensor<1x3x4xf64>) {
    ^bb0(%in: f32, %out: f64):
      %341 = arith.extf %in : f32 to f64
      linalg.yield %341 : f64
    } -> tensor<1x3x4xf64>
    %310 = linalg.generic {indexing_maps = [#map5, #map6], iterator_types = ["parallel", "parallel", "reduction"]} ins(%309 : tensor<1x3x4xf64>) outs(%48 : tensor<1x3x1xf64>) {
    ^bb0(%in: f64, %out: f64):
      %341 = arith.addf %in, %out : f64
      linalg.yield %341 : f64
    } -> tensor<1x3x1xf64>
    %311 = linalg.generic {indexing_maps = [#map5, #map5], iterator_types = ["parallel", "parallel", "parallel"]} ins(%310 : tensor<1x3x1xf64>) outs(%47 : tensor<1x3x1xf64>) {
    ^bb0(%in: f64, %out: f64):
      %341 = arith.divf %in, %cst_8 : f64
      linalg.yield %341 : f64
    } -> tensor<1x3x1xf64>
    %312 = linalg.generic {indexing_maps = [#map5, #map6, #map5], iterator_types = ["parallel", "parallel", "parallel"]} ins(%309, %311 : tensor<1x3x4xf64>, tensor<1x3x1xf64>) outs(%45 : tensor<1x3x4xf64>) {
    ^bb0(%in: f64, %in_248: f64, %out: f64):
      %341 = arith.subf %in, %in_248 : f64
      linalg.yield %341 : f64
    } -> tensor<1x3x4xf64>
    %313 = linalg.generic {indexing_maps = [#map5, #map5, #map5], iterator_types = ["parallel", "parallel", "parallel"]} ins(%312, %312 : tensor<1x3x4xf64>, tensor<1x3x4xf64>) outs(%45 : tensor<1x3x4xf64>) {
    ^bb0(%in: f64, %in_248: f64, %out: f64):
      %341 = arith.mulf %in, %in_248 : f64
      linalg.yield %341 : f64
    } -> tensor<1x3x4xf64>
    %314 = linalg.generic {indexing_maps = [#map5, #map6], iterator_types = ["parallel", "parallel", "reduction"]} ins(%313 : tensor<1x3x4xf64>) outs(%48 : tensor<1x3x1xf64>) {
    ^bb0(%in: f64, %out: f64):
      %341 = arith.addf %in, %out : f64
      linalg.yield %341 : f64
    } -> tensor<1x3x1xf64>
    %315 = linalg.generic {indexing_maps = [#map5, #map5], iterator_types = ["parallel", "parallel", "parallel"]} ins(%314 : tensor<1x3x1xf64>) outs(%47 : tensor<1x3x1xf64>) {
    ^bb0(%in: f64, %out: f64):
      %341 = arith.divf %in, %cst_8 : f64
      linalg.yield %341 : f64
    } -> tensor<1x3x1xf64>
    %316 = linalg.generic {indexing_maps = [#map5, #map5], iterator_types = ["parallel", "parallel", "parallel"]} ins(%315 : tensor<1x3x1xf64>) outs(%55 : tensor<1x3x1xf32>) {
    ^bb0(%in: f64, %out: f32):
      %341 = arith.truncf %in : f64 to f32
      linalg.yield %341 : f32
    } -> tensor<1x3x1xf32>
    %317 = linalg.generic {indexing_maps = [#map5, #map6], iterator_types = ["parallel", "parallel", "reduction"]} ins(%308 : tensor<1x3x4xf32>) outs(%57 : tensor<1x3x1xf32>) {
    ^bb0(%in: f32, %out: f32):
      %341 = arith.addf %in, %out : f32
      linalg.yield %341 : f32
    } -> tensor<1x3x1xf32>
    %318 = linalg.generic {indexing_maps = [#map5, #map5], iterator_types = ["parallel", "parallel", "parallel"]} ins(%317 : tensor<1x3x1xf32>) outs(%55 : tensor<1x3x1xf32>) {
    ^bb0(%in: f32, %out: f32):
      %341 = arith.divf %in, %cst_9 : f32
      linalg.yield %341 : f32
    } -> tensor<1x3x1xf32>
    %319 = linalg.generic {indexing_maps = [#map5, #map5], iterator_types = ["parallel", "parallel", "parallel"]} ins(%316 : tensor<1x3x1xf32>) outs(%55 : tensor<1x3x1xf32>) {
    ^bb0(%in: f32, %out: f32):
      %341 = arith.truncf %cst_5 : f64 to f32
      %342 = arith.addf %in, %341 : f32
      linalg.yield %342 : f32
    } -> tensor<1x3x1xf32>
    %320 = linalg.generic {indexing_maps = [#map5, #map5], iterator_types = ["parallel", "parallel", "parallel"]} ins(%319 : tensor<1x3x1xf32>) outs(%55 : tensor<1x3x1xf32>) {
    ^bb0(%in: f32, %out: f32):
      %341 = math.rsqrt %in : f32
      linalg.yield %341 : f32
    } -> tensor<1x3x1xf32>
    %321 = linalg.generic {indexing_maps = [#map5, #map6, #map5], iterator_types = ["parallel", "parallel", "parallel"]} ins(%308, %318 : tensor<1x3x4xf32>, tensor<1x3x1xf32>) outs(%43 : tensor<1x3x4xf32>) {
    ^bb0(%in: f32, %in_248: f32, %out: f32):
      %341 = arith.subf %in, %in_248 : f32
      linalg.yield %341 : f32
    } -> tensor<1x3x4xf32>
    %322 = linalg.generic {indexing_maps = [#map5, #map6, #map5], iterator_types = ["parallel", "parallel", "parallel"]} ins(%321, %320 : tensor<1x3x4xf32>, tensor<1x3x1xf32>) outs(%43 : tensor<1x3x4xf32>) {
    ^bb0(%in: f32, %in_248: f32, %out: f32):
      %341 = arith.mulf %in, %in_248 : f32
      linalg.yield %341 : f32
    } -> tensor<1x3x4xf32>
    %323 = linalg.generic {indexing_maps = [#map5, #map7, #map5], iterator_types = ["parallel", "parallel", "parallel"]} ins(%322, %cst_58 : tensor<1x3x4xf32>, tensor<4xf32>) outs(%43 : tensor<1x3x4xf32>) {
    ^bb0(%in: f32, %in_248: f32, %out: f32):
      %341 = arith.mulf %in, %in_248 : f32
      linalg.yield %341 : f32
    } -> tensor<1x3x4xf32>
    %324 = linalg.generic {indexing_maps = [#map5, #map7, #map5], iterator_types = ["parallel", "parallel", "parallel"]} ins(%323, %cst_59 : tensor<1x3x4xf32>, tensor<4xf32>) outs(%43 : tensor<1x3x4xf32>) {
    ^bb0(%in: f32, %in_248: f32, %out: f32):
      %341 = arith.addf %in, %in_248 : f32
      linalg.yield %341 : f32
    } -> tensor<1x3x4xf32>
    %325 = linalg.generic {indexing_maps = [#map5, #map5], iterator_types = ["parallel", "parallel", "parallel"]} ins(%324 : tensor<1x3x4xf32>) outs(%45 : tensor<1x3x4xf64>) {
    ^bb0(%in: f32, %out: f64):
      %341 = arith.extf %in : f32 to f64
      linalg.yield %341 : f64
    } -> tensor<1x3x4xf64>
    %326 = linalg.generic {indexing_maps = [#map5, #map6], iterator_types = ["parallel", "parallel", "reduction"]} ins(%325 : tensor<1x3x4xf64>) outs(%48 : tensor<1x3x1xf64>) {
    ^bb0(%in: f64, %out: f64):
      %341 = arith.addf %in, %out : f64
      linalg.yield %341 : f64
    } -> tensor<1x3x1xf64>
    %327 = linalg.generic {indexing_maps = [#map5, #map5], iterator_types = ["parallel", "parallel", "parallel"]} ins(%326 : tensor<1x3x1xf64>) outs(%47 : tensor<1x3x1xf64>) {
    ^bb0(%in: f64, %out: f64):
      %341 = arith.divf %in, %cst_8 : f64
      linalg.yield %341 : f64
    } -> tensor<1x3x1xf64>
    %328 = linalg.generic {indexing_maps = [#map5, #map6, #map5], iterator_types = ["parallel", "parallel", "parallel"]} ins(%325, %327 : tensor<1x3x4xf64>, tensor<1x3x1xf64>) outs(%45 : tensor<1x3x4xf64>) {
    ^bb0(%in: f64, %in_248: f64, %out: f64):
      %341 = arith.subf %in, %in_248 : f64
      linalg.yield %341 : f64
    } -> tensor<1x3x4xf64>
    %329 = linalg.generic {indexing_maps = [#map5, #map5, #map5], iterator_types = ["parallel", "parallel", "parallel"]} ins(%328, %328 : tensor<1x3x4xf64>, tensor<1x3x4xf64>) outs(%45 : tensor<1x3x4xf64>) {
    ^bb0(%in: f64, %in_248: f64, %out: f64):
      %341 = arith.mulf %in, %in_248 : f64
      linalg.yield %341 : f64
    } -> tensor<1x3x4xf64>
    %330 = linalg.generic {indexing_maps = [#map5, #map6], iterator_types = ["parallel", "parallel", "reduction"]} ins(%329 : tensor<1x3x4xf64>) outs(%48 : tensor<1x3x1xf64>) {
    ^bb0(%in: f64, %out: f64):
      %341 = arith.addf %in, %out : f64
      linalg.yield %341 : f64
    } -> tensor<1x3x1xf64>
    %331 = linalg.generic {indexing_maps = [#map5, #map5], iterator_types = ["parallel", "parallel", "parallel"]} ins(%330 : tensor<1x3x1xf64>) outs(%47 : tensor<1x3x1xf64>) {
    ^bb0(%in: f64, %out: f64):
      %341 = arith.divf %in, %cst_8 : f64
      linalg.yield %341 : f64
    } -> tensor<1x3x1xf64>
    %332 = linalg.generic {indexing_maps = [#map5, #map5], iterator_types = ["parallel", "parallel", "parallel"]} ins(%331 : tensor<1x3x1xf64>) outs(%55 : tensor<1x3x1xf32>) {
    ^bb0(%in: f64, %out: f32):
      %341 = arith.truncf %in : f64 to f32
      linalg.yield %341 : f32
    } -> tensor<1x3x1xf32>
    %333 = linalg.generic {indexing_maps = [#map5, #map6], iterator_types = ["parallel", "parallel", "reduction"]} ins(%324 : tensor<1x3x4xf32>) outs(%57 : tensor<1x3x1xf32>) {
    ^bb0(%in: f32, %out: f32):
      %341 = arith.addf %in, %out : f32
      linalg.yield %341 : f32
    } -> tensor<1x3x1xf32>
    %334 = linalg.generic {indexing_maps = [#map5, #map5], iterator_types = ["parallel", "parallel", "parallel"]} ins(%333 : tensor<1x3x1xf32>) outs(%55 : tensor<1x3x1xf32>) {
    ^bb0(%in: f32, %out: f32):
      %341 = arith.divf %in, %cst_9 : f32
      linalg.yield %341 : f32
    } -> tensor<1x3x1xf32>
    %335 = linalg.generic {indexing_maps = [#map5, #map5], iterator_types = ["parallel", "parallel", "parallel"]} ins(%332 : tensor<1x3x1xf32>) outs(%55 : tensor<1x3x1xf32>) {
    ^bb0(%in: f32, %out: f32):
      %341 = arith.truncf %cst_5 : f64 to f32
      %342 = arith.addf %in, %341 : f32
      linalg.yield %342 : f32
    } -> tensor<1x3x1xf32>
    %336 = linalg.generic {indexing_maps = [#map5, #map5], iterator_types = ["parallel", "parallel", "parallel"]} ins(%335 : tensor<1x3x1xf32>) outs(%55 : tensor<1x3x1xf32>) {
    ^bb0(%in: f32, %out: f32):
      %341 = math.rsqrt %in : f32
      linalg.yield %341 : f32
    } -> tensor<1x3x1xf32>
    %337 = linalg.generic {indexing_maps = [#map5, #map6, #map5], iterator_types = ["parallel", "parallel", "parallel"]} ins(%324, %334 : tensor<1x3x4xf32>, tensor<1x3x1xf32>) outs(%43 : tensor<1x3x4xf32>) {
    ^bb0(%in: f32, %in_248: f32, %out: f32):
      %341 = arith.subf %in, %in_248 : f32
      linalg.yield %341 : f32
    } -> tensor<1x3x4xf32>
    %338 = linalg.generic {indexing_maps = [#map5, #map6, #map5], iterator_types = ["parallel", "parallel", "parallel"]} ins(%337, %336 : tensor<1x3x4xf32>, tensor<1x3x1xf32>) outs(%43 : tensor<1x3x4xf32>) {
    ^bb0(%in: f32, %in_248: f32, %out: f32):
      %341 = arith.mulf %in, %in_248 : f32
      linalg.yield %341 : f32
    } -> tensor<1x3x4xf32>
    %339 = linalg.generic {indexing_maps = [#map5, #map7, #map5], iterator_types = ["parallel", "parallel", "parallel"]} ins(%338, %cst_60 : tensor<1x3x4xf32>, tensor<4xf32>) outs(%43 : tensor<1x3x4xf32>) {
    ^bb0(%in: f32, %in_248: f32, %out: f32):
      %341 = arith.mulf %in, %in_248 : f32
      linalg.yield %341 : f32
    } -> tensor<1x3x4xf32>
    %340 = linalg.generic {indexing_maps = [#map5, #map7, #map5], iterator_types = ["parallel", "parallel", "parallel"]} ins(%339, %cst_61 : tensor<1x3x4xf32>, tensor<4xf32>) outs(%43 : tensor<1x3x4xf32>) {
    ^bb0(%in: f32, %in_248: f32, %out: f32):
      %341 = arith.addf %in, %in_248 : f32
      linalg.yield %341 : f32
    } -> tensor<1x3x4xf32>
    return %340 : tensor<1x3x4xf32>
  }
}

{-#
  dialect_resources: {
    builtin: {
      torch_tensor_12_4_torch.float32: "…",
      torch_tensor_12_torch.float32: "…",
      torch_tensor_4_4_torch.float32: "…",
      torch_tensor_4_torch.float32: "0x0400000066111F3C66119F3C199AEE3C66111F3D",
      torch_tensor_4_torch.float32_1: "0x0400000026B4173C26B4973C398EE33C26B4173D",
      torch_tensor_4_torch.float32_2: "0x04000000DA4F163CDA4F963CC877E13CDA4F163D",
      torch_tensor_8_4_torch.float32: "…",
      torch_tensor_8_torch.float32: "…",
      torch_tensor_4_8_torch.float32: "…",
      torch_tensor_4_torch.float32_3: "0x040000001A1F193C1A1F993CA7AEE53C1A1F193D",
      torch_tensor_4_torch.float32_4: "0x0400000009F2143C09F2943C0E6BDF3C09F2143D",
      torch_tensor_4_torch.float32_5: "0x04000000869A133C869A933CC967DD3C869A133D",
      torch_tensor_4_torch.float32_6: "0x040000002549123C2549923CB76DDB3C2549123D",
      torch_tensor_4_torch.float32_7: "0x04000000BCFD103CBCFD903C9A7CD93CBCFD103D",
      torch_tensor_12_4_torch.float32_1: "…",
      torch_tensor_12_torch.float32_1: "…",
      torch_tensor_4_4_torch.float32_1: "…",
      torch_tensor_4_torch.float32_8: "0x04000000C1080C3CC1088C3C210DD23CC1080C3D",
      torch_tensor_4_torch.float32_9: "0x040000002108023C2108823C310CC33C2108023D",
      torch_tensor_4_torch.float32_10: "0x040000000402013C0402813C0683C13C0402013D",
      torch_tensor_12_4_torch.float32_2: "…",
      torch_tensor_12_torch.float32_2: "…",
      torch_tensor_4_4_torch.float32_2: "…",
      torch_tensor_4_torch.float32_11: "0x04000000AB67073CAB67873C811BCB3CAB67073D",
      torch_tensor_4_torch.float32_12: "0x040000000000003C0000803C0000C03C0000003D",
      torch_tensor_4_torch.float32_13: "0x04000000F803FE3BF8037E3CFA82BE3CF803FE3C",
      torch_tensor_8_4_torch.float32_1: "…",
      torch_tensor_8_torch.float32_1: "…",
      torch_tensor_4_8_torch.float32_1: "…",
      torch_tensor_4_torch.float32_14: "0x040000006F12033C6F12833CA69BC43C6F12033D",
      torch_tensor_4_torch.float32_15: "0x04000000C10FFC3BC10F7C3CD10BBD3CC10FFC3C",
      torch_tensor_4_torch.float32_16: "0x040000002D23FA3B2D237A3C629ABB3C2D23FA3C",
      torch_tensor_12_4_torch.float32_3: "…",
      torch_tensor_12_torch.float32_3: "…",
      torch_tensor_4_4_torch.float32_3: "…",
      torch_tensor_4_torch.float32_17: "0x04000000D6B9F23BD6B9723C610BB63CD6B9F23C",
      torch_tensor_4_torch.float32_18: "0x04000000398EE33B398E633CABAAAA3C398EE33C",
      torch_tensor_4_torch.float32_19: "0x0400000078FCE13B78FC613C5A7DA93C78FCE13C",
      torch_tensor_12_4_torch.float32_4: "…",
      torch_tensor_12_torch.float32_4: "…",
      torch_tensor_4_4_torch.float32_4: "…",
      torch_tensor_4_torch.float32_20: "0x04000000B3BDEB3BB3BD6B3C46CEB03CB3BDEB3C",
      torch_tensor_4_torch.float32_21: "0x040000003870E03B3870603C2A54A83C3870E03C",
      torch_tensor_4_torch.float32_22: "0x040000005CE9DE3B5CE95E3C052FA73C5CE9DE3C",
      torch_tensor_8_4_torch.float32_2: "…",
      torch_tensor_8_torch.float32_2: "…",
      torch_tensor_4_8_torch.float32_2: "…",
      torch_tensor_4_torch.float32_23: "0x040000009825E53B9825653C32DCAB3C9825E53C",
      torch_tensor_4_torch.float32_24: "0x04000000C967DD3BC9675D3CD60DA63CC967DD3C",
      torch_tensor_4_torch.float32_25: "0x0400000062EBDB3B62EB5B3C89F0A43C62EBDB3C",
      torch_tensor_4_torch.float32_26: "0x040000000E74DA3B0E745A3C0AD7A33C0E74DA3C",
      torch_tensor_4_torch.float32_27: "0x04000000B201D93BB201593C46C1A23CB201D93C"
    }
  }
#-}

