// Generated by tests/generate_torch_transformer_fixtures.sh
// Source: tests/torch_transformer.py --mode mlir --encoder-layers 2 --decoder-layers 2
// Pipeline: torch-mlir-opt --torch-backend-to-linalg-on-tensors-backend-pipeline
#map = affine_map<(d0, d1) -> (d0, d1)>
#map1 = affine_map<(d0, d1) -> (d1)>
#map2 = affine_map<(d0, d1, d2, d3) -> (d0, d1, d2, d3)>
#map3 = affine_map<(d0, d1, d2, d3) -> (d0, d1, d2)>
#map4 = affine_map<(d0, d1, d2, d3) -> (d0, d1, d2, 0)>
#map5 = affine_map<(d0, d1, d2) -> (d0, d1, d2)>
#map6 = affine_map<(d0, d1, d2) -> (d0, d1, 0)>
#map7 = affine_map<(d0, d1, d2) -> (d2)>
#map8 = affine_map<(d0) -> (d0)>
#map9 = affine_map<(d0, d1) -> (d0, 0)>
#map10 = affine_map<(d0, d1) -> (0, d1)>
module {
  func.func @forward(%arg0: tensor<1x3x4xf32>, %arg1: tensor<1x3x4xf32>) -> tensor<1x3x4xf32> {
    %cst = arith.constant dense_resource<torch_tensor_12_4_torch.float32> : tensor<12x4xf32>
    %c4_i64 = arith.constant 4 : i64
    %c0_i64 = arith.constant 0 : i64
    %cst_0 = arith.constant 0.000000e+00 : f32
    %c12_i64 = arith.constant 12 : i64
    %cst_1 = arith.constant 0xFF800000 : f32
    %cst_2 = arith.constant 0.000000e+00 : f64
    %false = arith.constant false
    %cst_3 = arith.constant 1.000000e+00 : f32
    %cst_4 = arith.constant 5.000000e-01 : f32
    %c48_i64 = arith.constant 48 : i64
    %cst_5 = arith.constant 1.000000e-05 : f64
    %cst_6 = arith.constant 0xFFF0000000000000 : f64
    %cst_7 = arith.constant 0.8408964152537145 : f64
    %cst_8 = arith.constant 4.000000e+00 : f64
    %cst_9 = arith.constant 4.000000e+00 : f32
    %cst_10 = arith.constant 1.41421354 : f32
    %cst_11 = arith.constant dense_resource<torch_tensor_12_torch.float32> : tensor<12xf32>
    %cst_12 = arith.constant dense_resource<torch_tensor_4_4_torch.float32> : tensor<4x4xf32>
    %cst_13 = arith.constant dense_resource<torch_tensor_4_torch.float32> : tensor<4xf32>
    %cst_14 = arith.constant dense_resource<torch_tensor_4_torch.float32_1> : tensor<4xf32>
    %cst_15 = arith.constant dense_resource<torch_tensor_4_torch.float32_2> : tensor<4xf32>
    %cst_16 = arith.constant dense_resource<torch_tensor_8_4_torch.float32> : tensor<8x4xf32>
    %cst_17 = arith.constant dense_resource<torch_tensor_8_torch.float32> : tensor<8xf32>
    %cst_18 = arith.constant dense_resource<torch_tensor_4_8_torch.float32> : tensor<4x8xf32>
    %cst_19 = arith.constant dense_resource<torch_tensor_4_torch.float32_3> : tensor<4xf32>
    %cst_20 = arith.constant dense_resource<torch_tensor_4_torch.float32_4> : tensor<4xf32>
    %cst_21 = arith.constant dense_resource<torch_tensor_4_torch.float32_5> : tensor<4xf32>
    %cst_22 = arith.constant dense_resource<torch_tensor_12_4_torch.float32_1> : tensor<12x4xf32>
    %cst_23 = arith.constant dense_resource<torch_tensor_12_torch.float32_1> : tensor<12xf32>
    %cst_24 = arith.constant dense_resource<torch_tensor_4_4_torch.float32_1> : tensor<4x4xf32>
    %cst_25 = arith.constant dense_resource<torch_tensor_4_torch.float32_6> : tensor<4xf32>
    %cst_26 = arith.constant dense_resource<torch_tensor_4_torch.float32_7> : tensor<4xf32>
    %cst_27 = arith.constant dense_resource<torch_tensor_4_torch.float32_8> : tensor<4xf32>
    %cst_28 = arith.constant dense_resource<torch_tensor_8_4_torch.float32_1> : tensor<8x4xf32>
    %cst_29 = arith.constant dense_resource<torch_tensor_8_torch.float32_1> : tensor<8xf32>
    %cst_30 = arith.constant dense_resource<torch_tensor_4_8_torch.float32_1> : tensor<4x8xf32>
    %cst_31 = arith.constant dense_resource<torch_tensor_4_torch.float32_9> : tensor<4xf32>
    %cst_32 = arith.constant dense_resource<torch_tensor_4_torch.float32_10> : tensor<4xf32>
    %cst_33 = arith.constant dense_resource<torch_tensor_4_torch.float32_11> : tensor<4xf32>
    %cst_34 = arith.constant dense_resource<torch_tensor_4_torch.float32_12> : tensor<4xf32>
    %cst_35 = arith.constant dense_resource<torch_tensor_4_torch.float32_13> : tensor<4xf32>
    %cst_36 = arith.constant dense_resource<torch_tensor_12_4_torch.float32_2> : tensor<12x4xf32>
    %cst_37 = arith.constant dense_resource<torch_tensor_12_torch.float32_2> : tensor<12xf32>
    %cst_38 = arith.constant dense_resource<torch_tensor_4_4_torch.float32_2> : tensor<4x4xf32>
    %cst_39 = arith.constant dense_resource<torch_tensor_4_torch.float32_14> : tensor<4xf32>
    %cst_40 = arith.constant dense_resource<torch_tensor_4_torch.float32_15> : tensor<4xf32>
    %cst_41 = arith.constant dense_resource<torch_tensor_4_torch.float32_16> : tensor<4xf32>
    %cst_42 = arith.constant dense_resource<torch_tensor_12_4_torch.float32_3> : tensor<12x4xf32>
    %cst_43 = arith.constant dense_resource<torch_tensor_12_torch.float32_3> : tensor<12xf32>
    %cst_44 = arith.constant dense_resource<torch_tensor_4_4_torch.float32_3> : tensor<4x4xf32>
    %cst_45 = arith.constant dense_resource<torch_tensor_4_torch.float32_17> : tensor<4xf32>
    %cst_46 = arith.constant dense_resource<torch_tensor_4_torch.float32_18> : tensor<4xf32>
    %cst_47 = arith.constant dense_resource<torch_tensor_4_torch.float32_19> : tensor<4xf32>
    %cst_48 = arith.constant dense_resource<torch_tensor_8_4_torch.float32_2> : tensor<8x4xf32>
    %cst_49 = arith.constant dense_resource<torch_tensor_8_torch.float32_2> : tensor<8xf32>
    %cst_50 = arith.constant dense_resource<torch_tensor_4_8_torch.float32_2> : tensor<4x8xf32>
    %cst_51 = arith.constant dense_resource<torch_tensor_4_torch.float32_20> : tensor<4xf32>
    %cst_52 = arith.constant dense_resource<torch_tensor_4_torch.float32_21> : tensor<4xf32>
    %cst_53 = arith.constant dense_resource<torch_tensor_4_torch.float32_22> : tensor<4xf32>
    %cst_54 = arith.constant dense_resource<torch_tensor_12_4_torch.float32_4> : tensor<12x4xf32>
    %cst_55 = arith.constant dense_resource<torch_tensor_12_torch.float32_4> : tensor<12xf32>
    %cst_56 = arith.constant dense_resource<torch_tensor_4_4_torch.float32_4> : tensor<4x4xf32>
    %cst_57 = arith.constant dense_resource<torch_tensor_4_torch.float32_23> : tensor<4xf32>
    %cst_58 = arith.constant dense_resource<torch_tensor_4_torch.float32_24> : tensor<4xf32>
    %cst_59 = arith.constant dense_resource<torch_tensor_4_torch.float32_25> : tensor<4xf32>
    %cst_60 = arith.constant dense_resource<torch_tensor_12_4_torch.float32_5> : tensor<12x4xf32>
    %cst_61 = arith.constant dense_resource<torch_tensor_12_torch.float32_5> : tensor<12xf32>
    %cst_62 = arith.constant dense_resource<torch_tensor_4_4_torch.float32_5> : tensor<4x4xf32>
    %cst_63 = arith.constant dense_resource<torch_tensor_4_torch.float32_26> : tensor<4xf32>
    %cst_64 = arith.constant dense_resource<torch_tensor_4_torch.float32_27> : tensor<4xf32>
    %cst_65 = arith.constant dense_resource<torch_tensor_4_torch.float32_28> : tensor<4xf32>
    %cst_66 = arith.constant dense_resource<torch_tensor_8_4_torch.float32_3> : tensor<8x4xf32>
    %cst_67 = arith.constant dense_resource<torch_tensor_8_torch.float32_3> : tensor<8xf32>
    %cst_68 = arith.constant dense_resource<torch_tensor_4_8_torch.float32_3> : tensor<4x8xf32>
    %cst_69 = arith.constant dense_resource<torch_tensor_4_torch.float32_29> : tensor<4xf32>
    %cst_70 = arith.constant dense_resource<torch_tensor_4_torch.float32_30> : tensor<4xf32>
    %cst_71 = arith.constant dense_resource<torch_tensor_4_torch.float32_31> : tensor<4xf32>
    %cst_72 = arith.constant dense_resource<torch_tensor_4_torch.float32_32> : tensor<4xf32>
    %cst_73 = arith.constant dense_resource<torch_tensor_4_torch.float32_33> : tensor<4xf32>
    %cst_74 = arith.constant dense<0.000000e+00> : tensor<1x2x3x3xf32>
    %c16_i64 = arith.constant 16 : i64
    %0 = tensor.empty() : tensor<3x1x4xf32>
    %transposed = linalg.transpose ins(%arg0 : tensor<1x3x4xf32>) outs(%0 : tensor<3x1x4xf32>) permutation = [1, 0, 2] 
    %collapsed = tensor.collapse_shape %transposed [[0], [1, 2]] : tensor<3x1x4xf32> into tensor<3x4xf32>
    %1 = tensor.empty() : tensor<4x12xf32>
    %transposed_75 = linalg.transpose ins(%cst : tensor<12x4xf32>) outs(%1 : tensor<4x12xf32>) permutation = [1, 0] 
    %2 = tensor.empty() : tensor<3x12xf32>
    %3 = linalg.fill ins(%cst_0 : f32) outs(%2 : tensor<3x12xf32>) -> tensor<3x12xf32>
    %4 = linalg.matmul ins(%collapsed, %transposed_75 : tensor<3x4xf32>, tensor<4x12xf32>) outs(%3 : tensor<3x12xf32>) -> tensor<3x12xf32>
    %5 = linalg.generic {indexing_maps = [#map, #map1, #map], iterator_types = ["parallel", "parallel"]} ins(%4, %cst_11 : tensor<3x12xf32>, tensor<12xf32>) outs(%2 : tensor<3x12xf32>) {
    ^bb0(%in: f32, %in_298: f32, %out: f32):
      %398 = arith.addf %in, %in_298 : f32
      linalg.yield %398 : f32
    } -> tensor<3x12xf32>
    %expanded = tensor.expand_shape %5 [[0, 1], [2, 3, 4]] output_shape [1, 3, 1, 3, 4] : tensor<3x12xf32> into tensor<1x3x1x3x4xf32>
    %6 = tensor.empty() : tensor<3x3x1x1x4xf32>
    %transposed_76 = linalg.transpose ins(%expanded : tensor<1x3x1x3x4xf32>) outs(%6 : tensor<3x3x1x1x4xf32>) permutation = [3, 1, 2, 0, 4] 
    %collapsed_77 = tensor.collapse_shape %transposed_76 [[0], [1], [2, 3], [4]] : tensor<3x3x1x1x4xf32> into tensor<3x3x1x4xf32>
    %extracted_slice = tensor.extract_slice %collapsed_77[0, 0, 0, 0] [1, 3, 1, 4] [1, 1, 1, 1] : tensor<3x3x1x4xf32> to tensor<1x3x1x4xf32>
    %extracted_slice_78 = tensor.extract_slice %collapsed_77[1, 0, 0, 0] [1, 3, 1, 4] [1, 1, 1, 1] : tensor<3x3x1x4xf32> to tensor<1x3x1x4xf32>
    %extracted_slice_79 = tensor.extract_slice %collapsed_77[2, 0, 0, 0] [1, 3, 1, 4] [1, 1, 1, 1] : tensor<3x3x1x4xf32> to tensor<1x3x1x4xf32>
    %collapsed_80 = tensor.collapse_shape %extracted_slice [[0, 1], [2, 3]] : tensor<1x3x1x4xf32> into tensor<3x4xf32>
    %expanded_81 = tensor.expand_shape %collapsed_80 [[0], [1, 2]] output_shape [3, 2, 2] : tensor<3x4xf32> into tensor<3x2x2xf32>
    %7 = tensor.empty() : tensor<2x3x2xf32>
    %transposed_82 = linalg.transpose ins(%expanded_81 : tensor<3x2x2xf32>) outs(%7 : tensor<2x3x2xf32>) permutation = [1, 0, 2] 
    %collapsed_83 = tensor.collapse_shape %extracted_slice_78 [[0, 1], [2, 3]] : tensor<1x3x1x4xf32> into tensor<3x4xf32>
    %expanded_84 = tensor.expand_shape %collapsed_83 [[0], [1, 2]] output_shape [3, 2, 2] : tensor<3x4xf32> into tensor<3x2x2xf32>
    %transposed_85 = linalg.transpose ins(%expanded_84 : tensor<3x2x2xf32>) outs(%7 : tensor<2x3x2xf32>) permutation = [1, 0, 2] 
    %collapsed_86 = tensor.collapse_shape %extracted_slice_79 [[0, 1], [2, 3]] : tensor<1x3x1x4xf32> into tensor<3x4xf32>
    %expanded_87 = tensor.expand_shape %collapsed_86 [[0], [1, 2]] output_shape [3, 2, 2] : tensor<3x4xf32> into tensor<3x2x2xf32>
    %transposed_88 = linalg.transpose ins(%expanded_87 : tensor<3x2x2xf32>) outs(%7 : tensor<2x3x2xf32>) permutation = [1, 0, 2] 
    %expanded_89 = tensor.expand_shape %transposed_82 [[0, 1], [2], [3]] output_shape [1, 2, 3, 2] : tensor<2x3x2xf32> into tensor<1x2x3x2xf32>
    %expanded_90 = tensor.expand_shape %transposed_85 [[0, 1], [2], [3]] output_shape [1, 2, 3, 2] : tensor<2x3x2xf32> into tensor<1x2x3x2xf32>
    %8 = tensor.empty() : tensor<1x2x3x2xf32>
    %9 = linalg.generic {indexing_maps = [#map2, #map2], iterator_types = ["parallel", "parallel", "parallel", "parallel"]} ins(%expanded_89 : tensor<1x2x3x2xf32>) outs(%8 : tensor<1x2x3x2xf32>) {
    ^bb0(%in: f32, %out: f32):
      %398 = arith.truncf %cst_7 : f64 to f32
      %399 = arith.mulf %in, %398 : f32
      linalg.yield %399 : f32
    } -> tensor<1x2x3x2xf32>
    %10 = tensor.empty() : tensor<1x2x2x3xf32>
    %transposed_91 = linalg.transpose ins(%expanded_90 : tensor<1x2x3x2xf32>) outs(%10 : tensor<1x2x2x3xf32>) permutation = [0, 1, 3, 2] 
    %11 = linalg.generic {indexing_maps = [#map2, #map2], iterator_types = ["parallel", "parallel", "parallel", "parallel"]} ins(%transposed_91 : tensor<1x2x2x3xf32>) outs(%10 : tensor<1x2x2x3xf32>) {
    ^bb0(%in: f32, %out: f32):
      %398 = arith.truncf %cst_7 : f64 to f32
      %399 = arith.mulf %in, %398 : f32
      linalg.yield %399 : f32
    } -> tensor<1x2x2x3xf32>
    %collapsed_92 = tensor.collapse_shape %9 [[0, 1], [2], [3]] : tensor<1x2x3x2xf32> into tensor<2x3x2xf32>
    %collapsed_93 = tensor.collapse_shape %11 [[0, 1], [2], [3]] : tensor<1x2x2x3xf32> into tensor<2x2x3xf32>
    %12 = tensor.empty() : tensor<2x3x3xf32>
    %13 = linalg.fill ins(%cst_0 : f32) outs(%12 : tensor<2x3x3xf32>) -> tensor<2x3x3xf32>
    %14 = linalg.batch_matmul ins(%collapsed_92, %collapsed_93 : tensor<2x3x2xf32>, tensor<2x2x3xf32>) outs(%13 : tensor<2x3x3xf32>) -> tensor<2x3x3xf32>
    %expanded_94 = tensor.expand_shape %14 [[0, 1], [2], [3]] output_shape [1, 2, 3, 3] : tensor<2x3x3xf32> into tensor<1x2x3x3xf32>
    %15 = tensor.empty() : tensor<1x2x3xi64>
    %16 = linalg.fill ins(%c0_i64 : i64) outs(%15 : tensor<1x2x3xi64>) -> tensor<1x2x3xi64>
    %17 = tensor.empty() : tensor<1x2x3xf32>
    %18 = linalg.fill ins(%cst_1 : f32) outs(%17 : tensor<1x2x3xf32>) -> tensor<1x2x3xf32>
    %19:2 = linalg.generic {indexing_maps = [#map2, #map3, #map3], iterator_types = ["parallel", "parallel", "parallel", "reduction"]} ins(%expanded_94 : tensor<1x2x3x3xf32>) outs(%18, %16 : tensor<1x2x3xf32>, tensor<1x2x3xi64>) {
    ^bb0(%in: f32, %out: f32, %out_298: i64):
      %398 = linalg.index 3 : index
      %399 = arith.index_cast %398 : index to i64
      %400 = arith.maximumf %in, %out : f32
      %401 = arith.cmpf ogt, %in, %out : f32
      %402 = arith.select %401, %399, %out_298 : i64
      linalg.yield %400, %402 : f32, i64
    } -> (tensor<1x2x3xf32>, tensor<1x2x3xi64>)
    %expanded_95 = tensor.expand_shape %19#0 [[0], [1], [2, 3]] output_shape [1, 2, 3, 1] : tensor<1x2x3xf32> into tensor<1x2x3x1xf32>
    %20 = tensor.empty() : tensor<1x2x3x3xf32>
    %21 = linalg.generic {indexing_maps = [#map2, #map4, #map2], iterator_types = ["parallel", "parallel", "parallel", "parallel"]} ins(%expanded_94, %expanded_95 : tensor<1x2x3x3xf32>, tensor<1x2x3x1xf32>) outs(%20 : tensor<1x2x3x3xf32>) {
    ^bb0(%in: f32, %in_298: f32, %out: f32):
      %398 = arith.subf %in, %in_298 : f32
      linalg.yield %398 : f32
    } -> tensor<1x2x3x3xf32>
    %22 = linalg.generic {indexing_maps = [#map2, #map2], iterator_types = ["parallel", "parallel", "parallel", "parallel"]} ins(%21 : tensor<1x2x3x3xf32>) outs(%20 : tensor<1x2x3x3xf32>) {
    ^bb0(%in: f32, %out: f32):
      %398 = math.exp %in : f32
      linalg.yield %398 : f32
    } -> tensor<1x2x3x3xf32>
    %23 = tensor.empty() : tensor<1x2x3x1xf32>
    %24 = linalg.fill ins(%cst_0 : f32) outs(%23 : tensor<1x2x3x1xf32>) -> tensor<1x2x3x1xf32>
    %25 = linalg.generic {indexing_maps = [#map2, #map4], iterator_types = ["parallel", "parallel", "parallel", "reduction"]} ins(%22 : tensor<1x2x3x3xf32>) outs(%24 : tensor<1x2x3x1xf32>) {
    ^bb0(%in: f32, %out: f32):
      %398 = arith.addf %in, %out : f32
      linalg.yield %398 : f32
    } -> tensor<1x2x3x1xf32>
    %26 = linalg.generic {indexing_maps = [#map2, #map4, #map2], iterator_types = ["parallel", "parallel", "parallel", "parallel"]} ins(%22, %25 : tensor<1x2x3x3xf32>, tensor<1x2x3x1xf32>) outs(%20 : tensor<1x2x3x3xf32>) {
    ^bb0(%in: f32, %in_298: f32, %out: f32):
      %398 = arith.divf %in, %in_298 : f32
      linalg.yield %398 : f32
    } -> tensor<1x2x3x3xf32>
    %27 = tensor.empty() : tensor<1x2x3x3xi1>
    %28 = linalg.generic {indexing_maps = [#map2, #map2], iterator_types = ["parallel", "parallel", "parallel", "parallel"]} ins(%expanded_94 : tensor<1x2x3x3xf32>) outs(%27 : tensor<1x2x3x3xi1>) {
    ^bb0(%in: f32, %out: i1):
      %398 = arith.extf %in : f32 to f64
      %399 = arith.cmpf oeq, %398, %cst_6 : f64
      linalg.yield %399 : i1
    } -> tensor<1x2x3x3xi1>
    %29 = linalg.generic {indexing_maps = [#map2, #map2], iterator_types = ["parallel", "parallel", "parallel", "parallel"]} ins(%28 : tensor<1x2x3x3xi1>) outs(%27 : tensor<1x2x3x3xi1>) {
    ^bb0(%in: i1, %out: i1):
      %398 = arith.cmpi eq, %in, %false : i1
      linalg.yield %398 : i1
    } -> tensor<1x2x3x3xi1>
    %30 = tensor.empty() : tensor<1x2x3x1xi1>
    %31 = linalg.fill ins(%false : i1) outs(%30 : tensor<1x2x3x1xi1>) -> tensor<1x2x3x1xi1>
    %32 = linalg.generic {indexing_maps = [#map2, #map4], iterator_types = ["parallel", "parallel", "parallel", "reduction"]} ins(%29 : tensor<1x2x3x3xi1>) outs(%31 : tensor<1x2x3x1xi1>) {
    ^bb0(%in: i1, %out: i1):
      %398 = arith.ori %in, %out : i1
      linalg.yield %398 : i1
    } -> tensor<1x2x3x1xi1>
    %33 = linalg.generic {indexing_maps = [#map2, #map2], iterator_types = ["parallel", "parallel", "parallel", "parallel"]} ins(%32 : tensor<1x2x3x1xi1>) outs(%30 : tensor<1x2x3x1xi1>) {
    ^bb0(%in: i1, %out: i1):
      %398 = arith.cmpi eq, %in, %false : i1
      linalg.yield %398 : i1
    } -> tensor<1x2x3x1xi1>
    %34 = linalg.generic {indexing_maps = [#map4, #map2, #map2, #map2], iterator_types = ["parallel", "parallel", "parallel", "parallel"]} ins(%33, %cst_74, %26 : tensor<1x2x3x1xi1>, tensor<1x2x3x3xf32>, tensor<1x2x3x3xf32>) outs(%20 : tensor<1x2x3x3xf32>) {
    ^bb0(%in: i1, %in_298: f32, %in_299: f32, %out: f32):
      %398 = arith.select %in, %in_298, %in_299 : f32
      linalg.yield %398 : f32
    } -> tensor<1x2x3x3xf32>
    %collapsed_96 = tensor.collapse_shape %34 [[0, 1], [2], [3]] : tensor<1x2x3x3xf32> into tensor<2x3x3xf32>
    %35 = linalg.fill ins(%cst_0 : f32) outs(%7 : tensor<2x3x2xf32>) -> tensor<2x3x2xf32>
    %36 = linalg.batch_matmul ins(%collapsed_96, %transposed_88 : tensor<2x3x3xf32>, tensor<2x3x2xf32>) outs(%35 : tensor<2x3x2xf32>) -> tensor<2x3x2xf32>
    %expanded_97 = tensor.expand_shape %36 [[0, 1], [2], [3]] output_shape [1, 2, 3, 2] : tensor<2x3x2xf32> into tensor<1x2x3x2xf32>
    %37 = tensor.empty() : tensor<3x1x2x2xf32>
    %transposed_98 = linalg.transpose ins(%expanded_97 : tensor<1x2x3x2xf32>) outs(%37 : tensor<3x1x2x2xf32>) permutation = [2, 0, 1, 3] 
    %collapsed_99 = tensor.collapse_shape %transposed_98 [[0], [1, 2, 3]] : tensor<3x1x2x2xf32> into tensor<3x4xf32>
    %38 = tensor.empty() : tensor<4x4xf32>
    %transposed_100 = linalg.transpose ins(%cst_12 : tensor<4x4xf32>) outs(%38 : tensor<4x4xf32>) permutation = [1, 0] 
    %39 = tensor.empty() : tensor<3x4xf32>
    %40 = linalg.fill ins(%cst_0 : f32) outs(%39 : tensor<3x4xf32>) -> tensor<3x4xf32>
    %41 = linalg.matmul ins(%collapsed_99, %transposed_100 : tensor<3x4xf32>, tensor<4x4xf32>) outs(%40 : tensor<3x4xf32>) -> tensor<3x4xf32>
    %42 = linalg.generic {indexing_maps = [#map, #map1, #map], iterator_types = ["parallel", "parallel"]} ins(%41, %cst_13 : tensor<3x4xf32>, tensor<4xf32>) outs(%39 : tensor<3x4xf32>) {
    ^bb0(%in: f32, %in_298: f32, %out: f32):
      %398 = arith.addf %in, %in_298 : f32
      linalg.yield %398 : f32
    } -> tensor<3x4xf32>
    %expanded_101 = tensor.expand_shape %42 [[0], [1, 2]] output_shape [3, 1, 4] : tensor<3x4xf32> into tensor<3x1x4xf32>
    %43 = tensor.empty() : tensor<1x3x4xf32>
    %transposed_102 = linalg.transpose ins(%expanded_101 : tensor<3x1x4xf32>) outs(%43 : tensor<1x3x4xf32>) permutation = [1, 0, 2] 
    %44 = linalg.generic {indexing_maps = [#map5, #map5, #map5], iterator_types = ["parallel", "parallel", "parallel"]} ins(%arg0, %transposed_102 : tensor<1x3x4xf32>, tensor<1x3x4xf32>) outs(%43 : tensor<1x3x4xf32>) {
    ^bb0(%in: f32, %in_298: f32, %out: f32):
      %398 = arith.addf %in, %in_298 : f32
      linalg.yield %398 : f32
    } -> tensor<1x3x4xf32>
    %45 = tensor.empty() : tensor<1x3x4xf64>
    %46 = linalg.generic {indexing_maps = [#map5, #map5], iterator_types = ["parallel", "parallel", "parallel"]} ins(%44 : tensor<1x3x4xf32>) outs(%45 : tensor<1x3x4xf64>) {
    ^bb0(%in: f32, %out: f64):
      %398 = arith.extf %in : f32 to f64
      linalg.yield %398 : f64
    } -> tensor<1x3x4xf64>
    %47 = tensor.empty() : tensor<1x3x1xf64>
    %48 = linalg.fill ins(%cst_2 : f64) outs(%47 : tensor<1x3x1xf64>) -> tensor<1x3x1xf64>
    %49 = linalg.generic {indexing_maps = [#map5, #map6], iterator_types = ["parallel", "parallel", "reduction"]} ins(%46 : tensor<1x3x4xf64>) outs(%48 : tensor<1x3x1xf64>) {
    ^bb0(%in: f64, %out: f64):
      %398 = arith.addf %in, %out : f64
      linalg.yield %398 : f64
    } -> tensor<1x3x1xf64>
    %50 = linalg.generic {indexing_maps = [#map5, #map5], iterator_types = ["parallel", "parallel", "parallel"]} ins(%49 : tensor<1x3x1xf64>) outs(%47 : tensor<1x3x1xf64>) {
    ^bb0(%in: f64, %out: f64):
      %398 = arith.divf %in, %cst_8 : f64
      linalg.yield %398 : f64
    } -> tensor<1x3x1xf64>
    %51 = linalg.generic {indexing_maps = [#map5, #map6, #map5], iterator_types = ["parallel", "parallel", "parallel"]} ins(%46, %50 : tensor<1x3x4xf64>, tensor<1x3x1xf64>) outs(%45 : tensor<1x3x4xf64>) {
    ^bb0(%in: f64, %in_298: f64, %out: f64):
      %398 = arith.subf %in, %in_298 : f64
      linalg.yield %398 : f64
    } -> tensor<1x3x4xf64>
    %52 = linalg.generic {indexing_maps = [#map5, #map5, #map5], iterator_types = ["parallel", "parallel", "parallel"]} ins(%51, %51 : tensor<1x3x4xf64>, tensor<1x3x4xf64>) outs(%45 : tensor<1x3x4xf64>) {
    ^bb0(%in: f64, %in_298: f64, %out: f64):
      %398 = arith.mulf %in, %in_298 : f64
      linalg.yield %398 : f64
    } -> tensor<1x3x4xf64>
    %53 = linalg.generic {indexing_maps = [#map5, #map6], iterator_types = ["parallel", "parallel", "reduction"]} ins(%52 : tensor<1x3x4xf64>) outs(%48 : tensor<1x3x1xf64>) {
    ^bb0(%in: f64, %out: f64):
      %398 = arith.addf %in, %out : f64
      linalg.yield %398 : f64
    } -> tensor<1x3x1xf64>
    %54 = linalg.generic {indexing_maps = [#map5, #map5], iterator_types = ["parallel", "parallel", "parallel"]} ins(%53 : tensor<1x3x1xf64>) outs(%47 : tensor<1x3x1xf64>) {
    ^bb0(%in: f64, %out: f64):
      %398 = arith.divf %in, %cst_8 : f64
      linalg.yield %398 : f64
    } -> tensor<1x3x1xf64>
    %55 = tensor.empty() : tensor<1x3x1xf32>
    %56 = linalg.generic {indexing_maps = [#map5, #map5], iterator_types = ["parallel", "parallel", "parallel"]} ins(%54 : tensor<1x3x1xf64>) outs(%55 : tensor<1x3x1xf32>) {
    ^bb0(%in: f64, %out: f32):
      %398 = arith.truncf %in : f64 to f32
      linalg.yield %398 : f32
    } -> tensor<1x3x1xf32>
    %57 = linalg.fill ins(%cst_0 : f32) outs(%55 : tensor<1x3x1xf32>) -> tensor<1x3x1xf32>
    %58 = linalg.generic {indexing_maps = [#map5, #map6], iterator_types = ["parallel", "parallel", "reduction"]} ins(%44 : tensor<1x3x4xf32>) outs(%57 : tensor<1x3x1xf32>) {
    ^bb0(%in: f32, %out: f32):
      %398 = arith.addf %in, %out : f32
      linalg.yield %398 : f32
    } -> tensor<1x3x1xf32>
    %59 = linalg.generic {indexing_maps = [#map5, #map5], iterator_types = ["parallel", "parallel", "parallel"]} ins(%58 : tensor<1x3x1xf32>) outs(%55 : tensor<1x3x1xf32>) {
    ^bb0(%in: f32, %out: f32):
      %398 = arith.divf %in, %cst_9 : f32
      linalg.yield %398 : f32
    } -> tensor<1x3x1xf32>
    %60 = linalg.generic {indexing_maps = [#map5, #map5], iterator_types = ["parallel", "parallel", "parallel"]} ins(%56 : tensor<1x3x1xf32>) outs(%55 : tensor<1x3x1xf32>) {
    ^bb0(%in: f32, %out: f32):
      %398 = arith.truncf %cst_5 : f64 to f32
      %399 = arith.addf %in, %398 : f32
      linalg.yield %399 : f32
    } -> tensor<1x3x1xf32>
    %61 = linalg.generic {indexing_maps = [#map5, #map5], iterator_types = ["parallel", "parallel", "parallel"]} ins(%60 : tensor<1x3x1xf32>) outs(%55 : tensor<1x3x1xf32>) {
    ^bb0(%in: f32, %out: f32):
      %398 = math.rsqrt %in : f32
      linalg.yield %398 : f32
    } -> tensor<1x3x1xf32>
    %62 = linalg.generic {indexing_maps = [#map5, #map6, #map5], iterator_types = ["parallel", "parallel", "parallel"]} ins(%44, %59 : tensor<1x3x4xf32>, tensor<1x3x1xf32>) outs(%43 : tensor<1x3x4xf32>) {
    ^bb0(%in: f32, %in_298: f32, %out: f32):
      %398 = arith.subf %in, %in_298 : f32
      linalg.yield %398 : f32
    } -> tensor<1x3x4xf32>
    %63 = linalg.generic {indexing_maps = [#map5, #map6, #map5], iterator_types = ["parallel", "parallel", "parallel"]} ins(%62, %61 : tensor<1x3x4xf32>, tensor<1x3x1xf32>) outs(%43 : tensor<1x3x4xf32>) {
    ^bb0(%in: f32, %in_298: f32, %out: f32):
      %398 = arith.mulf %in, %in_298 : f32
      linalg.yield %398 : f32
    } -> tensor<1x3x4xf32>
    %64 = linalg.generic {indexing_maps = [#map5, #map7, #map5], iterator_types = ["parallel", "parallel", "parallel"]} ins(%63, %cst_14 : tensor<1x3x4xf32>, tensor<4xf32>) outs(%43 : tensor<1x3x4xf32>) {
    ^bb0(%in: f32, %in_298: f32, %out: f32):
      %398 = arith.mulf %in, %in_298 : f32
      linalg.yield %398 : f32
    } -> tensor<1x3x4xf32>
    %65 = linalg.generic {indexing_maps = [#map5, #map7, #map5], iterator_types = ["parallel", "parallel", "parallel"]} ins(%64, %cst_15 : tensor<1x3x4xf32>, tensor<4xf32>) outs(%43 : tensor<1x3x4xf32>) {
    ^bb0(%in: f32, %in_298: f32, %out: f32):
      %398 = arith.addf %in, %in_298 : f32
      linalg.yield %398 : f32
    } -> tensor<1x3x4xf32>
    %collapsed_103 = tensor.collapse_shape %65 [[0, 1], [2]] : tensor<1x3x4xf32> into tensor<3x4xf32>
    %66 = tensor.empty() : tensor<4x8xf32>
    %transposed_104 = linalg.transpose ins(%cst_16 : tensor<8x4xf32>) outs(%66 : tensor<4x8xf32>) permutation = [1, 0] 
    %67 = tensor.empty() : tensor<3x8xf32>
    %68 = linalg.fill ins(%cst_0 : f32) outs(%67 : tensor<3x8xf32>) -> tensor<3x8xf32>
    %69 = linalg.matmul ins(%collapsed_103, %transposed_104 : tensor<3x4xf32>, tensor<4x8xf32>) outs(%68 : tensor<3x8xf32>) -> tensor<3x8xf32>
    %70 = linalg.generic {indexing_maps = [#map, #map1, #map], iterator_types = ["parallel", "parallel"]} ins(%69, %cst_17 : tensor<3x8xf32>, tensor<8xf32>) outs(%67 : tensor<3x8xf32>) {
    ^bb0(%in: f32, %in_298: f32, %out: f32):
      %398 = arith.addf %in, %in_298 : f32
      linalg.yield %398 : f32
    } -> tensor<3x8xf32>
    %expanded_105 = tensor.expand_shape %70 [[0, 1], [2]] output_shape [1, 3, 8] : tensor<3x8xf32> into tensor<1x3x8xf32>
    %71 = tensor.empty() : tensor<1x3x8xf32>
    %72 = linalg.generic {indexing_maps = [#map5, #map5], iterator_types = ["parallel", "parallel", "parallel"]} ins(%expanded_105 : tensor<1x3x8xf32>) outs(%71 : tensor<1x3x8xf32>) {
    ^bb0(%in: f32, %out: f32):
      %398 = arith.divf %in, %cst_10 : f32
      %399 = math.erf %398 : f32
      %400 = arith.addf %399, %cst_3 : f32
      %401 = arith.mulf %400, %cst_4 : f32
      %402 = arith.mulf %in, %401 : f32
      linalg.yield %402 : f32
    } -> tensor<1x3x8xf32>
    %collapsed_106 = tensor.collapse_shape %72 [[0, 1], [2]] : tensor<1x3x8xf32> into tensor<3x8xf32>
    %73 = tensor.empty() : tensor<8x4xf32>
    %transposed_107 = linalg.transpose ins(%cst_18 : tensor<4x8xf32>) outs(%73 : tensor<8x4xf32>) permutation = [1, 0] 
    %74 = linalg.matmul ins(%collapsed_106, %transposed_107 : tensor<3x8xf32>, tensor<8x4xf32>) outs(%40 : tensor<3x4xf32>) -> tensor<3x4xf32>
    %75 = linalg.generic {indexing_maps = [#map, #map1, #map], iterator_types = ["parallel", "parallel"]} ins(%74, %cst_19 : tensor<3x4xf32>, tensor<4xf32>) outs(%39 : tensor<3x4xf32>) {
    ^bb0(%in: f32, %in_298: f32, %out: f32):
      %398 = arith.addf %in, %in_298 : f32
      linalg.yield %398 : f32
    } -> tensor<3x4xf32>
    %expanded_108 = tensor.expand_shape %75 [[0, 1], [2]] output_shape [1, 3, 4] : tensor<3x4xf32> into tensor<1x3x4xf32>
    %76 = linalg.generic {indexing_maps = [#map5, #map5, #map5], iterator_types = ["parallel", "parallel", "parallel"]} ins(%65, %expanded_108 : tensor<1x3x4xf32>, tensor<1x3x4xf32>) outs(%43 : tensor<1x3x4xf32>) {
    ^bb0(%in: f32, %in_298: f32, %out: f32):
      %398 = arith.addf %in, %in_298 : f32
      linalg.yield %398 : f32
    } -> tensor<1x3x4xf32>
    %77 = linalg.generic {indexing_maps = [#map5, #map5], iterator_types = ["parallel", "parallel", "parallel"]} ins(%76 : tensor<1x3x4xf32>) outs(%45 : tensor<1x3x4xf64>) {
    ^bb0(%in: f32, %out: f64):
      %398 = arith.extf %in : f32 to f64
      linalg.yield %398 : f64
    } -> tensor<1x3x4xf64>
    %78 = linalg.generic {indexing_maps = [#map5, #map6], iterator_types = ["parallel", "parallel", "reduction"]} ins(%77 : tensor<1x3x4xf64>) outs(%48 : tensor<1x3x1xf64>) {
    ^bb0(%in: f64, %out: f64):
      %398 = arith.addf %in, %out : f64
      linalg.yield %398 : f64
    } -> tensor<1x3x1xf64>
    %79 = linalg.generic {indexing_maps = [#map5, #map5], iterator_types = ["parallel", "parallel", "parallel"]} ins(%78 : tensor<1x3x1xf64>) outs(%47 : tensor<1x3x1xf64>) {
    ^bb0(%in: f64, %out: f64):
      %398 = arith.divf %in, %cst_8 : f64
      linalg.yield %398 : f64
    } -> tensor<1x3x1xf64>
    %80 = linalg.generic {indexing_maps = [#map5, #map6, #map5], iterator_types = ["parallel", "parallel", "parallel"]} ins(%77, %79 : tensor<1x3x4xf64>, tensor<1x3x1xf64>) outs(%45 : tensor<1x3x4xf64>) {
    ^bb0(%in: f64, %in_298: f64, %out: f64):
      %398 = arith.subf %in, %in_298 : f64
      linalg.yield %398 : f64
    } -> tensor<1x3x4xf64>
    %81 = linalg.generic {indexing_maps = [#map5, #map5, #map5], iterator_types = ["parallel", "parallel", "parallel"]} ins(%80, %80 : tensor<1x3x4xf64>, tensor<1x3x4xf64>) outs(%45 : tensor<1x3x4xf64>) {
    ^bb0(%in: f64, %in_298: f64, %out: f64):
      %398 = arith.mulf %in, %in_298 : f64
      linalg.yield %398 : f64
    } -> tensor<1x3x4xf64>
    %82 = linalg.generic {indexing_maps = [#map5, #map6], iterator_types = ["parallel", "parallel", "reduction"]} ins(%81 : tensor<1x3x4xf64>) outs(%48 : tensor<1x3x1xf64>) {
    ^bb0(%in: f64, %out: f64):
      %398 = arith.addf %in, %out : f64
      linalg.yield %398 : f64
    } -> tensor<1x3x1xf64>
    %83 = linalg.generic {indexing_maps = [#map5, #map5], iterator_types = ["parallel", "parallel", "parallel"]} ins(%82 : tensor<1x3x1xf64>) outs(%47 : tensor<1x3x1xf64>) {
    ^bb0(%in: f64, %out: f64):
      %398 = arith.divf %in, %cst_8 : f64
      linalg.yield %398 : f64
    } -> tensor<1x3x1xf64>
    %84 = linalg.generic {indexing_maps = [#map5, #map5], iterator_types = ["parallel", "parallel", "parallel"]} ins(%83 : tensor<1x3x1xf64>) outs(%55 : tensor<1x3x1xf32>) {
    ^bb0(%in: f64, %out: f32):
      %398 = arith.truncf %in : f64 to f32
      linalg.yield %398 : f32
    } -> tensor<1x3x1xf32>
    %85 = linalg.generic {indexing_maps = [#map5, #map6], iterator_types = ["parallel", "parallel", "reduction"]} ins(%76 : tensor<1x3x4xf32>) outs(%57 : tensor<1x3x1xf32>) {
    ^bb0(%in: f32, %out: f32):
      %398 = arith.addf %in, %out : f32
      linalg.yield %398 : f32
    } -> tensor<1x3x1xf32>
    %86 = linalg.generic {indexing_maps = [#map5, #map5], iterator_types = ["parallel", "parallel", "parallel"]} ins(%85 : tensor<1x3x1xf32>) outs(%55 : tensor<1x3x1xf32>) {
    ^bb0(%in: f32, %out: f32):
      %398 = arith.divf %in, %cst_9 : f32
      linalg.yield %398 : f32
    } -> tensor<1x3x1xf32>
    %87 = linalg.generic {indexing_maps = [#map5, #map5], iterator_types = ["parallel", "parallel", "parallel"]} ins(%84 : tensor<1x3x1xf32>) outs(%55 : tensor<1x3x1xf32>) {
    ^bb0(%in: f32, %out: f32):
      %398 = arith.truncf %cst_5 : f64 to f32
      %399 = arith.addf %in, %398 : f32
      linalg.yield %399 : f32
    } -> tensor<1x3x1xf32>
    %88 = linalg.generic {indexing_maps = [#map5, #map5], iterator_types = ["parallel", "parallel", "parallel"]} ins(%87 : tensor<1x3x1xf32>) outs(%55 : tensor<1x3x1xf32>) {
    ^bb0(%in: f32, %out: f32):
      %398 = math.rsqrt %in : f32
      linalg.yield %398 : f32
    } -> tensor<1x3x1xf32>
    %89 = linalg.generic {indexing_maps = [#map5, #map6, #map5], iterator_types = ["parallel", "parallel", "parallel"]} ins(%76, %86 : tensor<1x3x4xf32>, tensor<1x3x1xf32>) outs(%43 : tensor<1x3x4xf32>) {
    ^bb0(%in: f32, %in_298: f32, %out: f32):
      %398 = arith.subf %in, %in_298 : f32
      linalg.yield %398 : f32
    } -> tensor<1x3x4xf32>
    %90 = linalg.generic {indexing_maps = [#map5, #map6, #map5], iterator_types = ["parallel", "parallel", "parallel"]} ins(%89, %88 : tensor<1x3x4xf32>, tensor<1x3x1xf32>) outs(%43 : tensor<1x3x4xf32>) {
    ^bb0(%in: f32, %in_298: f32, %out: f32):
      %398 = arith.mulf %in, %in_298 : f32
      linalg.yield %398 : f32
    } -> tensor<1x3x4xf32>
    %91 = linalg.generic {indexing_maps = [#map5, #map7, #map5], iterator_types = ["parallel", "parallel", "parallel"]} ins(%90, %cst_20 : tensor<1x3x4xf32>, tensor<4xf32>) outs(%43 : tensor<1x3x4xf32>) {
    ^bb0(%in: f32, %in_298: f32, %out: f32):
      %398 = arith.mulf %in, %in_298 : f32
      linalg.yield %398 : f32
    } -> tensor<1x3x4xf32>
    %92 = linalg.generic {indexing_maps = [#map5, #map7, #map5], iterator_types = ["parallel", "parallel", "parallel"]} ins(%91, %cst_21 : tensor<1x3x4xf32>, tensor<4xf32>) outs(%43 : tensor<1x3x4xf32>) {
    ^bb0(%in: f32, %in_298: f32, %out: f32):
      %398 = arith.addf %in, %in_298 : f32
      linalg.yield %398 : f32
    } -> tensor<1x3x4xf32>
    %transposed_109 = linalg.transpose ins(%92 : tensor<1x3x4xf32>) outs(%0 : tensor<3x1x4xf32>) permutation = [1, 0, 2] 
    %collapsed_110 = tensor.collapse_shape %transposed_109 [[0], [1, 2]] : tensor<3x1x4xf32> into tensor<3x4xf32>
    %transposed_111 = linalg.transpose ins(%cst_22 : tensor<12x4xf32>) outs(%1 : tensor<4x12xf32>) permutation = [1, 0] 
    %93 = linalg.matmul ins(%collapsed_110, %transposed_111 : tensor<3x4xf32>, tensor<4x12xf32>) outs(%3 : tensor<3x12xf32>) -> tensor<3x12xf32>
    %94 = linalg.generic {indexing_maps = [#map, #map1, #map], iterator_types = ["parallel", "parallel"]} ins(%93, %cst_23 : tensor<3x12xf32>, tensor<12xf32>) outs(%2 : tensor<3x12xf32>) {
    ^bb0(%in: f32, %in_298: f32, %out: f32):
      %398 = arith.addf %in, %in_298 : f32
      linalg.yield %398 : f32
    } -> tensor<3x12xf32>
    %expanded_112 = tensor.expand_shape %94 [[0, 1], [2, 3, 4]] output_shape [1, 3, 1, 3, 4] : tensor<3x12xf32> into tensor<1x3x1x3x4xf32>
    %transposed_113 = linalg.transpose ins(%expanded_112 : tensor<1x3x1x3x4xf32>) outs(%6 : tensor<3x3x1x1x4xf32>) permutation = [3, 1, 2, 0, 4] 
    %collapsed_114 = tensor.collapse_shape %transposed_113 [[0], [1], [2, 3], [4]] : tensor<3x3x1x1x4xf32> into tensor<3x3x1x4xf32>
    %extracted_slice_115 = tensor.extract_slice %collapsed_114[0, 0, 0, 0] [1, 3, 1, 4] [1, 1, 1, 1] : tensor<3x3x1x4xf32> to tensor<1x3x1x4xf32>
    %extracted_slice_116 = tensor.extract_slice %collapsed_114[1, 0, 0, 0] [1, 3, 1, 4] [1, 1, 1, 1] : tensor<3x3x1x4xf32> to tensor<1x3x1x4xf32>
    %extracted_slice_117 = tensor.extract_slice %collapsed_114[2, 0, 0, 0] [1, 3, 1, 4] [1, 1, 1, 1] : tensor<3x3x1x4xf32> to tensor<1x3x1x4xf32>
    %collapsed_118 = tensor.collapse_shape %extracted_slice_115 [[0, 1], [2, 3]] : tensor<1x3x1x4xf32> into tensor<3x4xf32>
    %expanded_119 = tensor.expand_shape %collapsed_118 [[0], [1, 2]] output_shape [3, 2, 2] : tensor<3x4xf32> into tensor<3x2x2xf32>
    %transposed_120 = linalg.transpose ins(%expanded_119 : tensor<3x2x2xf32>) outs(%7 : tensor<2x3x2xf32>) permutation = [1, 0, 2] 
    %collapsed_121 = tensor.collapse_shape %extracted_slice_116 [[0, 1], [2, 3]] : tensor<1x3x1x4xf32> into tensor<3x4xf32>
    %expanded_122 = tensor.expand_shape %collapsed_121 [[0], [1, 2]] output_shape [3, 2, 2] : tensor<3x4xf32> into tensor<3x2x2xf32>
    %transposed_123 = linalg.transpose ins(%expanded_122 : tensor<3x2x2xf32>) outs(%7 : tensor<2x3x2xf32>) permutation = [1, 0, 2] 
    %collapsed_124 = tensor.collapse_shape %extracted_slice_117 [[0, 1], [2, 3]] : tensor<1x3x1x4xf32> into tensor<3x4xf32>
    %expanded_125 = tensor.expand_shape %collapsed_124 [[0], [1, 2]] output_shape [3, 2, 2] : tensor<3x4xf32> into tensor<3x2x2xf32>
    %transposed_126 = linalg.transpose ins(%expanded_125 : tensor<3x2x2xf32>) outs(%7 : tensor<2x3x2xf32>) permutation = [1, 0, 2] 
    %expanded_127 = tensor.expand_shape %transposed_120 [[0, 1], [2], [3]] output_shape [1, 2, 3, 2] : tensor<2x3x2xf32> into tensor<1x2x3x2xf32>
    %expanded_128 = tensor.expand_shape %transposed_123 [[0, 1], [2], [3]] output_shape [1, 2, 3, 2] : tensor<2x3x2xf32> into tensor<1x2x3x2xf32>
    %95 = linalg.generic {indexing_maps = [#map2, #map2], iterator_types = ["parallel", "parallel", "parallel", "parallel"]} ins(%expanded_127 : tensor<1x2x3x2xf32>) outs(%8 : tensor<1x2x3x2xf32>) {
    ^bb0(%in: f32, %out: f32):
      %398 = arith.truncf %cst_7 : f64 to f32
      %399 = arith.mulf %in, %398 : f32
      linalg.yield %399 : f32
    } -> tensor<1x2x3x2xf32>
    %transposed_129 = linalg.transpose ins(%expanded_128 : tensor<1x2x3x2xf32>) outs(%10 : tensor<1x2x2x3xf32>) permutation = [0, 1, 3, 2] 
    %96 = linalg.generic {indexing_maps = [#map2, #map2], iterator_types = ["parallel", "parallel", "parallel", "parallel"]} ins(%transposed_129 : tensor<1x2x2x3xf32>) outs(%10 : tensor<1x2x2x3xf32>) {
    ^bb0(%in: f32, %out: f32):
      %398 = arith.truncf %cst_7 : f64 to f32
      %399 = arith.mulf %in, %398 : f32
      linalg.yield %399 : f32
    } -> tensor<1x2x2x3xf32>
    %collapsed_130 = tensor.collapse_shape %95 [[0, 1], [2], [3]] : tensor<1x2x3x2xf32> into tensor<2x3x2xf32>
    %collapsed_131 = tensor.collapse_shape %96 [[0, 1], [2], [3]] : tensor<1x2x2x3xf32> into tensor<2x2x3xf32>
    %97 = linalg.batch_matmul ins(%collapsed_130, %collapsed_131 : tensor<2x3x2xf32>, tensor<2x2x3xf32>) outs(%13 : tensor<2x3x3xf32>) -> tensor<2x3x3xf32>
    %expanded_132 = tensor.expand_shape %97 [[0, 1], [2], [3]] output_shape [1, 2, 3, 3] : tensor<2x3x3xf32> into tensor<1x2x3x3xf32>
    %98:2 = linalg.generic {indexing_maps = [#map2, #map3, #map3], iterator_types = ["parallel", "parallel", "parallel", "reduction"]} ins(%expanded_132 : tensor<1x2x3x3xf32>) outs(%18, %16 : tensor<1x2x3xf32>, tensor<1x2x3xi64>) {
    ^bb0(%in: f32, %out: f32, %out_298: i64):
      %398 = linalg.index 3 : index
      %399 = arith.index_cast %398 : index to i64
      %400 = arith.maximumf %in, %out : f32
      %401 = arith.cmpf ogt, %in, %out : f32
      %402 = arith.select %401, %399, %out_298 : i64
      linalg.yield %400, %402 : f32, i64
    } -> (tensor<1x2x3xf32>, tensor<1x2x3xi64>)
    %expanded_133 = tensor.expand_shape %98#0 [[0], [1], [2, 3]] output_shape [1, 2, 3, 1] : tensor<1x2x3xf32> into tensor<1x2x3x1xf32>
    %99 = linalg.generic {indexing_maps = [#map2, #map4, #map2], iterator_types = ["parallel", "parallel", "parallel", "parallel"]} ins(%expanded_132, %expanded_133 : tensor<1x2x3x3xf32>, tensor<1x2x3x1xf32>) outs(%20 : tensor<1x2x3x3xf32>) {
    ^bb0(%in: f32, %in_298: f32, %out: f32):
      %398 = arith.subf %in, %in_298 : f32
      linalg.yield %398 : f32
    } -> tensor<1x2x3x3xf32>
    %100 = linalg.generic {indexing_maps = [#map2, #map2], iterator_types = ["parallel", "parallel", "parallel", "parallel"]} ins(%99 : tensor<1x2x3x3xf32>) outs(%20 : tensor<1x2x3x3xf32>) {
    ^bb0(%in: f32, %out: f32):
      %398 = math.exp %in : f32
      linalg.yield %398 : f32
    } -> tensor<1x2x3x3xf32>
    %101 = linalg.generic {indexing_maps = [#map2, #map4], iterator_types = ["parallel", "parallel", "parallel", "reduction"]} ins(%100 : tensor<1x2x3x3xf32>) outs(%24 : tensor<1x2x3x1xf32>) {
    ^bb0(%in: f32, %out: f32):
      %398 = arith.addf %in, %out : f32
      linalg.yield %398 : f32
    } -> tensor<1x2x3x1xf32>
    %102 = linalg.generic {indexing_maps = [#map2, #map4, #map2], iterator_types = ["parallel", "parallel", "parallel", "parallel"]} ins(%100, %101 : tensor<1x2x3x3xf32>, tensor<1x2x3x1xf32>) outs(%20 : tensor<1x2x3x3xf32>) {
    ^bb0(%in: f32, %in_298: f32, %out: f32):
      %398 = arith.divf %in, %in_298 : f32
      linalg.yield %398 : f32
    } -> tensor<1x2x3x3xf32>
    %103 = linalg.generic {indexing_maps = [#map2, #map2], iterator_types = ["parallel", "parallel", "parallel", "parallel"]} ins(%expanded_132 : tensor<1x2x3x3xf32>) outs(%27 : tensor<1x2x3x3xi1>) {
    ^bb0(%in: f32, %out: i1):
      %398 = arith.extf %in : f32 to f64
      %399 = arith.cmpf oeq, %398, %cst_6 : f64
      linalg.yield %399 : i1
    } -> tensor<1x2x3x3xi1>
    %104 = linalg.generic {indexing_maps = [#map2, #map2], iterator_types = ["parallel", "parallel", "parallel", "parallel"]} ins(%103 : tensor<1x2x3x3xi1>) outs(%27 : tensor<1x2x3x3xi1>) {
    ^bb0(%in: i1, %out: i1):
      %398 = arith.cmpi eq, %in, %false : i1
      linalg.yield %398 : i1
    } -> tensor<1x2x3x3xi1>
    %105 = linalg.generic {indexing_maps = [#map2, #map4], iterator_types = ["parallel", "parallel", "parallel", "reduction"]} ins(%104 : tensor<1x2x3x3xi1>) outs(%31 : tensor<1x2x3x1xi1>) {
    ^bb0(%in: i1, %out: i1):
      %398 = arith.ori %in, %out : i1
      linalg.yield %398 : i1
    } -> tensor<1x2x3x1xi1>
    %106 = linalg.generic {indexing_maps = [#map2, #map2], iterator_types = ["parallel", "parallel", "parallel", "parallel"]} ins(%105 : tensor<1x2x3x1xi1>) outs(%30 : tensor<1x2x3x1xi1>) {
    ^bb0(%in: i1, %out: i1):
      %398 = arith.cmpi eq, %in, %false : i1
      linalg.yield %398 : i1
    } -> tensor<1x2x3x1xi1>
    %107 = linalg.generic {indexing_maps = [#map4, #map2, #map2, #map2], iterator_types = ["parallel", "parallel", "parallel", "parallel"]} ins(%106, %cst_74, %102 : tensor<1x2x3x1xi1>, tensor<1x2x3x3xf32>, tensor<1x2x3x3xf32>) outs(%20 : tensor<1x2x3x3xf32>) {
    ^bb0(%in: i1, %in_298: f32, %in_299: f32, %out: f32):
      %398 = arith.select %in, %in_298, %in_299 : f32
      linalg.yield %398 : f32
    } -> tensor<1x2x3x3xf32>
    %collapsed_134 = tensor.collapse_shape %107 [[0, 1], [2], [3]] : tensor<1x2x3x3xf32> into tensor<2x3x3xf32>
    %108 = linalg.batch_matmul ins(%collapsed_134, %transposed_126 : tensor<2x3x3xf32>, tensor<2x3x2xf32>) outs(%35 : tensor<2x3x2xf32>) -> tensor<2x3x2xf32>
    %expanded_135 = tensor.expand_shape %108 [[0, 1], [2], [3]] output_shape [1, 2, 3, 2] : tensor<2x3x2xf32> into tensor<1x2x3x2xf32>
    %transposed_136 = linalg.transpose ins(%expanded_135 : tensor<1x2x3x2xf32>) outs(%37 : tensor<3x1x2x2xf32>) permutation = [2, 0, 1, 3] 
    %collapsed_137 = tensor.collapse_shape %transposed_136 [[0], [1, 2, 3]] : tensor<3x1x2x2xf32> into tensor<3x4xf32>
    %transposed_138 = linalg.transpose ins(%cst_24 : tensor<4x4xf32>) outs(%38 : tensor<4x4xf32>) permutation = [1, 0] 
    %109 = linalg.matmul ins(%collapsed_137, %transposed_138 : tensor<3x4xf32>, tensor<4x4xf32>) outs(%40 : tensor<3x4xf32>) -> tensor<3x4xf32>
    %110 = linalg.generic {indexing_maps = [#map, #map1, #map], iterator_types = ["parallel", "parallel"]} ins(%109, %cst_25 : tensor<3x4xf32>, tensor<4xf32>) outs(%39 : tensor<3x4xf32>) {
    ^bb0(%in: f32, %in_298: f32, %out: f32):
      %398 = arith.addf %in, %in_298 : f32
      linalg.yield %398 : f32
    } -> tensor<3x4xf32>
    %expanded_139 = tensor.expand_shape %110 [[0], [1, 2]] output_shape [3, 1, 4] : tensor<3x4xf32> into tensor<3x1x4xf32>
    %transposed_140 = linalg.transpose ins(%expanded_139 : tensor<3x1x4xf32>) outs(%43 : tensor<1x3x4xf32>) permutation = [1, 0, 2] 
    %111 = linalg.generic {indexing_maps = [#map5, #map5, #map5], iterator_types = ["parallel", "parallel", "parallel"]} ins(%92, %transposed_140 : tensor<1x3x4xf32>, tensor<1x3x4xf32>) outs(%43 : tensor<1x3x4xf32>) {
    ^bb0(%in: f32, %in_298: f32, %out: f32):
      %398 = arith.addf %in, %in_298 : f32
      linalg.yield %398 : f32
    } -> tensor<1x3x4xf32>
    %112 = linalg.generic {indexing_maps = [#map5, #map5], iterator_types = ["parallel", "parallel", "parallel"]} ins(%111 : tensor<1x3x4xf32>) outs(%45 : tensor<1x3x4xf64>) {
    ^bb0(%in: f32, %out: f64):
      %398 = arith.extf %in : f32 to f64
      linalg.yield %398 : f64
    } -> tensor<1x3x4xf64>
    %113 = linalg.generic {indexing_maps = [#map5, #map6], iterator_types = ["parallel", "parallel", "reduction"]} ins(%112 : tensor<1x3x4xf64>) outs(%48 : tensor<1x3x1xf64>) {
    ^bb0(%in: f64, %out: f64):
      %398 = arith.addf %in, %out : f64
      linalg.yield %398 : f64
    } -> tensor<1x3x1xf64>
    %114 = linalg.generic {indexing_maps = [#map5, #map5], iterator_types = ["parallel", "parallel", "parallel"]} ins(%113 : tensor<1x3x1xf64>) outs(%47 : tensor<1x3x1xf64>) {
    ^bb0(%in: f64, %out: f64):
      %398 = arith.divf %in, %cst_8 : f64
      linalg.yield %398 : f64
    } -> tensor<1x3x1xf64>
    %115 = linalg.generic {indexing_maps = [#map5, #map6, #map5], iterator_types = ["parallel", "parallel", "parallel"]} ins(%112, %114 : tensor<1x3x4xf64>, tensor<1x3x1xf64>) outs(%45 : tensor<1x3x4xf64>) {
    ^bb0(%in: f64, %in_298: f64, %out: f64):
      %398 = arith.subf %in, %in_298 : f64
      linalg.yield %398 : f64
    } -> tensor<1x3x4xf64>
    %116 = linalg.generic {indexing_maps = [#map5, #map5, #map5], iterator_types = ["parallel", "parallel", "parallel"]} ins(%115, %115 : tensor<1x3x4xf64>, tensor<1x3x4xf64>) outs(%45 : tensor<1x3x4xf64>) {
    ^bb0(%in: f64, %in_298: f64, %out: f64):
      %398 = arith.mulf %in, %in_298 : f64
      linalg.yield %398 : f64
    } -> tensor<1x3x4xf64>
    %117 = linalg.generic {indexing_maps = [#map5, #map6], iterator_types = ["parallel", "parallel", "reduction"]} ins(%116 : tensor<1x3x4xf64>) outs(%48 : tensor<1x3x1xf64>) {
    ^bb0(%in: f64, %out: f64):
      %398 = arith.addf %in, %out : f64
      linalg.yield %398 : f64
    } -> tensor<1x3x1xf64>
    %118 = linalg.generic {indexing_maps = [#map5, #map5], iterator_types = ["parallel", "parallel", "parallel"]} ins(%117 : tensor<1x3x1xf64>) outs(%47 : tensor<1x3x1xf64>) {
    ^bb0(%in: f64, %out: f64):
      %398 = arith.divf %in, %cst_8 : f64
      linalg.yield %398 : f64
    } -> tensor<1x3x1xf64>
    %119 = linalg.generic {indexing_maps = [#map5, #map5], iterator_types = ["parallel", "parallel", "parallel"]} ins(%118 : tensor<1x3x1xf64>) outs(%55 : tensor<1x3x1xf32>) {
    ^bb0(%in: f64, %out: f32):
      %398 = arith.truncf %in : f64 to f32
      linalg.yield %398 : f32
    } -> tensor<1x3x1xf32>
    %120 = linalg.generic {indexing_maps = [#map5, #map6], iterator_types = ["parallel", "parallel", "reduction"]} ins(%111 : tensor<1x3x4xf32>) outs(%57 : tensor<1x3x1xf32>) {
    ^bb0(%in: f32, %out: f32):
      %398 = arith.addf %in, %out : f32
      linalg.yield %398 : f32
    } -> tensor<1x3x1xf32>
    %121 = linalg.generic {indexing_maps = [#map5, #map5], iterator_types = ["parallel", "parallel", "parallel"]} ins(%120 : tensor<1x3x1xf32>) outs(%55 : tensor<1x3x1xf32>) {
    ^bb0(%in: f32, %out: f32):
      %398 = arith.divf %in, %cst_9 : f32
      linalg.yield %398 : f32
    } -> tensor<1x3x1xf32>
    %122 = linalg.generic {indexing_maps = [#map5, #map5], iterator_types = ["parallel", "parallel", "parallel"]} ins(%119 : tensor<1x3x1xf32>) outs(%55 : tensor<1x3x1xf32>) {
    ^bb0(%in: f32, %out: f32):
      %398 = arith.truncf %cst_5 : f64 to f32
      %399 = arith.addf %in, %398 : f32
      linalg.yield %399 : f32
    } -> tensor<1x3x1xf32>
    %123 = linalg.generic {indexing_maps = [#map5, #map5], iterator_types = ["parallel", "parallel", "parallel"]} ins(%122 : tensor<1x3x1xf32>) outs(%55 : tensor<1x3x1xf32>) {
    ^bb0(%in: f32, %out: f32):
      %398 = math.rsqrt %in : f32
      linalg.yield %398 : f32
    } -> tensor<1x3x1xf32>
    %124 = linalg.generic {indexing_maps = [#map5, #map6, #map5], iterator_types = ["parallel", "parallel", "parallel"]} ins(%111, %121 : tensor<1x3x4xf32>, tensor<1x3x1xf32>) outs(%43 : tensor<1x3x4xf32>) {
    ^bb0(%in: f32, %in_298: f32, %out: f32):
      %398 = arith.subf %in, %in_298 : f32
      linalg.yield %398 : f32
    } -> tensor<1x3x4xf32>
    %125 = linalg.generic {indexing_maps = [#map5, #map6, #map5], iterator_types = ["parallel", "parallel", "parallel"]} ins(%124, %123 : tensor<1x3x4xf32>, tensor<1x3x1xf32>) outs(%43 : tensor<1x3x4xf32>) {
    ^bb0(%in: f32, %in_298: f32, %out: f32):
      %398 = arith.mulf %in, %in_298 : f32
      linalg.yield %398 : f32
    } -> tensor<1x3x4xf32>
    %126 = linalg.generic {indexing_maps = [#map5, #map7, #map5], iterator_types = ["parallel", "parallel", "parallel"]} ins(%125, %cst_26 : tensor<1x3x4xf32>, tensor<4xf32>) outs(%43 : tensor<1x3x4xf32>) {
    ^bb0(%in: f32, %in_298: f32, %out: f32):
      %398 = arith.mulf %in, %in_298 : f32
      linalg.yield %398 : f32
    } -> tensor<1x3x4xf32>
    %127 = linalg.generic {indexing_maps = [#map5, #map7, #map5], iterator_types = ["parallel", "parallel", "parallel"]} ins(%126, %cst_27 : tensor<1x3x4xf32>, tensor<4xf32>) outs(%43 : tensor<1x3x4xf32>) {
    ^bb0(%in: f32, %in_298: f32, %out: f32):
      %398 = arith.addf %in, %in_298 : f32
      linalg.yield %398 : f32
    } -> tensor<1x3x4xf32>
    %collapsed_141 = tensor.collapse_shape %127 [[0, 1], [2]] : tensor<1x3x4xf32> into tensor<3x4xf32>
    %transposed_142 = linalg.transpose ins(%cst_28 : tensor<8x4xf32>) outs(%66 : tensor<4x8xf32>) permutation = [1, 0] 
    %128 = linalg.matmul ins(%collapsed_141, %transposed_142 : tensor<3x4xf32>, tensor<4x8xf32>) outs(%68 : tensor<3x8xf32>) -> tensor<3x8xf32>
    %129 = linalg.generic {indexing_maps = [#map, #map1, #map], iterator_types = ["parallel", "parallel"]} ins(%128, %cst_29 : tensor<3x8xf32>, tensor<8xf32>) outs(%67 : tensor<3x8xf32>) {
    ^bb0(%in: f32, %in_298: f32, %out: f32):
      %398 = arith.addf %in, %in_298 : f32
      linalg.yield %398 : f32
    } -> tensor<3x8xf32>
    %expanded_143 = tensor.expand_shape %129 [[0, 1], [2]] output_shape [1, 3, 8] : tensor<3x8xf32> into tensor<1x3x8xf32>
    %130 = linalg.generic {indexing_maps = [#map5, #map5], iterator_types = ["parallel", "parallel", "parallel"]} ins(%expanded_143 : tensor<1x3x8xf32>) outs(%71 : tensor<1x3x8xf32>) {
    ^bb0(%in: f32, %out: f32):
      %398 = arith.divf %in, %cst_10 : f32
      %399 = math.erf %398 : f32
      %400 = arith.addf %399, %cst_3 : f32
      %401 = arith.mulf %400, %cst_4 : f32
      %402 = arith.mulf %in, %401 : f32
      linalg.yield %402 : f32
    } -> tensor<1x3x8xf32>
    %collapsed_144 = tensor.collapse_shape %130 [[0, 1], [2]] : tensor<1x3x8xf32> into tensor<3x8xf32>
    %transposed_145 = linalg.transpose ins(%cst_30 : tensor<4x8xf32>) outs(%73 : tensor<8x4xf32>) permutation = [1, 0] 
    %131 = linalg.matmul ins(%collapsed_144, %transposed_145 : tensor<3x8xf32>, tensor<8x4xf32>) outs(%40 : tensor<3x4xf32>) -> tensor<3x4xf32>
    %132 = linalg.generic {indexing_maps = [#map, #map1, #map], iterator_types = ["parallel", "parallel"]} ins(%131, %cst_31 : tensor<3x4xf32>, tensor<4xf32>) outs(%39 : tensor<3x4xf32>) {
    ^bb0(%in: f32, %in_298: f32, %out: f32):
      %398 = arith.addf %in, %in_298 : f32
      linalg.yield %398 : f32
    } -> tensor<3x4xf32>
    %expanded_146 = tensor.expand_shape %132 [[0, 1], [2]] output_shape [1, 3, 4] : tensor<3x4xf32> into tensor<1x3x4xf32>
    %133 = linalg.generic {indexing_maps = [#map5, #map5, #map5], iterator_types = ["parallel", "parallel", "parallel"]} ins(%127, %expanded_146 : tensor<1x3x4xf32>, tensor<1x3x4xf32>) outs(%43 : tensor<1x3x4xf32>) {
    ^bb0(%in: f32, %in_298: f32, %out: f32):
      %398 = arith.addf %in, %in_298 : f32
      linalg.yield %398 : f32
    } -> tensor<1x3x4xf32>
    %134 = linalg.generic {indexing_maps = [#map5, #map5], iterator_types = ["parallel", "parallel", "parallel"]} ins(%133 : tensor<1x3x4xf32>) outs(%45 : tensor<1x3x4xf64>) {
    ^bb0(%in: f32, %out: f64):
      %398 = arith.extf %in : f32 to f64
      linalg.yield %398 : f64
    } -> tensor<1x3x4xf64>
    %135 = linalg.generic {indexing_maps = [#map5, #map6], iterator_types = ["parallel", "parallel", "reduction"]} ins(%134 : tensor<1x3x4xf64>) outs(%48 : tensor<1x3x1xf64>) {
    ^bb0(%in: f64, %out: f64):
      %398 = arith.addf %in, %out : f64
      linalg.yield %398 : f64
    } -> tensor<1x3x1xf64>
    %136 = linalg.generic {indexing_maps = [#map5, #map5], iterator_types = ["parallel", "parallel", "parallel"]} ins(%135 : tensor<1x3x1xf64>) outs(%47 : tensor<1x3x1xf64>) {
    ^bb0(%in: f64, %out: f64):
      %398 = arith.divf %in, %cst_8 : f64
      linalg.yield %398 : f64
    } -> tensor<1x3x1xf64>
    %137 = linalg.generic {indexing_maps = [#map5, #map6, #map5], iterator_types = ["parallel", "parallel", "parallel"]} ins(%134, %136 : tensor<1x3x4xf64>, tensor<1x3x1xf64>) outs(%45 : tensor<1x3x4xf64>) {
    ^bb0(%in: f64, %in_298: f64, %out: f64):
      %398 = arith.subf %in, %in_298 : f64
      linalg.yield %398 : f64
    } -> tensor<1x3x4xf64>
    %138 = linalg.generic {indexing_maps = [#map5, #map5, #map5], iterator_types = ["parallel", "parallel", "parallel"]} ins(%137, %137 : tensor<1x3x4xf64>, tensor<1x3x4xf64>) outs(%45 : tensor<1x3x4xf64>) {
    ^bb0(%in: f64, %in_298: f64, %out: f64):
      %398 = arith.mulf %in, %in_298 : f64
      linalg.yield %398 : f64
    } -> tensor<1x3x4xf64>
    %139 = linalg.generic {indexing_maps = [#map5, #map6], iterator_types = ["parallel", "parallel", "reduction"]} ins(%138 : tensor<1x3x4xf64>) outs(%48 : tensor<1x3x1xf64>) {
    ^bb0(%in: f64, %out: f64):
      %398 = arith.addf %in, %out : f64
      linalg.yield %398 : f64
    } -> tensor<1x3x1xf64>
    %140 = linalg.generic {indexing_maps = [#map5, #map5], iterator_types = ["parallel", "parallel", "parallel"]} ins(%139 : tensor<1x3x1xf64>) outs(%47 : tensor<1x3x1xf64>) {
    ^bb0(%in: f64, %out: f64):
      %398 = arith.divf %in, %cst_8 : f64
      linalg.yield %398 : f64
    } -> tensor<1x3x1xf64>
    %141 = linalg.generic {indexing_maps = [#map5, #map5], iterator_types = ["parallel", "parallel", "parallel"]} ins(%140 : tensor<1x3x1xf64>) outs(%55 : tensor<1x3x1xf32>) {
    ^bb0(%in: f64, %out: f32):
      %398 = arith.truncf %in : f64 to f32
      linalg.yield %398 : f32
    } -> tensor<1x3x1xf32>
    %142 = linalg.generic {indexing_maps = [#map5, #map6], iterator_types = ["parallel", "parallel", "reduction"]} ins(%133 : tensor<1x3x4xf32>) outs(%57 : tensor<1x3x1xf32>) {
    ^bb0(%in: f32, %out: f32):
      %398 = arith.addf %in, %out : f32
      linalg.yield %398 : f32
    } -> tensor<1x3x1xf32>
    %143 = linalg.generic {indexing_maps = [#map5, #map5], iterator_types = ["parallel", "parallel", "parallel"]} ins(%142 : tensor<1x3x1xf32>) outs(%55 : tensor<1x3x1xf32>) {
    ^bb0(%in: f32, %out: f32):
      %398 = arith.divf %in, %cst_9 : f32
      linalg.yield %398 : f32
    } -> tensor<1x3x1xf32>
    %144 = linalg.generic {indexing_maps = [#map5, #map5], iterator_types = ["parallel", "parallel", "parallel"]} ins(%141 : tensor<1x3x1xf32>) outs(%55 : tensor<1x3x1xf32>) {
    ^bb0(%in: f32, %out: f32):
      %398 = arith.truncf %cst_5 : f64 to f32
      %399 = arith.addf %in, %398 : f32
      linalg.yield %399 : f32
    } -> tensor<1x3x1xf32>
    %145 = linalg.generic {indexing_maps = [#map5, #map5], iterator_types = ["parallel", "parallel", "parallel"]} ins(%144 : tensor<1x3x1xf32>) outs(%55 : tensor<1x3x1xf32>) {
    ^bb0(%in: f32, %out: f32):
      %398 = math.rsqrt %in : f32
      linalg.yield %398 : f32
    } -> tensor<1x3x1xf32>
    %146 = linalg.generic {indexing_maps = [#map5, #map6, #map5], iterator_types = ["parallel", "parallel", "parallel"]} ins(%133, %143 : tensor<1x3x4xf32>, tensor<1x3x1xf32>) outs(%43 : tensor<1x3x4xf32>) {
    ^bb0(%in: f32, %in_298: f32, %out: f32):
      %398 = arith.subf %in, %in_298 : f32
      linalg.yield %398 : f32
    } -> tensor<1x3x4xf32>
    %147 = linalg.generic {indexing_maps = [#map5, #map6, #map5], iterator_types = ["parallel", "parallel", "parallel"]} ins(%146, %145 : tensor<1x3x4xf32>, tensor<1x3x1xf32>) outs(%43 : tensor<1x3x4xf32>) {
    ^bb0(%in: f32, %in_298: f32, %out: f32):
      %398 = arith.mulf %in, %in_298 : f32
      linalg.yield %398 : f32
    } -> tensor<1x3x4xf32>
    %148 = linalg.generic {indexing_maps = [#map5, #map7, #map5], iterator_types = ["parallel", "parallel", "parallel"]} ins(%147, %cst_32 : tensor<1x3x4xf32>, tensor<4xf32>) outs(%43 : tensor<1x3x4xf32>) {
    ^bb0(%in: f32, %in_298: f32, %out: f32):
      %398 = arith.mulf %in, %in_298 : f32
      linalg.yield %398 : f32
    } -> tensor<1x3x4xf32>
    %149 = linalg.generic {indexing_maps = [#map5, #map7, #map5], iterator_types = ["parallel", "parallel", "parallel"]} ins(%148, %cst_33 : tensor<1x3x4xf32>, tensor<4xf32>) outs(%43 : tensor<1x3x4xf32>) {
    ^bb0(%in: f32, %in_298: f32, %out: f32):
      %398 = arith.addf %in, %in_298 : f32
      linalg.yield %398 : f32
    } -> tensor<1x3x4xf32>
    %150 = linalg.generic {indexing_maps = [#map5, #map5], iterator_types = ["parallel", "parallel", "parallel"]} ins(%149 : tensor<1x3x4xf32>) outs(%45 : tensor<1x3x4xf64>) {
    ^bb0(%in: f32, %out: f64):
      %398 = arith.extf %in : f32 to f64
      linalg.yield %398 : f64
    } -> tensor<1x3x4xf64>
    %151 = linalg.generic {indexing_maps = [#map5, #map6], iterator_types = ["parallel", "parallel", "reduction"]} ins(%150 : tensor<1x3x4xf64>) outs(%48 : tensor<1x3x1xf64>) {
    ^bb0(%in: f64, %out: f64):
      %398 = arith.addf %in, %out : f64
      linalg.yield %398 : f64
    } -> tensor<1x3x1xf64>
    %152 = linalg.generic {indexing_maps = [#map5, #map5], iterator_types = ["parallel", "parallel", "parallel"]} ins(%151 : tensor<1x3x1xf64>) outs(%47 : tensor<1x3x1xf64>) {
    ^bb0(%in: f64, %out: f64):
      %398 = arith.divf %in, %cst_8 : f64
      linalg.yield %398 : f64
    } -> tensor<1x3x1xf64>
    %153 = linalg.generic {indexing_maps = [#map5, #map6, #map5], iterator_types = ["parallel", "parallel", "parallel"]} ins(%150, %152 : tensor<1x3x4xf64>, tensor<1x3x1xf64>) outs(%45 : tensor<1x3x4xf64>) {
    ^bb0(%in: f64, %in_298: f64, %out: f64):
      %398 = arith.subf %in, %in_298 : f64
      linalg.yield %398 : f64
    } -> tensor<1x3x4xf64>
    %154 = linalg.generic {indexing_maps = [#map5, #map5, #map5], iterator_types = ["parallel", "parallel", "parallel"]} ins(%153, %153 : tensor<1x3x4xf64>, tensor<1x3x4xf64>) outs(%45 : tensor<1x3x4xf64>) {
    ^bb0(%in: f64, %in_298: f64, %out: f64):
      %398 = arith.mulf %in, %in_298 : f64
      linalg.yield %398 : f64
    } -> tensor<1x3x4xf64>
    %155 = linalg.generic {indexing_maps = [#map5, #map6], iterator_types = ["parallel", "parallel", "reduction"]} ins(%154 : tensor<1x3x4xf64>) outs(%48 : tensor<1x3x1xf64>) {
    ^bb0(%in: f64, %out: f64):
      %398 = arith.addf %in, %out : f64
      linalg.yield %398 : f64
    } -> tensor<1x3x1xf64>
    %156 = linalg.generic {indexing_maps = [#map5, #map5], iterator_types = ["parallel", "parallel", "parallel"]} ins(%155 : tensor<1x3x1xf64>) outs(%47 : tensor<1x3x1xf64>) {
    ^bb0(%in: f64, %out: f64):
      %398 = arith.divf %in, %cst_8 : f64
      linalg.yield %398 : f64
    } -> tensor<1x3x1xf64>
    %157 = linalg.generic {indexing_maps = [#map5, #map5], iterator_types = ["parallel", "parallel", "parallel"]} ins(%156 : tensor<1x3x1xf64>) outs(%55 : tensor<1x3x1xf32>) {
    ^bb0(%in: f64, %out: f32):
      %398 = arith.truncf %in : f64 to f32
      linalg.yield %398 : f32
    } -> tensor<1x3x1xf32>
    %158 = linalg.generic {indexing_maps = [#map5, #map6], iterator_types = ["parallel", "parallel", "reduction"]} ins(%149 : tensor<1x3x4xf32>) outs(%57 : tensor<1x3x1xf32>) {
    ^bb0(%in: f32, %out: f32):
      %398 = arith.addf %in, %out : f32
      linalg.yield %398 : f32
    } -> tensor<1x3x1xf32>
    %159 = linalg.generic {indexing_maps = [#map5, #map5], iterator_types = ["parallel", "parallel", "parallel"]} ins(%158 : tensor<1x3x1xf32>) outs(%55 : tensor<1x3x1xf32>) {
    ^bb0(%in: f32, %out: f32):
      %398 = arith.divf %in, %cst_9 : f32
      linalg.yield %398 : f32
    } -> tensor<1x3x1xf32>
    %160 = linalg.generic {indexing_maps = [#map5, #map5], iterator_types = ["parallel", "parallel", "parallel"]} ins(%157 : tensor<1x3x1xf32>) outs(%55 : tensor<1x3x1xf32>) {
    ^bb0(%in: f32, %out: f32):
      %398 = arith.truncf %cst_5 : f64 to f32
      %399 = arith.addf %in, %398 : f32
      linalg.yield %399 : f32
    } -> tensor<1x3x1xf32>
    %161 = linalg.generic {indexing_maps = [#map5, #map5], iterator_types = ["parallel", "parallel", "parallel"]} ins(%160 : tensor<1x3x1xf32>) outs(%55 : tensor<1x3x1xf32>) {
    ^bb0(%in: f32, %out: f32):
      %398 = math.rsqrt %in : f32
      linalg.yield %398 : f32
    } -> tensor<1x3x1xf32>
    %162 = linalg.generic {indexing_maps = [#map5, #map6, #map5], iterator_types = ["parallel", "parallel", "parallel"]} ins(%149, %159 : tensor<1x3x4xf32>, tensor<1x3x1xf32>) outs(%43 : tensor<1x3x4xf32>) {
    ^bb0(%in: f32, %in_298: f32, %out: f32):
      %398 = arith.subf %in, %in_298 : f32
      linalg.yield %398 : f32
    } -> tensor<1x3x4xf32>
    %163 = linalg.generic {indexing_maps = [#map5, #map6, #map5], iterator_types = ["parallel", "parallel", "parallel"]} ins(%162, %161 : tensor<1x3x4xf32>, tensor<1x3x1xf32>) outs(%43 : tensor<1x3x4xf32>) {
    ^bb0(%in: f32, %in_298: f32, %out: f32):
      %398 = arith.mulf %in, %in_298 : f32
      linalg.yield %398 : f32
    } -> tensor<1x3x4xf32>
    %164 = linalg.generic {indexing_maps = [#map5, #map7, #map5], iterator_types = ["parallel", "parallel", "parallel"]} ins(%163, %cst_34 : tensor<1x3x4xf32>, tensor<4xf32>) outs(%43 : tensor<1x3x4xf32>) {
    ^bb0(%in: f32, %in_298: f32, %out: f32):
      %398 = arith.mulf %in, %in_298 : f32
      linalg.yield %398 : f32
    } -> tensor<1x3x4xf32>
    %165 = linalg.generic {indexing_maps = [#map5, #map7, #map5], iterator_types = ["parallel", "parallel", "parallel"]} ins(%164, %cst_35 : tensor<1x3x4xf32>, tensor<4xf32>) outs(%43 : tensor<1x3x4xf32>) {
    ^bb0(%in: f32, %in_298: f32, %out: f32):
      %398 = arith.addf %in, %in_298 : f32
      linalg.yield %398 : f32
    } -> tensor<1x3x4xf32>
    %transposed_147 = linalg.transpose ins(%arg1 : tensor<1x3x4xf32>) outs(%0 : tensor<3x1x4xf32>) permutation = [1, 0, 2] 
    %collapsed_148 = tensor.collapse_shape %transposed_147 [[0], [1, 2]] : tensor<3x1x4xf32> into tensor<3x4xf32>
    %transposed_149 = linalg.transpose ins(%cst_36 : tensor<12x4xf32>) outs(%1 : tensor<4x12xf32>) permutation = [1, 0] 
    %166 = linalg.matmul ins(%collapsed_148, %transposed_149 : tensor<3x4xf32>, tensor<4x12xf32>) outs(%3 : tensor<3x12xf32>) -> tensor<3x12xf32>
    %167 = linalg.generic {indexing_maps = [#map, #map1, #map], iterator_types = ["parallel", "parallel"]} ins(%166, %cst_37 : tensor<3x12xf32>, tensor<12xf32>) outs(%2 : tensor<3x12xf32>) {
    ^bb0(%in: f32, %in_298: f32, %out: f32):
      %398 = arith.addf %in, %in_298 : f32
      linalg.yield %398 : f32
    } -> tensor<3x12xf32>
    %expanded_150 = tensor.expand_shape %167 [[0, 1], [2, 3, 4]] output_shape [1, 3, 1, 3, 4] : tensor<3x12xf32> into tensor<1x3x1x3x4xf32>
    %transposed_151 = linalg.transpose ins(%expanded_150 : tensor<1x3x1x3x4xf32>) outs(%6 : tensor<3x3x1x1x4xf32>) permutation = [3, 1, 2, 0, 4] 
    %collapsed_152 = tensor.collapse_shape %transposed_151 [[0], [1], [2, 3], [4]] : tensor<3x3x1x1x4xf32> into tensor<3x3x1x4xf32>
    %extracted_slice_153 = tensor.extract_slice %collapsed_152[0, 0, 0, 0] [1, 3, 1, 4] [1, 1, 1, 1] : tensor<3x3x1x4xf32> to tensor<1x3x1x4xf32>
    %extracted_slice_154 = tensor.extract_slice %collapsed_152[1, 0, 0, 0] [1, 3, 1, 4] [1, 1, 1, 1] : tensor<3x3x1x4xf32> to tensor<1x3x1x4xf32>
    %extracted_slice_155 = tensor.extract_slice %collapsed_152[2, 0, 0, 0] [1, 3, 1, 4] [1, 1, 1, 1] : tensor<3x3x1x4xf32> to tensor<1x3x1x4xf32>
    %collapsed_156 = tensor.collapse_shape %extracted_slice_153 [[0, 1], [2, 3]] : tensor<1x3x1x4xf32> into tensor<3x4xf32>
    %expanded_157 = tensor.expand_shape %collapsed_156 [[0], [1, 2]] output_shape [3, 2, 2] : tensor<3x4xf32> into tensor<3x2x2xf32>
    %transposed_158 = linalg.transpose ins(%expanded_157 : tensor<3x2x2xf32>) outs(%7 : tensor<2x3x2xf32>) permutation = [1, 0, 2] 
    %collapsed_159 = tensor.collapse_shape %extracted_slice_154 [[0, 1], [2, 3]] : tensor<1x3x1x4xf32> into tensor<3x4xf32>
    %expanded_160 = tensor.expand_shape %collapsed_159 [[0], [1, 2]] output_shape [3, 2, 2] : tensor<3x4xf32> into tensor<3x2x2xf32>
    %transposed_161 = linalg.transpose ins(%expanded_160 : tensor<3x2x2xf32>) outs(%7 : tensor<2x3x2xf32>) permutation = [1, 0, 2] 
    %collapsed_162 = tensor.collapse_shape %extracted_slice_155 [[0, 1], [2, 3]] : tensor<1x3x1x4xf32> into tensor<3x4xf32>
    %expanded_163 = tensor.expand_shape %collapsed_162 [[0], [1, 2]] output_shape [3, 2, 2] : tensor<3x4xf32> into tensor<3x2x2xf32>
    %transposed_164 = linalg.transpose ins(%expanded_163 : tensor<3x2x2xf32>) outs(%7 : tensor<2x3x2xf32>) permutation = [1, 0, 2] 
    %expanded_165 = tensor.expand_shape %transposed_158 [[0, 1], [2], [3]] output_shape [1, 2, 3, 2] : tensor<2x3x2xf32> into tensor<1x2x3x2xf32>
    %expanded_166 = tensor.expand_shape %transposed_161 [[0, 1], [2], [3]] output_shape [1, 2, 3, 2] : tensor<2x3x2xf32> into tensor<1x2x3x2xf32>
    %168 = linalg.generic {indexing_maps = [#map2, #map2], iterator_types = ["parallel", "parallel", "parallel", "parallel"]} ins(%expanded_165 : tensor<1x2x3x2xf32>) outs(%8 : tensor<1x2x3x2xf32>) {
    ^bb0(%in: f32, %out: f32):
      %398 = arith.truncf %cst_7 : f64 to f32
      %399 = arith.mulf %in, %398 : f32
      linalg.yield %399 : f32
    } -> tensor<1x2x3x2xf32>
    %transposed_167 = linalg.transpose ins(%expanded_166 : tensor<1x2x3x2xf32>) outs(%10 : tensor<1x2x2x3xf32>) permutation = [0, 1, 3, 2] 
    %169 = linalg.generic {indexing_maps = [#map2, #map2], iterator_types = ["parallel", "parallel", "parallel", "parallel"]} ins(%transposed_167 : tensor<1x2x2x3xf32>) outs(%10 : tensor<1x2x2x3xf32>) {
    ^bb0(%in: f32, %out: f32):
      %398 = arith.truncf %cst_7 : f64 to f32
      %399 = arith.mulf %in, %398 : f32
      linalg.yield %399 : f32
    } -> tensor<1x2x2x3xf32>
    %collapsed_168 = tensor.collapse_shape %168 [[0, 1], [2], [3]] : tensor<1x2x3x2xf32> into tensor<2x3x2xf32>
    %collapsed_169 = tensor.collapse_shape %169 [[0, 1], [2], [3]] : tensor<1x2x2x3xf32> into tensor<2x2x3xf32>
    %170 = linalg.batch_matmul ins(%collapsed_168, %collapsed_169 : tensor<2x3x2xf32>, tensor<2x2x3xf32>) outs(%13 : tensor<2x3x3xf32>) -> tensor<2x3x3xf32>
    %expanded_170 = tensor.expand_shape %170 [[0, 1], [2], [3]] output_shape [1, 2, 3, 3] : tensor<2x3x3xf32> into tensor<1x2x3x3xf32>
    %171:2 = linalg.generic {indexing_maps = [#map2, #map3, #map3], iterator_types = ["parallel", "parallel", "parallel", "reduction"]} ins(%expanded_170 : tensor<1x2x3x3xf32>) outs(%18, %16 : tensor<1x2x3xf32>, tensor<1x2x3xi64>) {
    ^bb0(%in: f32, %out: f32, %out_298: i64):
      %398 = linalg.index 3 : index
      %399 = arith.index_cast %398 : index to i64
      %400 = arith.maximumf %in, %out : f32
      %401 = arith.cmpf ogt, %in, %out : f32
      %402 = arith.select %401, %399, %out_298 : i64
      linalg.yield %400, %402 : f32, i64
    } -> (tensor<1x2x3xf32>, tensor<1x2x3xi64>)
    %expanded_171 = tensor.expand_shape %171#0 [[0], [1], [2, 3]] output_shape [1, 2, 3, 1] : tensor<1x2x3xf32> into tensor<1x2x3x1xf32>
    %172 = linalg.generic {indexing_maps = [#map2, #map4, #map2], iterator_types = ["parallel", "parallel", "parallel", "parallel"]} ins(%expanded_170, %expanded_171 : tensor<1x2x3x3xf32>, tensor<1x2x3x1xf32>) outs(%20 : tensor<1x2x3x3xf32>) {
    ^bb0(%in: f32, %in_298: f32, %out: f32):
      %398 = arith.subf %in, %in_298 : f32
      linalg.yield %398 : f32
    } -> tensor<1x2x3x3xf32>
    %173 = linalg.generic {indexing_maps = [#map2, #map2], iterator_types = ["parallel", "parallel", "parallel", "parallel"]} ins(%172 : tensor<1x2x3x3xf32>) outs(%20 : tensor<1x2x3x3xf32>) {
    ^bb0(%in: f32, %out: f32):
      %398 = math.exp %in : f32
      linalg.yield %398 : f32
    } -> tensor<1x2x3x3xf32>
    %174 = linalg.generic {indexing_maps = [#map2, #map4], iterator_types = ["parallel", "parallel", "parallel", "reduction"]} ins(%173 : tensor<1x2x3x3xf32>) outs(%24 : tensor<1x2x3x1xf32>) {
    ^bb0(%in: f32, %out: f32):
      %398 = arith.addf %in, %out : f32
      linalg.yield %398 : f32
    } -> tensor<1x2x3x1xf32>
    %175 = linalg.generic {indexing_maps = [#map2, #map4, #map2], iterator_types = ["parallel", "parallel", "parallel", "parallel"]} ins(%173, %174 : tensor<1x2x3x3xf32>, tensor<1x2x3x1xf32>) outs(%20 : tensor<1x2x3x3xf32>) {
    ^bb0(%in: f32, %in_298: f32, %out: f32):
      %398 = arith.divf %in, %in_298 : f32
      linalg.yield %398 : f32
    } -> tensor<1x2x3x3xf32>
    %176 = linalg.generic {indexing_maps = [#map2, #map2], iterator_types = ["parallel", "parallel", "parallel", "parallel"]} ins(%expanded_170 : tensor<1x2x3x3xf32>) outs(%27 : tensor<1x2x3x3xi1>) {
    ^bb0(%in: f32, %out: i1):
      %398 = arith.extf %in : f32 to f64
      %399 = arith.cmpf oeq, %398, %cst_6 : f64
      linalg.yield %399 : i1
    } -> tensor<1x2x3x3xi1>
    %177 = linalg.generic {indexing_maps = [#map2, #map2], iterator_types = ["parallel", "parallel", "parallel", "parallel"]} ins(%176 : tensor<1x2x3x3xi1>) outs(%27 : tensor<1x2x3x3xi1>) {
    ^bb0(%in: i1, %out: i1):
      %398 = arith.cmpi eq, %in, %false : i1
      linalg.yield %398 : i1
    } -> tensor<1x2x3x3xi1>
    %178 = linalg.generic {indexing_maps = [#map2, #map4], iterator_types = ["parallel", "parallel", "parallel", "reduction"]} ins(%177 : tensor<1x2x3x3xi1>) outs(%31 : tensor<1x2x3x1xi1>) {
    ^bb0(%in: i1, %out: i1):
      %398 = arith.ori %in, %out : i1
      linalg.yield %398 : i1
    } -> tensor<1x2x3x1xi1>
    %179 = linalg.generic {indexing_maps = [#map2, #map2], iterator_types = ["parallel", "parallel", "parallel", "parallel"]} ins(%178 : tensor<1x2x3x1xi1>) outs(%30 : tensor<1x2x3x1xi1>) {
    ^bb0(%in: i1, %out: i1):
      %398 = arith.cmpi eq, %in, %false : i1
      linalg.yield %398 : i1
    } -> tensor<1x2x3x1xi1>
    %180 = linalg.generic {indexing_maps = [#map4, #map2, #map2, #map2], iterator_types = ["parallel", "parallel", "parallel", "parallel"]} ins(%179, %cst_74, %175 : tensor<1x2x3x1xi1>, tensor<1x2x3x3xf32>, tensor<1x2x3x3xf32>) outs(%20 : tensor<1x2x3x3xf32>) {
    ^bb0(%in: i1, %in_298: f32, %in_299: f32, %out: f32):
      %398 = arith.select %in, %in_298, %in_299 : f32
      linalg.yield %398 : f32
    } -> tensor<1x2x3x3xf32>
    %collapsed_172 = tensor.collapse_shape %180 [[0, 1], [2], [3]] : tensor<1x2x3x3xf32> into tensor<2x3x3xf32>
    %181 = linalg.batch_matmul ins(%collapsed_172, %transposed_164 : tensor<2x3x3xf32>, tensor<2x3x2xf32>) outs(%35 : tensor<2x3x2xf32>) -> tensor<2x3x2xf32>
    %expanded_173 = tensor.expand_shape %181 [[0, 1], [2], [3]] output_shape [1, 2, 3, 2] : tensor<2x3x2xf32> into tensor<1x2x3x2xf32>
    %transposed_174 = linalg.transpose ins(%expanded_173 : tensor<1x2x3x2xf32>) outs(%37 : tensor<3x1x2x2xf32>) permutation = [2, 0, 1, 3] 
    %collapsed_175 = tensor.collapse_shape %transposed_174 [[0], [1, 2, 3]] : tensor<3x1x2x2xf32> into tensor<3x4xf32>
    %transposed_176 = linalg.transpose ins(%cst_38 : tensor<4x4xf32>) outs(%38 : tensor<4x4xf32>) permutation = [1, 0] 
    %182 = linalg.matmul ins(%collapsed_175, %transposed_176 : tensor<3x4xf32>, tensor<4x4xf32>) outs(%40 : tensor<3x4xf32>) -> tensor<3x4xf32>
    %183 = linalg.generic {indexing_maps = [#map, #map1, #map], iterator_types = ["parallel", "parallel"]} ins(%182, %cst_39 : tensor<3x4xf32>, tensor<4xf32>) outs(%39 : tensor<3x4xf32>) {
    ^bb0(%in: f32, %in_298: f32, %out: f32):
      %398 = arith.addf %in, %in_298 : f32
      linalg.yield %398 : f32
    } -> tensor<3x4xf32>
    %expanded_177 = tensor.expand_shape %183 [[0], [1, 2]] output_shape [3, 1, 4] : tensor<3x4xf32> into tensor<3x1x4xf32>
    %transposed_178 = linalg.transpose ins(%expanded_177 : tensor<3x1x4xf32>) outs(%43 : tensor<1x3x4xf32>) permutation = [1, 0, 2] 
    %184 = linalg.generic {indexing_maps = [#map5, #map5, #map5], iterator_types = ["parallel", "parallel", "parallel"]} ins(%arg1, %transposed_178 : tensor<1x3x4xf32>, tensor<1x3x4xf32>) outs(%43 : tensor<1x3x4xf32>) {
    ^bb0(%in: f32, %in_298: f32, %out: f32):
      %398 = arith.addf %in, %in_298 : f32
      linalg.yield %398 : f32
    } -> tensor<1x3x4xf32>
    %185 = linalg.generic {indexing_maps = [#map5, #map5], iterator_types = ["parallel", "parallel", "parallel"]} ins(%184 : tensor<1x3x4xf32>) outs(%45 : tensor<1x3x4xf64>) {
    ^bb0(%in: f32, %out: f64):
      %398 = arith.extf %in : f32 to f64
      linalg.yield %398 : f64
    } -> tensor<1x3x4xf64>
    %186 = linalg.generic {indexing_maps = [#map5, #map6], iterator_types = ["parallel", "parallel", "reduction"]} ins(%185 : tensor<1x3x4xf64>) outs(%48 : tensor<1x3x1xf64>) {
    ^bb0(%in: f64, %out: f64):
      %398 = arith.addf %in, %out : f64
      linalg.yield %398 : f64
    } -> tensor<1x3x1xf64>
    %187 = linalg.generic {indexing_maps = [#map5, #map5], iterator_types = ["parallel", "parallel", "parallel"]} ins(%186 : tensor<1x3x1xf64>) outs(%47 : tensor<1x3x1xf64>) {
    ^bb0(%in: f64, %out: f64):
      %398 = arith.divf %in, %cst_8 : f64
      linalg.yield %398 : f64
    } -> tensor<1x3x1xf64>
    %188 = linalg.generic {indexing_maps = [#map5, #map6, #map5], iterator_types = ["parallel", "parallel", "parallel"]} ins(%185, %187 : tensor<1x3x4xf64>, tensor<1x3x1xf64>) outs(%45 : tensor<1x3x4xf64>) {
    ^bb0(%in: f64, %in_298: f64, %out: f64):
      %398 = arith.subf %in, %in_298 : f64
      linalg.yield %398 : f64
    } -> tensor<1x3x4xf64>
    %189 = linalg.generic {indexing_maps = [#map5, #map5, #map5], iterator_types = ["parallel", "parallel", "parallel"]} ins(%188, %188 : tensor<1x3x4xf64>, tensor<1x3x4xf64>) outs(%45 : tensor<1x3x4xf64>) {
    ^bb0(%in: f64, %in_298: f64, %out: f64):
      %398 = arith.mulf %in, %in_298 : f64
      linalg.yield %398 : f64
    } -> tensor<1x3x4xf64>
    %190 = linalg.generic {indexing_maps = [#map5, #map6], iterator_types = ["parallel", "parallel", "reduction"]} ins(%189 : tensor<1x3x4xf64>) outs(%48 : tensor<1x3x1xf64>) {
    ^bb0(%in: f64, %out: f64):
      %398 = arith.addf %in, %out : f64
      linalg.yield %398 : f64
    } -> tensor<1x3x1xf64>
    %191 = linalg.generic {indexing_maps = [#map5, #map5], iterator_types = ["parallel", "parallel", "parallel"]} ins(%190 : tensor<1x3x1xf64>) outs(%47 : tensor<1x3x1xf64>) {
    ^bb0(%in: f64, %out: f64):
      %398 = arith.divf %in, %cst_8 : f64
      linalg.yield %398 : f64
    } -> tensor<1x3x1xf64>
    %192 = linalg.generic {indexing_maps = [#map5, #map5], iterator_types = ["parallel", "parallel", "parallel"]} ins(%191 : tensor<1x3x1xf64>) outs(%55 : tensor<1x3x1xf32>) {
    ^bb0(%in: f64, %out: f32):
      %398 = arith.truncf %in : f64 to f32
      linalg.yield %398 : f32
    } -> tensor<1x3x1xf32>
    %193 = linalg.generic {indexing_maps = [#map5, #map6], iterator_types = ["parallel", "parallel", "reduction"]} ins(%184 : tensor<1x3x4xf32>) outs(%57 : tensor<1x3x1xf32>) {
    ^bb0(%in: f32, %out: f32):
      %398 = arith.addf %in, %out : f32
      linalg.yield %398 : f32
    } -> tensor<1x3x1xf32>
    %194 = linalg.generic {indexing_maps = [#map5, #map5], iterator_types = ["parallel", "parallel", "parallel"]} ins(%193 : tensor<1x3x1xf32>) outs(%55 : tensor<1x3x1xf32>) {
    ^bb0(%in: f32, %out: f32):
      %398 = arith.divf %in, %cst_9 : f32
      linalg.yield %398 : f32
    } -> tensor<1x3x1xf32>
    %195 = linalg.generic {indexing_maps = [#map5, #map5], iterator_types = ["parallel", "parallel", "parallel"]} ins(%192 : tensor<1x3x1xf32>) outs(%55 : tensor<1x3x1xf32>) {
    ^bb0(%in: f32, %out: f32):
      %398 = arith.truncf %cst_5 : f64 to f32
      %399 = arith.addf %in, %398 : f32
      linalg.yield %399 : f32
    } -> tensor<1x3x1xf32>
    %196 = linalg.generic {indexing_maps = [#map5, #map5], iterator_types = ["parallel", "parallel", "parallel"]} ins(%195 : tensor<1x3x1xf32>) outs(%55 : tensor<1x3x1xf32>) {
    ^bb0(%in: f32, %out: f32):
      %398 = math.rsqrt %in : f32
      linalg.yield %398 : f32
    } -> tensor<1x3x1xf32>
    %197 = linalg.generic {indexing_maps = [#map5, #map6, #map5], iterator_types = ["parallel", "parallel", "parallel"]} ins(%184, %194 : tensor<1x3x4xf32>, tensor<1x3x1xf32>) outs(%43 : tensor<1x3x4xf32>) {
    ^bb0(%in: f32, %in_298: f32, %out: f32):
      %398 = arith.subf %in, %in_298 : f32
      linalg.yield %398 : f32
    } -> tensor<1x3x4xf32>
    %198 = linalg.generic {indexing_maps = [#map5, #map6, #map5], iterator_types = ["parallel", "parallel", "parallel"]} ins(%197, %196 : tensor<1x3x4xf32>, tensor<1x3x1xf32>) outs(%43 : tensor<1x3x4xf32>) {
    ^bb0(%in: f32, %in_298: f32, %out: f32):
      %398 = arith.mulf %in, %in_298 : f32
      linalg.yield %398 : f32
    } -> tensor<1x3x4xf32>
    %199 = linalg.generic {indexing_maps = [#map5, #map7, #map5], iterator_types = ["parallel", "parallel", "parallel"]} ins(%198, %cst_40 : tensor<1x3x4xf32>, tensor<4xf32>) outs(%43 : tensor<1x3x4xf32>) {
    ^bb0(%in: f32, %in_298: f32, %out: f32):
      %398 = arith.mulf %in, %in_298 : f32
      linalg.yield %398 : f32
    } -> tensor<1x3x4xf32>
    %200 = linalg.generic {indexing_maps = [#map5, #map7, #map5], iterator_types = ["parallel", "parallel", "parallel"]} ins(%199, %cst_41 : tensor<1x3x4xf32>, tensor<4xf32>) outs(%43 : tensor<1x3x4xf32>) {
    ^bb0(%in: f32, %in_298: f32, %out: f32):
      %398 = arith.addf %in, %in_298 : f32
      linalg.yield %398 : f32
    } -> tensor<1x3x4xf32>
    %transposed_179 = linalg.transpose ins(%200 : tensor<1x3x4xf32>) outs(%0 : tensor<3x1x4xf32>) permutation = [1, 0, 2] 
    %transposed_180 = linalg.transpose ins(%165 : tensor<1x3x4xf32>) outs(%0 : tensor<3x1x4xf32>) permutation = [1, 0, 2] 
    %collapsed_181 = tensor.collapse_shape %cst_42 [[0, 1]] : tensor<12x4xf32> into tensor<48xf32>
    %201 = tensor.empty() : tensor<4xi64>
    %202 = linalg.generic {indexing_maps = [#map8], iterator_types = ["parallel"]} outs(%201 : tensor<4xi64>) {
    ^bb0(%out: i64):
      %398 = linalg.index 0 : index
      %399 = arith.index_cast %398 : index to i64
      linalg.yield %399 : i64
    } -> tensor<4xi64>
    %expanded_182 = tensor.expand_shape %202 [[0, 1]] output_shape [4, 1] : tensor<4xi64> into tensor<4x1xi64>
    %203 = tensor.empty() : tensor<4x1xi64>
    %204 = linalg.generic {indexing_maps = [#map, #map], iterator_types = ["parallel", "parallel"]} ins(%expanded_182 : tensor<4x1xi64>) outs(%203 : tensor<4x1xi64>) {
    ^bb0(%in: i64, %out: i64):
      %398 = arith.muli %in, %c4_i64 : i64
      linalg.yield %398 : i64
    } -> tensor<4x1xi64>
    %expanded_183 = tensor.expand_shape %202 [[0, 1]] output_shape [1, 4] : tensor<4xi64> into tensor<1x4xi64>
    %205 = tensor.empty() : tensor<4x4xi64>
    %206 = linalg.generic {indexing_maps = [#map9, #map10, #map], iterator_types = ["parallel", "parallel"]} ins(%204, %expanded_183 : tensor<4x1xi64>, tensor<1x4xi64>) outs(%205 : tensor<4x4xi64>) {
    ^bb0(%in: i64, %in_298: i64, %out: i64):
      %398 = arith.addi %in, %in_298 : i64
      linalg.yield %398 : i64
    } -> tensor<4x4xi64>
    %collapsed_184 = tensor.collapse_shape %206 [[0, 1]] : tensor<4x4xi64> into tensor<16xi64>
    %207 = tensor.empty() : tensor<16xf32>
    %208 = linalg.generic {indexing_maps = [#map8, #map8], iterator_types = ["parallel"]} ins(%collapsed_184 : tensor<16xi64>) outs(%207 : tensor<16xf32>) {
    ^bb0(%in: i64, %out: f32):
      %398 = arith.cmpi slt, %in, %c0_i64 : i64
      %399 = arith.addi %in, %c48_i64 : i64
      %400 = arith.select %398, %399, %in : i64
      %401 = arith.index_cast %400 : i64 to index
      %extracted = tensor.extract %collapsed_181[%401] : tensor<48xf32>
      linalg.yield %extracted : f32
    } -> tensor<16xf32>
    %expanded_185 = tensor.expand_shape %208 [[0, 1]] output_shape [4, 4] : tensor<16xf32> into tensor<4x4xf32>
    %209 = tensor.empty() : tensor<8xi64>
    %210 = linalg.generic {indexing_maps = [#map8], iterator_types = ["parallel"]} outs(%209 : tensor<8xi64>) {
    ^bb0(%out: i64):
      %398 = linalg.index 0 : index
      %399 = arith.index_cast %398 : index to i64
      linalg.yield %399 : i64
    } -> tensor<8xi64>
    %expanded_186 = tensor.expand_shape %210 [[0, 1]] output_shape [8, 1] : tensor<8xi64> into tensor<8x1xi64>
    %211 = tensor.empty() : tensor<8x1xi64>
    %212 = linalg.generic {indexing_maps = [#map, #map], iterator_types = ["parallel", "parallel"]} ins(%expanded_186 : tensor<8x1xi64>) outs(%211 : tensor<8x1xi64>) {
    ^bb0(%in: i64, %out: i64):
      %398 = arith.muli %in, %c4_i64 : i64
      linalg.yield %398 : i64
    } -> tensor<8x1xi64>
    %213 = tensor.empty() : tensor<8x4xi64>
    %214 = linalg.generic {indexing_maps = [#map9, #map10, #map], iterator_types = ["parallel", "parallel"]} ins(%212, %expanded_183 : tensor<8x1xi64>, tensor<1x4xi64>) outs(%213 : tensor<8x4xi64>) {
    ^bb0(%in: i64, %in_298: i64, %out: i64):
      %398 = arith.addi %in, %in_298 : i64
      linalg.yield %398 : i64
    } -> tensor<8x4xi64>
    %collapsed_187 = tensor.collapse_shape %214 [[0, 1]] : tensor<8x4xi64> into tensor<32xi64>
    %215 = tensor.empty() : tensor<32xi64>
    %216 = linalg.generic {indexing_maps = [#map8, #map8], iterator_types = ["parallel"]} ins(%collapsed_187 : tensor<32xi64>) outs(%215 : tensor<32xi64>) {
    ^bb0(%in: i64, %out: i64):
      %398 = arith.addi %in, %c16_i64 : i64
      linalg.yield %398 : i64
    } -> tensor<32xi64>
    %217 = tensor.empty() : tensor<32xf32>
    %218 = linalg.generic {indexing_maps = [#map8, #map8], iterator_types = ["parallel"]} ins(%216 : tensor<32xi64>) outs(%217 : tensor<32xf32>) {
    ^bb0(%in: i64, %out: f32):
      %398 = arith.cmpi slt, %in, %c0_i64 : i64
      %399 = arith.addi %in, %c48_i64 : i64
      %400 = arith.select %398, %399, %in : i64
      %401 = arith.index_cast %400 : i64 to index
      %extracted = tensor.extract %collapsed_181[%401] : tensor<48xf32>
      linalg.yield %extracted : f32
    } -> tensor<32xf32>
    %expanded_188 = tensor.expand_shape %218 [[0, 1]] output_shape [8, 4] : tensor<32xf32> into tensor<8x4xf32>
    %219 = tensor.empty() : tensor<4xf32>
    %220 = linalg.generic {indexing_maps = [#map8, #map8], iterator_types = ["parallel"]} ins(%202 : tensor<4xi64>) outs(%219 : tensor<4xf32>) {
    ^bb0(%in: i64, %out: f32):
      %398 = arith.cmpi slt, %in, %c0_i64 : i64
      %399 = arith.addi %in, %c12_i64 : i64
      %400 = arith.select %398, %399, %in : i64
      %401 = arith.index_cast %400 : i64 to index
      %extracted = tensor.extract %cst_43[%401] : tensor<12xf32>
      linalg.yield %extracted : f32
    } -> tensor<4xf32>
    %221 = linalg.generic {indexing_maps = [#map8, #map8], iterator_types = ["parallel"]} ins(%210 : tensor<8xi64>) outs(%209 : tensor<8xi64>) {
    ^bb0(%in: i64, %out: i64):
      %398 = arith.addi %in, %c4_i64 : i64
      linalg.yield %398 : i64
    } -> tensor<8xi64>
    %222 = tensor.empty() : tensor<8xf32>
    %223 = linalg.generic {indexing_maps = [#map8, #map8], iterator_types = ["parallel"]} ins(%221 : tensor<8xi64>) outs(%222 : tensor<8xf32>) {
    ^bb0(%in: i64, %out: f32):
      %398 = arith.cmpi slt, %in, %c0_i64 : i64
      %399 = arith.addi %in, %c12_i64 : i64
      %400 = arith.select %398, %399, %in : i64
      %401 = arith.index_cast %400 : i64 to index
      %extracted = tensor.extract %cst_43[%401] : tensor<12xf32>
      linalg.yield %extracted : f32
    } -> tensor<8xf32>
    %collapsed_189 = tensor.collapse_shape %transposed_179 [[0], [1, 2]] : tensor<3x1x4xf32> into tensor<3x4xf32>
    %transposed_190 = linalg.transpose ins(%expanded_185 : tensor<4x4xf32>) outs(%38 : tensor<4x4xf32>) permutation = [1, 0] 
    %224 = linalg.matmul ins(%collapsed_189, %transposed_190 : tensor<3x4xf32>, tensor<4x4xf32>) outs(%40 : tensor<3x4xf32>) -> tensor<3x4xf32>
    %225 = linalg.generic {indexing_maps = [#map, #map1, #map], iterator_types = ["parallel", "parallel"]} ins(%224, %220 : tensor<3x4xf32>, tensor<4xf32>) outs(%39 : tensor<3x4xf32>) {
    ^bb0(%in: f32, %in_298: f32, %out: f32):
      %398 = arith.addf %in, %in_298 : f32
      linalg.yield %398 : f32
    } -> tensor<3x4xf32>
    %collapsed_191 = tensor.collapse_shape %transposed_180 [[0], [1, 2]] : tensor<3x1x4xf32> into tensor<3x4xf32>
    %transposed_192 = linalg.transpose ins(%expanded_188 : tensor<8x4xf32>) outs(%66 : tensor<4x8xf32>) permutation = [1, 0] 
    %226 = linalg.matmul ins(%collapsed_191, %transposed_192 : tensor<3x4xf32>, tensor<4x8xf32>) outs(%68 : tensor<3x8xf32>) -> tensor<3x8xf32>
    %227 = linalg.generic {indexing_maps = [#map, #map1, #map], iterator_types = ["parallel", "parallel"]} ins(%226, %223 : tensor<3x8xf32>, tensor<8xf32>) outs(%67 : tensor<3x8xf32>) {
    ^bb0(%in: f32, %in_298: f32, %out: f32):
      %398 = arith.addf %in, %in_298 : f32
      linalg.yield %398 : f32
    } -> tensor<3x8xf32>
    %expanded_193 = tensor.expand_shape %227 [[0, 1], [2, 3, 4]] output_shape [1, 3, 1, 2, 4] : tensor<3x8xf32> into tensor<1x3x1x2x4xf32>
    %228 = tensor.empty() : tensor<2x3x1x1x4xf32>
    %transposed_194 = linalg.transpose ins(%expanded_193 : tensor<1x3x1x2x4xf32>) outs(%228 : tensor<2x3x1x1x4xf32>) permutation = [3, 1, 2, 0, 4] 
    %collapsed_195 = tensor.collapse_shape %transposed_194 [[0], [1], [2, 3], [4]] : tensor<2x3x1x1x4xf32> into tensor<2x3x1x4xf32>
    %extracted_slice_196 = tensor.extract_slice %collapsed_195[0, 0, 0, 0] [1, 3, 1, 4] [1, 1, 1, 1] : tensor<2x3x1x4xf32> to tensor<1x3x1x4xf32>
    %extracted_slice_197 = tensor.extract_slice %collapsed_195[1, 0, 0, 0] [1, 3, 1, 4] [1, 1, 1, 1] : tensor<2x3x1x4xf32> to tensor<1x3x1x4xf32>
    %expanded_198 = tensor.expand_shape %225 [[0], [1, 2]] output_shape [3, 2, 2] : tensor<3x4xf32> into tensor<3x2x2xf32>
    %transposed_199 = linalg.transpose ins(%expanded_198 : tensor<3x2x2xf32>) outs(%7 : tensor<2x3x2xf32>) permutation = [1, 0, 2] 
    %collapsed_200 = tensor.collapse_shape %extracted_slice_196 [[0, 1], [2, 3]] : tensor<1x3x1x4xf32> into tensor<3x4xf32>
    %expanded_201 = tensor.expand_shape %collapsed_200 [[0], [1, 2]] output_shape [3, 2, 2] : tensor<3x4xf32> into tensor<3x2x2xf32>
    %transposed_202 = linalg.transpose ins(%expanded_201 : tensor<3x2x2xf32>) outs(%7 : tensor<2x3x2xf32>) permutation = [1, 0, 2] 
    %collapsed_203 = tensor.collapse_shape %extracted_slice_197 [[0, 1], [2, 3]] : tensor<1x3x1x4xf32> into tensor<3x4xf32>
    %expanded_204 = tensor.expand_shape %collapsed_203 [[0], [1, 2]] output_shape [3, 2, 2] : tensor<3x4xf32> into tensor<3x2x2xf32>
    %transposed_205 = linalg.transpose ins(%expanded_204 : tensor<3x2x2xf32>) outs(%7 : tensor<2x3x2xf32>) permutation = [1, 0, 2] 
    %expanded_206 = tensor.expand_shape %transposed_199 [[0, 1], [2], [3]] output_shape [1, 2, 3, 2] : tensor<2x3x2xf32> into tensor<1x2x3x2xf32>
    %expanded_207 = tensor.expand_shape %transposed_202 [[0, 1], [2], [3]] output_shape [1, 2, 3, 2] : tensor<2x3x2xf32> into tensor<1x2x3x2xf32>
    %229 = linalg.generic {indexing_maps = [#map2, #map2], iterator_types = ["parallel", "parallel", "parallel", "parallel"]} ins(%expanded_206 : tensor<1x2x3x2xf32>) outs(%8 : tensor<1x2x3x2xf32>) {
    ^bb0(%in: f32, %out: f32):
      %398 = arith.truncf %cst_7 : f64 to f32
      %399 = arith.mulf %in, %398 : f32
      linalg.yield %399 : f32
    } -> tensor<1x2x3x2xf32>
    %transposed_208 = linalg.transpose ins(%expanded_207 : tensor<1x2x3x2xf32>) outs(%10 : tensor<1x2x2x3xf32>) permutation = [0, 1, 3, 2] 
    %230 = linalg.generic {indexing_maps = [#map2, #map2], iterator_types = ["parallel", "parallel", "parallel", "parallel"]} ins(%transposed_208 : tensor<1x2x2x3xf32>) outs(%10 : tensor<1x2x2x3xf32>) {
    ^bb0(%in: f32, %out: f32):
      %398 = arith.truncf %cst_7 : f64 to f32
      %399 = arith.mulf %in, %398 : f32
      linalg.yield %399 : f32
    } -> tensor<1x2x2x3xf32>
    %collapsed_209 = tensor.collapse_shape %229 [[0, 1], [2], [3]] : tensor<1x2x3x2xf32> into tensor<2x3x2xf32>
    %collapsed_210 = tensor.collapse_shape %230 [[0, 1], [2], [3]] : tensor<1x2x2x3xf32> into tensor<2x2x3xf32>
    %231 = linalg.batch_matmul ins(%collapsed_209, %collapsed_210 : tensor<2x3x2xf32>, tensor<2x2x3xf32>) outs(%13 : tensor<2x3x3xf32>) -> tensor<2x3x3xf32>
    %expanded_211 = tensor.expand_shape %231 [[0, 1], [2], [3]] output_shape [1, 2, 3, 3] : tensor<2x3x3xf32> into tensor<1x2x3x3xf32>
    %232:2 = linalg.generic {indexing_maps = [#map2, #map3, #map3], iterator_types = ["parallel", "parallel", "parallel", "reduction"]} ins(%expanded_211 : tensor<1x2x3x3xf32>) outs(%18, %16 : tensor<1x2x3xf32>, tensor<1x2x3xi64>) {
    ^bb0(%in: f32, %out: f32, %out_298: i64):
      %398 = linalg.index 3 : index
      %399 = arith.index_cast %398 : index to i64
      %400 = arith.maximumf %in, %out : f32
      %401 = arith.cmpf ogt, %in, %out : f32
      %402 = arith.select %401, %399, %out_298 : i64
      linalg.yield %400, %402 : f32, i64
    } -> (tensor<1x2x3xf32>, tensor<1x2x3xi64>)
    %expanded_212 = tensor.expand_shape %232#0 [[0], [1], [2, 3]] output_shape [1, 2, 3, 1] : tensor<1x2x3xf32> into tensor<1x2x3x1xf32>
    %233 = linalg.generic {indexing_maps = [#map2, #map4, #map2], iterator_types = ["parallel", "parallel", "parallel", "parallel"]} ins(%expanded_211, %expanded_212 : tensor<1x2x3x3xf32>, tensor<1x2x3x1xf32>) outs(%20 : tensor<1x2x3x3xf32>) {
    ^bb0(%in: f32, %in_298: f32, %out: f32):
      %398 = arith.subf %in, %in_298 : f32
      linalg.yield %398 : f32
    } -> tensor<1x2x3x3xf32>
    %234 = linalg.generic {indexing_maps = [#map2, #map2], iterator_types = ["parallel", "parallel", "parallel", "parallel"]} ins(%233 : tensor<1x2x3x3xf32>) outs(%20 : tensor<1x2x3x3xf32>) {
    ^bb0(%in: f32, %out: f32):
      %398 = math.exp %in : f32
      linalg.yield %398 : f32
    } -> tensor<1x2x3x3xf32>
    %235 = linalg.generic {indexing_maps = [#map2, #map4], iterator_types = ["parallel", "parallel", "parallel", "reduction"]} ins(%234 : tensor<1x2x3x3xf32>) outs(%24 : tensor<1x2x3x1xf32>) {
    ^bb0(%in: f32, %out: f32):
      %398 = arith.addf %in, %out : f32
      linalg.yield %398 : f32
    } -> tensor<1x2x3x1xf32>
    %236 = linalg.generic {indexing_maps = [#map2, #map4, #map2], iterator_types = ["parallel", "parallel", "parallel", "parallel"]} ins(%234, %235 : tensor<1x2x3x3xf32>, tensor<1x2x3x1xf32>) outs(%20 : tensor<1x2x3x3xf32>) {
    ^bb0(%in: f32, %in_298: f32, %out: f32):
      %398 = arith.divf %in, %in_298 : f32
      linalg.yield %398 : f32
    } -> tensor<1x2x3x3xf32>
    %237 = linalg.generic {indexing_maps = [#map2, #map2], iterator_types = ["parallel", "parallel", "parallel", "parallel"]} ins(%expanded_211 : tensor<1x2x3x3xf32>) outs(%27 : tensor<1x2x3x3xi1>) {
    ^bb0(%in: f32, %out: i1):
      %398 = arith.extf %in : f32 to f64
      %399 = arith.cmpf oeq, %398, %cst_6 : f64
      linalg.yield %399 : i1
    } -> tensor<1x2x3x3xi1>
    %238 = linalg.generic {indexing_maps = [#map2, #map2], iterator_types = ["parallel", "parallel", "parallel", "parallel"]} ins(%237 : tensor<1x2x3x3xi1>) outs(%27 : tensor<1x2x3x3xi1>) {
    ^bb0(%in: i1, %out: i1):
      %398 = arith.cmpi eq, %in, %false : i1
      linalg.yield %398 : i1
    } -> tensor<1x2x3x3xi1>
    %239 = linalg.generic {indexing_maps = [#map2, #map4], iterator_types = ["parallel", "parallel", "parallel", "reduction"]} ins(%238 : tensor<1x2x3x3xi1>) outs(%31 : tensor<1x2x3x1xi1>) {
    ^bb0(%in: i1, %out: i1):
      %398 = arith.ori %in, %out : i1
      linalg.yield %398 : i1
    } -> tensor<1x2x3x1xi1>
    %240 = linalg.generic {indexing_maps = [#map2, #map2], iterator_types = ["parallel", "parallel", "parallel", "parallel"]} ins(%239 : tensor<1x2x3x1xi1>) outs(%30 : tensor<1x2x3x1xi1>) {
    ^bb0(%in: i1, %out: i1):
      %398 = arith.cmpi eq, %in, %false : i1
      linalg.yield %398 : i1
    } -> tensor<1x2x3x1xi1>
    %241 = linalg.generic {indexing_maps = [#map4, #map2, #map2, #map2], iterator_types = ["parallel", "parallel", "parallel", "parallel"]} ins(%240, %cst_74, %236 : tensor<1x2x3x1xi1>, tensor<1x2x3x3xf32>, tensor<1x2x3x3xf32>) outs(%20 : tensor<1x2x3x3xf32>) {
    ^bb0(%in: i1, %in_298: f32, %in_299: f32, %out: f32):
      %398 = arith.select %in, %in_298, %in_299 : f32
      linalg.yield %398 : f32
    } -> tensor<1x2x3x3xf32>
    %collapsed_213 = tensor.collapse_shape %241 [[0, 1], [2], [3]] : tensor<1x2x3x3xf32> into tensor<2x3x3xf32>
    %242 = linalg.batch_matmul ins(%collapsed_213, %transposed_205 : tensor<2x3x3xf32>, tensor<2x3x2xf32>) outs(%35 : tensor<2x3x2xf32>) -> tensor<2x3x2xf32>
    %expanded_214 = tensor.expand_shape %242 [[0, 1], [2], [3]] output_shape [1, 2, 3, 2] : tensor<2x3x2xf32> into tensor<1x2x3x2xf32>
    %transposed_215 = linalg.transpose ins(%expanded_214 : tensor<1x2x3x2xf32>) outs(%37 : tensor<3x1x2x2xf32>) permutation = [2, 0, 1, 3] 
    %collapsed_216 = tensor.collapse_shape %transposed_215 [[0], [1, 2, 3]] : tensor<3x1x2x2xf32> into tensor<3x4xf32>
    %transposed_217 = linalg.transpose ins(%cst_44 : tensor<4x4xf32>) outs(%38 : tensor<4x4xf32>) permutation = [1, 0] 
    %243 = linalg.matmul ins(%collapsed_216, %transposed_217 : tensor<3x4xf32>, tensor<4x4xf32>) outs(%40 : tensor<3x4xf32>) -> tensor<3x4xf32>
    %244 = linalg.generic {indexing_maps = [#map, #map1, #map], iterator_types = ["parallel", "parallel"]} ins(%243, %cst_45 : tensor<3x4xf32>, tensor<4xf32>) outs(%39 : tensor<3x4xf32>) {
    ^bb0(%in: f32, %in_298: f32, %out: f32):
      %398 = arith.addf %in, %in_298 : f32
      linalg.yield %398 : f32
    } -> tensor<3x4xf32>
    %expanded_218 = tensor.expand_shape %244 [[0], [1, 2]] output_shape [3, 1, 4] : tensor<3x4xf32> into tensor<3x1x4xf32>
    %transposed_219 = linalg.transpose ins(%expanded_218 : tensor<3x1x4xf32>) outs(%43 : tensor<1x3x4xf32>) permutation = [1, 0, 2] 
    %245 = linalg.generic {indexing_maps = [#map5, #map5, #map5], iterator_types = ["parallel", "parallel", "parallel"]} ins(%200, %transposed_219 : tensor<1x3x4xf32>, tensor<1x3x4xf32>) outs(%43 : tensor<1x3x4xf32>) {
    ^bb0(%in: f32, %in_298: f32, %out: f32):
      %398 = arith.addf %in, %in_298 : f32
      linalg.yield %398 : f32
    } -> tensor<1x3x4xf32>
    %246 = linalg.generic {indexing_maps = [#map5, #map5], iterator_types = ["parallel", "parallel", "parallel"]} ins(%245 : tensor<1x3x4xf32>) outs(%45 : tensor<1x3x4xf64>) {
    ^bb0(%in: f32, %out: f64):
      %398 = arith.extf %in : f32 to f64
      linalg.yield %398 : f64
    } -> tensor<1x3x4xf64>
    %247 = linalg.generic {indexing_maps = [#map5, #map6], iterator_types = ["parallel", "parallel", "reduction"]} ins(%246 : tensor<1x3x4xf64>) outs(%48 : tensor<1x3x1xf64>) {
    ^bb0(%in: f64, %out: f64):
      %398 = arith.addf %in, %out : f64
      linalg.yield %398 : f64
    } -> tensor<1x3x1xf64>
    %248 = linalg.generic {indexing_maps = [#map5, #map5], iterator_types = ["parallel", "parallel", "parallel"]} ins(%247 : tensor<1x3x1xf64>) outs(%47 : tensor<1x3x1xf64>) {
    ^bb0(%in: f64, %out: f64):
      %398 = arith.divf %in, %cst_8 : f64
      linalg.yield %398 : f64
    } -> tensor<1x3x1xf64>
    %249 = linalg.generic {indexing_maps = [#map5, #map6, #map5], iterator_types = ["parallel", "parallel", "parallel"]} ins(%246, %248 : tensor<1x3x4xf64>, tensor<1x3x1xf64>) outs(%45 : tensor<1x3x4xf64>) {
    ^bb0(%in: f64, %in_298: f64, %out: f64):
      %398 = arith.subf %in, %in_298 : f64
      linalg.yield %398 : f64
    } -> tensor<1x3x4xf64>
    %250 = linalg.generic {indexing_maps = [#map5, #map5, #map5], iterator_types = ["parallel", "parallel", "parallel"]} ins(%249, %249 : tensor<1x3x4xf64>, tensor<1x3x4xf64>) outs(%45 : tensor<1x3x4xf64>) {
    ^bb0(%in: f64, %in_298: f64, %out: f64):
      %398 = arith.mulf %in, %in_298 : f64
      linalg.yield %398 : f64
    } -> tensor<1x3x4xf64>
    %251 = linalg.generic {indexing_maps = [#map5, #map6], iterator_types = ["parallel", "parallel", "reduction"]} ins(%250 : tensor<1x3x4xf64>) outs(%48 : tensor<1x3x1xf64>) {
    ^bb0(%in: f64, %out: f64):
      %398 = arith.addf %in, %out : f64
      linalg.yield %398 : f64
    } -> tensor<1x3x1xf64>
    %252 = linalg.generic {indexing_maps = [#map5, #map5], iterator_types = ["parallel", "parallel", "parallel"]} ins(%251 : tensor<1x3x1xf64>) outs(%47 : tensor<1x3x1xf64>) {
    ^bb0(%in: f64, %out: f64):
      %398 = arith.divf %in, %cst_8 : f64
      linalg.yield %398 : f64
    } -> tensor<1x3x1xf64>
    %253 = linalg.generic {indexing_maps = [#map5, #map5], iterator_types = ["parallel", "parallel", "parallel"]} ins(%252 : tensor<1x3x1xf64>) outs(%55 : tensor<1x3x1xf32>) {
    ^bb0(%in: f64, %out: f32):
      %398 = arith.truncf %in : f64 to f32
      linalg.yield %398 : f32
    } -> tensor<1x3x1xf32>
    %254 = linalg.generic {indexing_maps = [#map5, #map6], iterator_types = ["parallel", "parallel", "reduction"]} ins(%245 : tensor<1x3x4xf32>) outs(%57 : tensor<1x3x1xf32>) {
    ^bb0(%in: f32, %out: f32):
      %398 = arith.addf %in, %out : f32
      linalg.yield %398 : f32
    } -> tensor<1x3x1xf32>
    %255 = linalg.generic {indexing_maps = [#map5, #map5], iterator_types = ["parallel", "parallel", "parallel"]} ins(%254 : tensor<1x3x1xf32>) outs(%55 : tensor<1x3x1xf32>) {
    ^bb0(%in: f32, %out: f32):
      %398 = arith.divf %in, %cst_9 : f32
      linalg.yield %398 : f32
    } -> tensor<1x3x1xf32>
    %256 = linalg.generic {indexing_maps = [#map5, #map5], iterator_types = ["parallel", "parallel", "parallel"]} ins(%253 : tensor<1x3x1xf32>) outs(%55 : tensor<1x3x1xf32>) {
    ^bb0(%in: f32, %out: f32):
      %398 = arith.truncf %cst_5 : f64 to f32
      %399 = arith.addf %in, %398 : f32
      linalg.yield %399 : f32
    } -> tensor<1x3x1xf32>
    %257 = linalg.generic {indexing_maps = [#map5, #map5], iterator_types = ["parallel", "parallel", "parallel"]} ins(%256 : tensor<1x3x1xf32>) outs(%55 : tensor<1x3x1xf32>) {
    ^bb0(%in: f32, %out: f32):
      %398 = math.rsqrt %in : f32
      linalg.yield %398 : f32
    } -> tensor<1x3x1xf32>
    %258 = linalg.generic {indexing_maps = [#map5, #map6, #map5], iterator_types = ["parallel", "parallel", "parallel"]} ins(%245, %255 : tensor<1x3x4xf32>, tensor<1x3x1xf32>) outs(%43 : tensor<1x3x4xf32>) {
    ^bb0(%in: f32, %in_298: f32, %out: f32):
      %398 = arith.subf %in, %in_298 : f32
      linalg.yield %398 : f32
    } -> tensor<1x3x4xf32>
    %259 = linalg.generic {indexing_maps = [#map5, #map6, #map5], iterator_types = ["parallel", "parallel", "parallel"]} ins(%258, %257 : tensor<1x3x4xf32>, tensor<1x3x1xf32>) outs(%43 : tensor<1x3x4xf32>) {
    ^bb0(%in: f32, %in_298: f32, %out: f32):
      %398 = arith.mulf %in, %in_298 : f32
      linalg.yield %398 : f32
    } -> tensor<1x3x4xf32>
    %260 = linalg.generic {indexing_maps = [#map5, #map7, #map5], iterator_types = ["parallel", "parallel", "parallel"]} ins(%259, %cst_46 : tensor<1x3x4xf32>, tensor<4xf32>) outs(%43 : tensor<1x3x4xf32>) {
    ^bb0(%in: f32, %in_298: f32, %out: f32):
      %398 = arith.mulf %in, %in_298 : f32
      linalg.yield %398 : f32
    } -> tensor<1x3x4xf32>
    %261 = linalg.generic {indexing_maps = [#map5, #map7, #map5], iterator_types = ["parallel", "parallel", "parallel"]} ins(%260, %cst_47 : tensor<1x3x4xf32>, tensor<4xf32>) outs(%43 : tensor<1x3x4xf32>) {
    ^bb0(%in: f32, %in_298: f32, %out: f32):
      %398 = arith.addf %in, %in_298 : f32
      linalg.yield %398 : f32
    } -> tensor<1x3x4xf32>
    %collapsed_220 = tensor.collapse_shape %261 [[0, 1], [2]] : tensor<1x3x4xf32> into tensor<3x4xf32>
    %transposed_221 = linalg.transpose ins(%cst_48 : tensor<8x4xf32>) outs(%66 : tensor<4x8xf32>) permutation = [1, 0] 
    %262 = linalg.matmul ins(%collapsed_220, %transposed_221 : tensor<3x4xf32>, tensor<4x8xf32>) outs(%68 : tensor<3x8xf32>) -> tensor<3x8xf32>
    %263 = linalg.generic {indexing_maps = [#map, #map1, #map], iterator_types = ["parallel", "parallel"]} ins(%262, %cst_49 : tensor<3x8xf32>, tensor<8xf32>) outs(%67 : tensor<3x8xf32>) {
    ^bb0(%in: f32, %in_298: f32, %out: f32):
      %398 = arith.addf %in, %in_298 : f32
      linalg.yield %398 : f32
    } -> tensor<3x8xf32>
    %expanded_222 = tensor.expand_shape %263 [[0, 1], [2]] output_shape [1, 3, 8] : tensor<3x8xf32> into tensor<1x3x8xf32>
    %264 = linalg.generic {indexing_maps = [#map5, #map5], iterator_types = ["parallel", "parallel", "parallel"]} ins(%expanded_222 : tensor<1x3x8xf32>) outs(%71 : tensor<1x3x8xf32>) {
    ^bb0(%in: f32, %out: f32):
      %398 = arith.divf %in, %cst_10 : f32
      %399 = math.erf %398 : f32
      %400 = arith.addf %399, %cst_3 : f32
      %401 = arith.mulf %400, %cst_4 : f32
      %402 = arith.mulf %in, %401 : f32
      linalg.yield %402 : f32
    } -> tensor<1x3x8xf32>
    %collapsed_223 = tensor.collapse_shape %264 [[0, 1], [2]] : tensor<1x3x8xf32> into tensor<3x8xf32>
    %transposed_224 = linalg.transpose ins(%cst_50 : tensor<4x8xf32>) outs(%73 : tensor<8x4xf32>) permutation = [1, 0] 
    %265 = linalg.matmul ins(%collapsed_223, %transposed_224 : tensor<3x8xf32>, tensor<8x4xf32>) outs(%40 : tensor<3x4xf32>) -> tensor<3x4xf32>
    %266 = linalg.generic {indexing_maps = [#map, #map1, #map], iterator_types = ["parallel", "parallel"]} ins(%265, %cst_51 : tensor<3x4xf32>, tensor<4xf32>) outs(%39 : tensor<3x4xf32>) {
    ^bb0(%in: f32, %in_298: f32, %out: f32):
      %398 = arith.addf %in, %in_298 : f32
      linalg.yield %398 : f32
    } -> tensor<3x4xf32>
    %expanded_225 = tensor.expand_shape %266 [[0, 1], [2]] output_shape [1, 3, 4] : tensor<3x4xf32> into tensor<1x3x4xf32>
    %267 = linalg.generic {indexing_maps = [#map5, #map5, #map5], iterator_types = ["parallel", "parallel", "parallel"]} ins(%261, %expanded_225 : tensor<1x3x4xf32>, tensor<1x3x4xf32>) outs(%43 : tensor<1x3x4xf32>) {
    ^bb0(%in: f32, %in_298: f32, %out: f32):
      %398 = arith.addf %in, %in_298 : f32
      linalg.yield %398 : f32
    } -> tensor<1x3x4xf32>
    %268 = linalg.generic {indexing_maps = [#map5, #map5], iterator_types = ["parallel", "parallel", "parallel"]} ins(%267 : tensor<1x3x4xf32>) outs(%45 : tensor<1x3x4xf64>) {
    ^bb0(%in: f32, %out: f64):
      %398 = arith.extf %in : f32 to f64
      linalg.yield %398 : f64
    } -> tensor<1x3x4xf64>
    %269 = linalg.generic {indexing_maps = [#map5, #map6], iterator_types = ["parallel", "parallel", "reduction"]} ins(%268 : tensor<1x3x4xf64>) outs(%48 : tensor<1x3x1xf64>) {
    ^bb0(%in: f64, %out: f64):
      %398 = arith.addf %in, %out : f64
      linalg.yield %398 : f64
    } -> tensor<1x3x1xf64>
    %270 = linalg.generic {indexing_maps = [#map5, #map5], iterator_types = ["parallel", "parallel", "parallel"]} ins(%269 : tensor<1x3x1xf64>) outs(%47 : tensor<1x3x1xf64>) {
    ^bb0(%in: f64, %out: f64):
      %398 = arith.divf %in, %cst_8 : f64
      linalg.yield %398 : f64
    } -> tensor<1x3x1xf64>
    %271 = linalg.generic {indexing_maps = [#map5, #map6, #map5], iterator_types = ["parallel", "parallel", "parallel"]} ins(%268, %270 : tensor<1x3x4xf64>, tensor<1x3x1xf64>) outs(%45 : tensor<1x3x4xf64>) {
    ^bb0(%in: f64, %in_298: f64, %out: f64):
      %398 = arith.subf %in, %in_298 : f64
      linalg.yield %398 : f64
    } -> tensor<1x3x4xf64>
    %272 = linalg.generic {indexing_maps = [#map5, #map5, #map5], iterator_types = ["parallel", "parallel", "parallel"]} ins(%271, %271 : tensor<1x3x4xf64>, tensor<1x3x4xf64>) outs(%45 : tensor<1x3x4xf64>) {
    ^bb0(%in: f64, %in_298: f64, %out: f64):
      %398 = arith.mulf %in, %in_298 : f64
      linalg.yield %398 : f64
    } -> tensor<1x3x4xf64>
    %273 = linalg.generic {indexing_maps = [#map5, #map6], iterator_types = ["parallel", "parallel", "reduction"]} ins(%272 : tensor<1x3x4xf64>) outs(%48 : tensor<1x3x1xf64>) {
    ^bb0(%in: f64, %out: f64):
      %398 = arith.addf %in, %out : f64
      linalg.yield %398 : f64
    } -> tensor<1x3x1xf64>
    %274 = linalg.generic {indexing_maps = [#map5, #map5], iterator_types = ["parallel", "parallel", "parallel"]} ins(%273 : tensor<1x3x1xf64>) outs(%47 : tensor<1x3x1xf64>) {
    ^bb0(%in: f64, %out: f64):
      %398 = arith.divf %in, %cst_8 : f64
      linalg.yield %398 : f64
    } -> tensor<1x3x1xf64>
    %275 = linalg.generic {indexing_maps = [#map5, #map5], iterator_types = ["parallel", "parallel", "parallel"]} ins(%274 : tensor<1x3x1xf64>) outs(%55 : tensor<1x3x1xf32>) {
    ^bb0(%in: f64, %out: f32):
      %398 = arith.truncf %in : f64 to f32
      linalg.yield %398 : f32
    } -> tensor<1x3x1xf32>
    %276 = linalg.generic {indexing_maps = [#map5, #map6], iterator_types = ["parallel", "parallel", "reduction"]} ins(%267 : tensor<1x3x4xf32>) outs(%57 : tensor<1x3x1xf32>) {
    ^bb0(%in: f32, %out: f32):
      %398 = arith.addf %in, %out : f32
      linalg.yield %398 : f32
    } -> tensor<1x3x1xf32>
    %277 = linalg.generic {indexing_maps = [#map5, #map5], iterator_types = ["parallel", "parallel", "parallel"]} ins(%276 : tensor<1x3x1xf32>) outs(%55 : tensor<1x3x1xf32>) {
    ^bb0(%in: f32, %out: f32):
      %398 = arith.divf %in, %cst_9 : f32
      linalg.yield %398 : f32
    } -> tensor<1x3x1xf32>
    %278 = linalg.generic {indexing_maps = [#map5, #map5], iterator_types = ["parallel", "parallel", "parallel"]} ins(%275 : tensor<1x3x1xf32>) outs(%55 : tensor<1x3x1xf32>) {
    ^bb0(%in: f32, %out: f32):
      %398 = arith.truncf %cst_5 : f64 to f32
      %399 = arith.addf %in, %398 : f32
      linalg.yield %399 : f32
    } -> tensor<1x3x1xf32>
    %279 = linalg.generic {indexing_maps = [#map5, #map5], iterator_types = ["parallel", "parallel", "parallel"]} ins(%278 : tensor<1x3x1xf32>) outs(%55 : tensor<1x3x1xf32>) {
    ^bb0(%in: f32, %out: f32):
      %398 = math.rsqrt %in : f32
      linalg.yield %398 : f32
    } -> tensor<1x3x1xf32>
    %280 = linalg.generic {indexing_maps = [#map5, #map6, #map5], iterator_types = ["parallel", "parallel", "parallel"]} ins(%267, %277 : tensor<1x3x4xf32>, tensor<1x3x1xf32>) outs(%43 : tensor<1x3x4xf32>) {
    ^bb0(%in: f32, %in_298: f32, %out: f32):
      %398 = arith.subf %in, %in_298 : f32
      linalg.yield %398 : f32
    } -> tensor<1x3x4xf32>
    %281 = linalg.generic {indexing_maps = [#map5, #map6, #map5], iterator_types = ["parallel", "parallel", "parallel"]} ins(%280, %279 : tensor<1x3x4xf32>, tensor<1x3x1xf32>) outs(%43 : tensor<1x3x4xf32>) {
    ^bb0(%in: f32, %in_298: f32, %out: f32):
      %398 = arith.mulf %in, %in_298 : f32
      linalg.yield %398 : f32
    } -> tensor<1x3x4xf32>
    %282 = linalg.generic {indexing_maps = [#map5, #map7, #map5], iterator_types = ["parallel", "parallel", "parallel"]} ins(%281, %cst_52 : tensor<1x3x4xf32>, tensor<4xf32>) outs(%43 : tensor<1x3x4xf32>) {
    ^bb0(%in: f32, %in_298: f32, %out: f32):
      %398 = arith.mulf %in, %in_298 : f32
      linalg.yield %398 : f32
    } -> tensor<1x3x4xf32>
    %283 = linalg.generic {indexing_maps = [#map5, #map7, #map5], iterator_types = ["parallel", "parallel", "parallel"]} ins(%282, %cst_53 : tensor<1x3x4xf32>, tensor<4xf32>) outs(%43 : tensor<1x3x4xf32>) {
    ^bb0(%in: f32, %in_298: f32, %out: f32):
      %398 = arith.addf %in, %in_298 : f32
      linalg.yield %398 : f32
    } -> tensor<1x3x4xf32>
    %transposed_226 = linalg.transpose ins(%283 : tensor<1x3x4xf32>) outs(%0 : tensor<3x1x4xf32>) permutation = [1, 0, 2] 
    %collapsed_227 = tensor.collapse_shape %transposed_226 [[0], [1, 2]] : tensor<3x1x4xf32> into tensor<3x4xf32>
    %transposed_228 = linalg.transpose ins(%cst_54 : tensor<12x4xf32>) outs(%1 : tensor<4x12xf32>) permutation = [1, 0] 
    %284 = linalg.matmul ins(%collapsed_227, %transposed_228 : tensor<3x4xf32>, tensor<4x12xf32>) outs(%3 : tensor<3x12xf32>) -> tensor<3x12xf32>
    %285 = linalg.generic {indexing_maps = [#map, #map1, #map], iterator_types = ["parallel", "parallel"]} ins(%284, %cst_55 : tensor<3x12xf32>, tensor<12xf32>) outs(%2 : tensor<3x12xf32>) {
    ^bb0(%in: f32, %in_298: f32, %out: f32):
      %398 = arith.addf %in, %in_298 : f32
      linalg.yield %398 : f32
    } -> tensor<3x12xf32>
    %expanded_229 = tensor.expand_shape %285 [[0, 1], [2, 3, 4]] output_shape [1, 3, 1, 3, 4] : tensor<3x12xf32> into tensor<1x3x1x3x4xf32>
    %transposed_230 = linalg.transpose ins(%expanded_229 : tensor<1x3x1x3x4xf32>) outs(%6 : tensor<3x3x1x1x4xf32>) permutation = [3, 1, 2, 0, 4] 
    %collapsed_231 = tensor.collapse_shape %transposed_230 [[0], [1], [2, 3], [4]] : tensor<3x3x1x1x4xf32> into tensor<3x3x1x4xf32>
    %extracted_slice_232 = tensor.extract_slice %collapsed_231[0, 0, 0, 0] [1, 3, 1, 4] [1, 1, 1, 1] : tensor<3x3x1x4xf32> to tensor<1x3x1x4xf32>
    %extracted_slice_233 = tensor.extract_slice %collapsed_231[1, 0, 0, 0] [1, 3, 1, 4] [1, 1, 1, 1] : tensor<3x3x1x4xf32> to tensor<1x3x1x4xf32>
    %extracted_slice_234 = tensor.extract_slice %collapsed_231[2, 0, 0, 0] [1, 3, 1, 4] [1, 1, 1, 1] : tensor<3x3x1x4xf32> to tensor<1x3x1x4xf32>
    %collapsed_235 = tensor.collapse_shape %extracted_slice_232 [[0, 1], [2, 3]] : tensor<1x3x1x4xf32> into tensor<3x4xf32>
    %expanded_236 = tensor.expand_shape %collapsed_235 [[0], [1, 2]] output_shape [3, 2, 2] : tensor<3x4xf32> into tensor<3x2x2xf32>
    %transposed_237 = linalg.transpose ins(%expanded_236 : tensor<3x2x2xf32>) outs(%7 : tensor<2x3x2xf32>) permutation = [1, 0, 2] 
    %collapsed_238 = tensor.collapse_shape %extracted_slice_233 [[0, 1], [2, 3]] : tensor<1x3x1x4xf32> into tensor<3x4xf32>
    %expanded_239 = tensor.expand_shape %collapsed_238 [[0], [1, 2]] output_shape [3, 2, 2] : tensor<3x4xf32> into tensor<3x2x2xf32>
    %transposed_240 = linalg.transpose ins(%expanded_239 : tensor<3x2x2xf32>) outs(%7 : tensor<2x3x2xf32>) permutation = [1, 0, 2] 
    %collapsed_241 = tensor.collapse_shape %extracted_slice_234 [[0, 1], [2, 3]] : tensor<1x3x1x4xf32> into tensor<3x4xf32>
    %expanded_242 = tensor.expand_shape %collapsed_241 [[0], [1, 2]] output_shape [3, 2, 2] : tensor<3x4xf32> into tensor<3x2x2xf32>
    %transposed_243 = linalg.transpose ins(%expanded_242 : tensor<3x2x2xf32>) outs(%7 : tensor<2x3x2xf32>) permutation = [1, 0, 2] 
    %expanded_244 = tensor.expand_shape %transposed_237 [[0, 1], [2], [3]] output_shape [1, 2, 3, 2] : tensor<2x3x2xf32> into tensor<1x2x3x2xf32>
    %expanded_245 = tensor.expand_shape %transposed_240 [[0, 1], [2], [3]] output_shape [1, 2, 3, 2] : tensor<2x3x2xf32> into tensor<1x2x3x2xf32>
    %286 = linalg.generic {indexing_maps = [#map2, #map2], iterator_types = ["parallel", "parallel", "parallel", "parallel"]} ins(%expanded_244 : tensor<1x2x3x2xf32>) outs(%8 : tensor<1x2x3x2xf32>) {
    ^bb0(%in: f32, %out: f32):
      %398 = arith.truncf %cst_7 : f64 to f32
      %399 = arith.mulf %in, %398 : f32
      linalg.yield %399 : f32
    } -> tensor<1x2x3x2xf32>
    %transposed_246 = linalg.transpose ins(%expanded_245 : tensor<1x2x3x2xf32>) outs(%10 : tensor<1x2x2x3xf32>) permutation = [0, 1, 3, 2] 
    %287 = linalg.generic {indexing_maps = [#map2, #map2], iterator_types = ["parallel", "parallel", "parallel", "parallel"]} ins(%transposed_246 : tensor<1x2x2x3xf32>) outs(%10 : tensor<1x2x2x3xf32>) {
    ^bb0(%in: f32, %out: f32):
      %398 = arith.truncf %cst_7 : f64 to f32
      %399 = arith.mulf %in, %398 : f32
      linalg.yield %399 : f32
    } -> tensor<1x2x2x3xf32>
    %collapsed_247 = tensor.collapse_shape %286 [[0, 1], [2], [3]] : tensor<1x2x3x2xf32> into tensor<2x3x2xf32>
    %collapsed_248 = tensor.collapse_shape %287 [[0, 1], [2], [3]] : tensor<1x2x2x3xf32> into tensor<2x2x3xf32>
    %288 = linalg.batch_matmul ins(%collapsed_247, %collapsed_248 : tensor<2x3x2xf32>, tensor<2x2x3xf32>) outs(%13 : tensor<2x3x3xf32>) -> tensor<2x3x3xf32>
    %expanded_249 = tensor.expand_shape %288 [[0, 1], [2], [3]] output_shape [1, 2, 3, 3] : tensor<2x3x3xf32> into tensor<1x2x3x3xf32>
    %289:2 = linalg.generic {indexing_maps = [#map2, #map3, #map3], iterator_types = ["parallel", "parallel", "parallel", "reduction"]} ins(%expanded_249 : tensor<1x2x3x3xf32>) outs(%18, %16 : tensor<1x2x3xf32>, tensor<1x2x3xi64>) {
    ^bb0(%in: f32, %out: f32, %out_298: i64):
      %398 = linalg.index 3 : index
      %399 = arith.index_cast %398 : index to i64
      %400 = arith.maximumf %in, %out : f32
      %401 = arith.cmpf ogt, %in, %out : f32
      %402 = arith.select %401, %399, %out_298 : i64
      linalg.yield %400, %402 : f32, i64
    } -> (tensor<1x2x3xf32>, tensor<1x2x3xi64>)
    %expanded_250 = tensor.expand_shape %289#0 [[0], [1], [2, 3]] output_shape [1, 2, 3, 1] : tensor<1x2x3xf32> into tensor<1x2x3x1xf32>
    %290 = linalg.generic {indexing_maps = [#map2, #map4, #map2], iterator_types = ["parallel", "parallel", "parallel", "parallel"]} ins(%expanded_249, %expanded_250 : tensor<1x2x3x3xf32>, tensor<1x2x3x1xf32>) outs(%20 : tensor<1x2x3x3xf32>) {
    ^bb0(%in: f32, %in_298: f32, %out: f32):
      %398 = arith.subf %in, %in_298 : f32
      linalg.yield %398 : f32
    } -> tensor<1x2x3x3xf32>
    %291 = linalg.generic {indexing_maps = [#map2, #map2], iterator_types = ["parallel", "parallel", "parallel", "parallel"]} ins(%290 : tensor<1x2x3x3xf32>) outs(%20 : tensor<1x2x3x3xf32>) {
    ^bb0(%in: f32, %out: f32):
      %398 = math.exp %in : f32
      linalg.yield %398 : f32
    } -> tensor<1x2x3x3xf32>
    %292 = linalg.generic {indexing_maps = [#map2, #map4], iterator_types = ["parallel", "parallel", "parallel", "reduction"]} ins(%291 : tensor<1x2x3x3xf32>) outs(%24 : tensor<1x2x3x1xf32>) {
    ^bb0(%in: f32, %out: f32):
      %398 = arith.addf %in, %out : f32
      linalg.yield %398 : f32
    } -> tensor<1x2x3x1xf32>
    %293 = linalg.generic {indexing_maps = [#map2, #map4, #map2], iterator_types = ["parallel", "parallel", "parallel", "parallel"]} ins(%291, %292 : tensor<1x2x3x3xf32>, tensor<1x2x3x1xf32>) outs(%20 : tensor<1x2x3x3xf32>) {
    ^bb0(%in: f32, %in_298: f32, %out: f32):
      %398 = arith.divf %in, %in_298 : f32
      linalg.yield %398 : f32
    } -> tensor<1x2x3x3xf32>
    %294 = linalg.generic {indexing_maps = [#map2, #map2], iterator_types = ["parallel", "parallel", "parallel", "parallel"]} ins(%expanded_249 : tensor<1x2x3x3xf32>) outs(%27 : tensor<1x2x3x3xi1>) {
    ^bb0(%in: f32, %out: i1):
      %398 = arith.extf %in : f32 to f64
      %399 = arith.cmpf oeq, %398, %cst_6 : f64
      linalg.yield %399 : i1
    } -> tensor<1x2x3x3xi1>
    %295 = linalg.generic {indexing_maps = [#map2, #map2], iterator_types = ["parallel", "parallel", "parallel", "parallel"]} ins(%294 : tensor<1x2x3x3xi1>) outs(%27 : tensor<1x2x3x3xi1>) {
    ^bb0(%in: i1, %out: i1):
      %398 = arith.cmpi eq, %in, %false : i1
      linalg.yield %398 : i1
    } -> tensor<1x2x3x3xi1>
    %296 = linalg.generic {indexing_maps = [#map2, #map4], iterator_types = ["parallel", "parallel", "parallel", "reduction"]} ins(%295 : tensor<1x2x3x3xi1>) outs(%31 : tensor<1x2x3x1xi1>) {
    ^bb0(%in: i1, %out: i1):
      %398 = arith.ori %in, %out : i1
      linalg.yield %398 : i1
    } -> tensor<1x2x3x1xi1>
    %297 = linalg.generic {indexing_maps = [#map2, #map2], iterator_types = ["parallel", "parallel", "parallel", "parallel"]} ins(%296 : tensor<1x2x3x1xi1>) outs(%30 : tensor<1x2x3x1xi1>) {
    ^bb0(%in: i1, %out: i1):
      %398 = arith.cmpi eq, %in, %false : i1
      linalg.yield %398 : i1
    } -> tensor<1x2x3x1xi1>
    %298 = linalg.generic {indexing_maps = [#map4, #map2, #map2, #map2], iterator_types = ["parallel", "parallel", "parallel", "parallel"]} ins(%297, %cst_74, %293 : tensor<1x2x3x1xi1>, tensor<1x2x3x3xf32>, tensor<1x2x3x3xf32>) outs(%20 : tensor<1x2x3x3xf32>) {
    ^bb0(%in: i1, %in_298: f32, %in_299: f32, %out: f32):
      %398 = arith.select %in, %in_298, %in_299 : f32
      linalg.yield %398 : f32
    } -> tensor<1x2x3x3xf32>
    %collapsed_251 = tensor.collapse_shape %298 [[0, 1], [2], [3]] : tensor<1x2x3x3xf32> into tensor<2x3x3xf32>
    %299 = linalg.batch_matmul ins(%collapsed_251, %transposed_243 : tensor<2x3x3xf32>, tensor<2x3x2xf32>) outs(%35 : tensor<2x3x2xf32>) -> tensor<2x3x2xf32>
    %expanded_252 = tensor.expand_shape %299 [[0, 1], [2], [3]] output_shape [1, 2, 3, 2] : tensor<2x3x2xf32> into tensor<1x2x3x2xf32>
    %transposed_253 = linalg.transpose ins(%expanded_252 : tensor<1x2x3x2xf32>) outs(%37 : tensor<3x1x2x2xf32>) permutation = [2, 0, 1, 3] 
    %collapsed_254 = tensor.collapse_shape %transposed_253 [[0], [1, 2, 3]] : tensor<3x1x2x2xf32> into tensor<3x4xf32>
    %transposed_255 = linalg.transpose ins(%cst_56 : tensor<4x4xf32>) outs(%38 : tensor<4x4xf32>) permutation = [1, 0] 
    %300 = linalg.matmul ins(%collapsed_254, %transposed_255 : tensor<3x4xf32>, tensor<4x4xf32>) outs(%40 : tensor<3x4xf32>) -> tensor<3x4xf32>
    %301 = linalg.generic {indexing_maps = [#map, #map1, #map], iterator_types = ["parallel", "parallel"]} ins(%300, %cst_57 : tensor<3x4xf32>, tensor<4xf32>) outs(%39 : tensor<3x4xf32>) {
    ^bb0(%in: f32, %in_298: f32, %out: f32):
      %398 = arith.addf %in, %in_298 : f32
      linalg.yield %398 : f32
    } -> tensor<3x4xf32>
    %expanded_256 = tensor.expand_shape %301 [[0], [1, 2]] output_shape [3, 1, 4] : tensor<3x4xf32> into tensor<3x1x4xf32>
    %transposed_257 = linalg.transpose ins(%expanded_256 : tensor<3x1x4xf32>) outs(%43 : tensor<1x3x4xf32>) permutation = [1, 0, 2] 
    %302 = linalg.generic {indexing_maps = [#map5, #map5, #map5], iterator_types = ["parallel", "parallel", "parallel"]} ins(%283, %transposed_257 : tensor<1x3x4xf32>, tensor<1x3x4xf32>) outs(%43 : tensor<1x3x4xf32>) {
    ^bb0(%in: f32, %in_298: f32, %out: f32):
      %398 = arith.addf %in, %in_298 : f32
      linalg.yield %398 : f32
    } -> tensor<1x3x4xf32>
    %303 = linalg.generic {indexing_maps = [#map5, #map5], iterator_types = ["parallel", "parallel", "parallel"]} ins(%302 : tensor<1x3x4xf32>) outs(%45 : tensor<1x3x4xf64>) {
    ^bb0(%in: f32, %out: f64):
      %398 = arith.extf %in : f32 to f64
      linalg.yield %398 : f64
    } -> tensor<1x3x4xf64>
    %304 = linalg.generic {indexing_maps = [#map5, #map6], iterator_types = ["parallel", "parallel", "reduction"]} ins(%303 : tensor<1x3x4xf64>) outs(%48 : tensor<1x3x1xf64>) {
    ^bb0(%in: f64, %out: f64):
      %398 = arith.addf %in, %out : f64
      linalg.yield %398 : f64
    } -> tensor<1x3x1xf64>
    %305 = linalg.generic {indexing_maps = [#map5, #map5], iterator_types = ["parallel", "parallel", "parallel"]} ins(%304 : tensor<1x3x1xf64>) outs(%47 : tensor<1x3x1xf64>) {
    ^bb0(%in: f64, %out: f64):
      %398 = arith.divf %in, %cst_8 : f64
      linalg.yield %398 : f64
    } -> tensor<1x3x1xf64>
    %306 = linalg.generic {indexing_maps = [#map5, #map6, #map5], iterator_types = ["parallel", "parallel", "parallel"]} ins(%303, %305 : tensor<1x3x4xf64>, tensor<1x3x1xf64>) outs(%45 : tensor<1x3x4xf64>) {
    ^bb0(%in: f64, %in_298: f64, %out: f64):
      %398 = arith.subf %in, %in_298 : f64
      linalg.yield %398 : f64
    } -> tensor<1x3x4xf64>
    %307 = linalg.generic {indexing_maps = [#map5, #map5, #map5], iterator_types = ["parallel", "parallel", "parallel"]} ins(%306, %306 : tensor<1x3x4xf64>, tensor<1x3x4xf64>) outs(%45 : tensor<1x3x4xf64>) {
    ^bb0(%in: f64, %in_298: f64, %out: f64):
      %398 = arith.mulf %in, %in_298 : f64
      linalg.yield %398 : f64
    } -> tensor<1x3x4xf64>
    %308 = linalg.generic {indexing_maps = [#map5, #map6], iterator_types = ["parallel", "parallel", "reduction"]} ins(%307 : tensor<1x3x4xf64>) outs(%48 : tensor<1x3x1xf64>) {
    ^bb0(%in: f64, %out: f64):
      %398 = arith.addf %in, %out : f64
      linalg.yield %398 : f64
    } -> tensor<1x3x1xf64>
    %309 = linalg.generic {indexing_maps = [#map5, #map5], iterator_types = ["parallel", "parallel", "parallel"]} ins(%308 : tensor<1x3x1xf64>) outs(%47 : tensor<1x3x1xf64>) {
    ^bb0(%in: f64, %out: f64):
      %398 = arith.divf %in, %cst_8 : f64
      linalg.yield %398 : f64
    } -> tensor<1x3x1xf64>
    %310 = linalg.generic {indexing_maps = [#map5, #map5], iterator_types = ["parallel", "parallel", "parallel"]} ins(%309 : tensor<1x3x1xf64>) outs(%55 : tensor<1x3x1xf32>) {
    ^bb0(%in: f64, %out: f32):
      %398 = arith.truncf %in : f64 to f32
      linalg.yield %398 : f32
    } -> tensor<1x3x1xf32>
    %311 = linalg.generic {indexing_maps = [#map5, #map6], iterator_types = ["parallel", "parallel", "reduction"]} ins(%302 : tensor<1x3x4xf32>) outs(%57 : tensor<1x3x1xf32>) {
    ^bb0(%in: f32, %out: f32):
      %398 = arith.addf %in, %out : f32
      linalg.yield %398 : f32
    } -> tensor<1x3x1xf32>
    %312 = linalg.generic {indexing_maps = [#map5, #map5], iterator_types = ["parallel", "parallel", "parallel"]} ins(%311 : tensor<1x3x1xf32>) outs(%55 : tensor<1x3x1xf32>) {
    ^bb0(%in: f32, %out: f32):
      %398 = arith.divf %in, %cst_9 : f32
      linalg.yield %398 : f32
    } -> tensor<1x3x1xf32>
    %313 = linalg.generic {indexing_maps = [#map5, #map5], iterator_types = ["parallel", "parallel", "parallel"]} ins(%310 : tensor<1x3x1xf32>) outs(%55 : tensor<1x3x1xf32>) {
    ^bb0(%in: f32, %out: f32):
      %398 = arith.truncf %cst_5 : f64 to f32
      %399 = arith.addf %in, %398 : f32
      linalg.yield %399 : f32
    } -> tensor<1x3x1xf32>
    %314 = linalg.generic {indexing_maps = [#map5, #map5], iterator_types = ["parallel", "parallel", "parallel"]} ins(%313 : tensor<1x3x1xf32>) outs(%55 : tensor<1x3x1xf32>) {
    ^bb0(%in: f32, %out: f32):
      %398 = math.rsqrt %in : f32
      linalg.yield %398 : f32
    } -> tensor<1x3x1xf32>
    %315 = linalg.generic {indexing_maps = [#map5, #map6, #map5], iterator_types = ["parallel", "parallel", "parallel"]} ins(%302, %312 : tensor<1x3x4xf32>, tensor<1x3x1xf32>) outs(%43 : tensor<1x3x4xf32>) {
    ^bb0(%in: f32, %in_298: f32, %out: f32):
      %398 = arith.subf %in, %in_298 : f32
      linalg.yield %398 : f32
    } -> tensor<1x3x4xf32>
    %316 = linalg.generic {indexing_maps = [#map5, #map6, #map5], iterator_types = ["parallel", "parallel", "parallel"]} ins(%315, %314 : tensor<1x3x4xf32>, tensor<1x3x1xf32>) outs(%43 : tensor<1x3x4xf32>) {
    ^bb0(%in: f32, %in_298: f32, %out: f32):
      %398 = arith.mulf %in, %in_298 : f32
      linalg.yield %398 : f32
    } -> tensor<1x3x4xf32>
    %317 = linalg.generic {indexing_maps = [#map5, #map7, #map5], iterator_types = ["parallel", "parallel", "parallel"]} ins(%316, %cst_58 : tensor<1x3x4xf32>, tensor<4xf32>) outs(%43 : tensor<1x3x4xf32>) {
    ^bb0(%in: f32, %in_298: f32, %out: f32):
      %398 = arith.mulf %in, %in_298 : f32
      linalg.yield %398 : f32
    } -> tensor<1x3x4xf32>
    %318 = linalg.generic {indexing_maps = [#map5, #map7, #map5], iterator_types = ["parallel", "parallel", "parallel"]} ins(%317, %cst_59 : tensor<1x3x4xf32>, tensor<4xf32>) outs(%43 : tensor<1x3x4xf32>) {
    ^bb0(%in: f32, %in_298: f32, %out: f32):
      %398 = arith.addf %in, %in_298 : f32
      linalg.yield %398 : f32
    } -> tensor<1x3x4xf32>
    %transposed_258 = linalg.transpose ins(%318 : tensor<1x3x4xf32>) outs(%0 : tensor<3x1x4xf32>) permutation = [1, 0, 2] 
    %collapsed_259 = tensor.collapse_shape %cst_60 [[0, 1]] : tensor<12x4xf32> into tensor<48xf32>
    %319 = linalg.generic {indexing_maps = [#map8, #map8], iterator_types = ["parallel"]} ins(%collapsed_184 : tensor<16xi64>) outs(%207 : tensor<16xf32>) {
    ^bb0(%in: i64, %out: f32):
      %398 = arith.cmpi slt, %in, %c0_i64 : i64
      %399 = arith.addi %in, %c48_i64 : i64
      %400 = arith.select %398, %399, %in : i64
      %401 = arith.index_cast %400 : i64 to index
      %extracted = tensor.extract %collapsed_259[%401] : tensor<48xf32>
      linalg.yield %extracted : f32
    } -> tensor<16xf32>
    %expanded_260 = tensor.expand_shape %319 [[0, 1]] output_shape [4, 4] : tensor<16xf32> into tensor<4x4xf32>
    %320 = linalg.generic {indexing_maps = [#map8, #map8], iterator_types = ["parallel"]} ins(%216 : tensor<32xi64>) outs(%217 : tensor<32xf32>) {
    ^bb0(%in: i64, %out: f32):
      %398 = arith.cmpi slt, %in, %c0_i64 : i64
      %399 = arith.addi %in, %c48_i64 : i64
      %400 = arith.select %398, %399, %in : i64
      %401 = arith.index_cast %400 : i64 to index
      %extracted = tensor.extract %collapsed_259[%401] : tensor<48xf32>
      linalg.yield %extracted : f32
    } -> tensor<32xf32>
    %expanded_261 = tensor.expand_shape %320 [[0, 1]] output_shape [8, 4] : tensor<32xf32> into tensor<8x4xf32>
    %321 = linalg.generic {indexing_maps = [#map8, #map8], iterator_types = ["parallel"]} ins(%202 : tensor<4xi64>) outs(%219 : tensor<4xf32>) {
    ^bb0(%in: i64, %out: f32):
      %398 = arith.cmpi slt, %in, %c0_i64 : i64
      %399 = arith.addi %in, %c12_i64 : i64
      %400 = arith.select %398, %399, %in : i64
      %401 = arith.index_cast %400 : i64 to index
      %extracted = tensor.extract %cst_61[%401] : tensor<12xf32>
      linalg.yield %extracted : f32
    } -> tensor<4xf32>
    %322 = linalg.generic {indexing_maps = [#map8, #map8], iterator_types = ["parallel"]} ins(%221 : tensor<8xi64>) outs(%222 : tensor<8xf32>) {
    ^bb0(%in: i64, %out: f32):
      %398 = arith.cmpi slt, %in, %c0_i64 : i64
      %399 = arith.addi %in, %c12_i64 : i64
      %400 = arith.select %398, %399, %in : i64
      %401 = arith.index_cast %400 : i64 to index
      %extracted = tensor.extract %cst_61[%401] : tensor<12xf32>
      linalg.yield %extracted : f32
    } -> tensor<8xf32>
    %collapsed_262 = tensor.collapse_shape %transposed_258 [[0], [1, 2]] : tensor<3x1x4xf32> into tensor<3x4xf32>
    %transposed_263 = linalg.transpose ins(%expanded_260 : tensor<4x4xf32>) outs(%38 : tensor<4x4xf32>) permutation = [1, 0] 
    %323 = linalg.matmul ins(%collapsed_262, %transposed_263 : tensor<3x4xf32>, tensor<4x4xf32>) outs(%40 : tensor<3x4xf32>) -> tensor<3x4xf32>
    %324 = linalg.generic {indexing_maps = [#map, #map1, #map], iterator_types = ["parallel", "parallel"]} ins(%323, %321 : tensor<3x4xf32>, tensor<4xf32>) outs(%39 : tensor<3x4xf32>) {
    ^bb0(%in: f32, %in_298: f32, %out: f32):
      %398 = arith.addf %in, %in_298 : f32
      linalg.yield %398 : f32
    } -> tensor<3x4xf32>
    %transposed_264 = linalg.transpose ins(%expanded_261 : tensor<8x4xf32>) outs(%66 : tensor<4x8xf32>) permutation = [1, 0] 
    %325 = linalg.matmul ins(%collapsed_191, %transposed_264 : tensor<3x4xf32>, tensor<4x8xf32>) outs(%68 : tensor<3x8xf32>) -> tensor<3x8xf32>
    %326 = linalg.generic {indexing_maps = [#map, #map1, #map], iterator_types = ["parallel", "parallel"]} ins(%325, %322 : tensor<3x8xf32>, tensor<8xf32>) outs(%67 : tensor<3x8xf32>) {
    ^bb0(%in: f32, %in_298: f32, %out: f32):
      %398 = arith.addf %in, %in_298 : f32
      linalg.yield %398 : f32
    } -> tensor<3x8xf32>
    %expanded_265 = tensor.expand_shape %326 [[0, 1], [2, 3, 4]] output_shape [1, 3, 1, 2, 4] : tensor<3x8xf32> into tensor<1x3x1x2x4xf32>
    %transposed_266 = linalg.transpose ins(%expanded_265 : tensor<1x3x1x2x4xf32>) outs(%228 : tensor<2x3x1x1x4xf32>) permutation = [3, 1, 2, 0, 4] 
    %collapsed_267 = tensor.collapse_shape %transposed_266 [[0], [1], [2, 3], [4]] : tensor<2x3x1x1x4xf32> into tensor<2x3x1x4xf32>
    %extracted_slice_268 = tensor.extract_slice %collapsed_267[0, 0, 0, 0] [1, 3, 1, 4] [1, 1, 1, 1] : tensor<2x3x1x4xf32> to tensor<1x3x1x4xf32>
    %extracted_slice_269 = tensor.extract_slice %collapsed_267[1, 0, 0, 0] [1, 3, 1, 4] [1, 1, 1, 1] : tensor<2x3x1x4xf32> to tensor<1x3x1x4xf32>
    %expanded_270 = tensor.expand_shape %324 [[0], [1, 2]] output_shape [3, 2, 2] : tensor<3x4xf32> into tensor<3x2x2xf32>
    %transposed_271 = linalg.transpose ins(%expanded_270 : tensor<3x2x2xf32>) outs(%7 : tensor<2x3x2xf32>) permutation = [1, 0, 2] 
    %collapsed_272 = tensor.collapse_shape %extracted_slice_268 [[0, 1], [2, 3]] : tensor<1x3x1x4xf32> into tensor<3x4xf32>
    %expanded_273 = tensor.expand_shape %collapsed_272 [[0], [1, 2]] output_shape [3, 2, 2] : tensor<3x4xf32> into tensor<3x2x2xf32>
    %transposed_274 = linalg.transpose ins(%expanded_273 : tensor<3x2x2xf32>) outs(%7 : tensor<2x3x2xf32>) permutation = [1, 0, 2] 
    %collapsed_275 = tensor.collapse_shape %extracted_slice_269 [[0, 1], [2, 3]] : tensor<1x3x1x4xf32> into tensor<3x4xf32>
    %expanded_276 = tensor.expand_shape %collapsed_275 [[0], [1, 2]] output_shape [3, 2, 2] : tensor<3x4xf32> into tensor<3x2x2xf32>
    %transposed_277 = linalg.transpose ins(%expanded_276 : tensor<3x2x2xf32>) outs(%7 : tensor<2x3x2xf32>) permutation = [1, 0, 2] 
    %expanded_278 = tensor.expand_shape %transposed_271 [[0, 1], [2], [3]] output_shape [1, 2, 3, 2] : tensor<2x3x2xf32> into tensor<1x2x3x2xf32>
    %expanded_279 = tensor.expand_shape %transposed_274 [[0, 1], [2], [3]] output_shape [1, 2, 3, 2] : tensor<2x3x2xf32> into tensor<1x2x3x2xf32>
    %327 = linalg.generic {indexing_maps = [#map2, #map2], iterator_types = ["parallel", "parallel", "parallel", "parallel"]} ins(%expanded_278 : tensor<1x2x3x2xf32>) outs(%8 : tensor<1x2x3x2xf32>) {
    ^bb0(%in: f32, %out: f32):
      %398 = arith.truncf %cst_7 : f64 to f32
      %399 = arith.mulf %in, %398 : f32
      linalg.yield %399 : f32
    } -> tensor<1x2x3x2xf32>
    %transposed_280 = linalg.transpose ins(%expanded_279 : tensor<1x2x3x2xf32>) outs(%10 : tensor<1x2x2x3xf32>) permutation = [0, 1, 3, 2] 
    %328 = linalg.generic {indexing_maps = [#map2, #map2], iterator_types = ["parallel", "parallel", "parallel", "parallel"]} ins(%transposed_280 : tensor<1x2x2x3xf32>) outs(%10 : tensor<1x2x2x3xf32>) {
    ^bb0(%in: f32, %out: f32):
      %398 = arith.truncf %cst_7 : f64 to f32
      %399 = arith.mulf %in, %398 : f32
      linalg.yield %399 : f32
    } -> tensor<1x2x2x3xf32>
    %collapsed_281 = tensor.collapse_shape %327 [[0, 1], [2], [3]] : tensor<1x2x3x2xf32> into tensor<2x3x2xf32>
    %collapsed_282 = tensor.collapse_shape %328 [[0, 1], [2], [3]] : tensor<1x2x2x3xf32> into tensor<2x2x3xf32>
    %329 = linalg.batch_matmul ins(%collapsed_281, %collapsed_282 : tensor<2x3x2xf32>, tensor<2x2x3xf32>) outs(%13 : tensor<2x3x3xf32>) -> tensor<2x3x3xf32>
    %expanded_283 = tensor.expand_shape %329 [[0, 1], [2], [3]] output_shape [1, 2, 3, 3] : tensor<2x3x3xf32> into tensor<1x2x3x3xf32>
    %330:2 = linalg.generic {indexing_maps = [#map2, #map3, #map3], iterator_types = ["parallel", "parallel", "parallel", "reduction"]} ins(%expanded_283 : tensor<1x2x3x3xf32>) outs(%18, %16 : tensor<1x2x3xf32>, tensor<1x2x3xi64>) {
    ^bb0(%in: f32, %out: f32, %out_298: i64):
      %398 = linalg.index 3 : index
      %399 = arith.index_cast %398 : index to i64
      %400 = arith.maximumf %in, %out : f32
      %401 = arith.cmpf ogt, %in, %out : f32
      %402 = arith.select %401, %399, %out_298 : i64
      linalg.yield %400, %402 : f32, i64
    } -> (tensor<1x2x3xf32>, tensor<1x2x3xi64>)
    %expanded_284 = tensor.expand_shape %330#0 [[0], [1], [2, 3]] output_shape [1, 2, 3, 1] : tensor<1x2x3xf32> into tensor<1x2x3x1xf32>
    %331 = linalg.generic {indexing_maps = [#map2, #map4, #map2], iterator_types = ["parallel", "parallel", "parallel", "parallel"]} ins(%expanded_283, %expanded_284 : tensor<1x2x3x3xf32>, tensor<1x2x3x1xf32>) outs(%20 : tensor<1x2x3x3xf32>) {
    ^bb0(%in: f32, %in_298: f32, %out: f32):
      %398 = arith.subf %in, %in_298 : f32
      linalg.yield %398 : f32
    } -> tensor<1x2x3x3xf32>
    %332 = linalg.generic {indexing_maps = [#map2, #map2], iterator_types = ["parallel", "parallel", "parallel", "parallel"]} ins(%331 : tensor<1x2x3x3xf32>) outs(%20 : tensor<1x2x3x3xf32>) {
    ^bb0(%in: f32, %out: f32):
      %398 = math.exp %in : f32
      linalg.yield %398 : f32
    } -> tensor<1x2x3x3xf32>
    %333 = linalg.generic {indexing_maps = [#map2, #map4], iterator_types = ["parallel", "parallel", "parallel", "reduction"]} ins(%332 : tensor<1x2x3x3xf32>) outs(%24 : tensor<1x2x3x1xf32>) {
    ^bb0(%in: f32, %out: f32):
      %398 = arith.addf %in, %out : f32
      linalg.yield %398 : f32
    } -> tensor<1x2x3x1xf32>
    %334 = linalg.generic {indexing_maps = [#map2, #map4, #map2], iterator_types = ["parallel", "parallel", "parallel", "parallel"]} ins(%332, %333 : tensor<1x2x3x3xf32>, tensor<1x2x3x1xf32>) outs(%20 : tensor<1x2x3x3xf32>) {
    ^bb0(%in: f32, %in_298: f32, %out: f32):
      %398 = arith.divf %in, %in_298 : f32
      linalg.yield %398 : f32
    } -> tensor<1x2x3x3xf32>
    %335 = linalg.generic {indexing_maps = [#map2, #map2], iterator_types = ["parallel", "parallel", "parallel", "parallel"]} ins(%expanded_283 : tensor<1x2x3x3xf32>) outs(%27 : tensor<1x2x3x3xi1>) {
    ^bb0(%in: f32, %out: i1):
      %398 = arith.extf %in : f32 to f64
      %399 = arith.cmpf oeq, %398, %cst_6 : f64
      linalg.yield %399 : i1
    } -> tensor<1x2x3x3xi1>
    %336 = linalg.generic {indexing_maps = [#map2, #map2], iterator_types = ["parallel", "parallel", "parallel", "parallel"]} ins(%335 : tensor<1x2x3x3xi1>) outs(%27 : tensor<1x2x3x3xi1>) {
    ^bb0(%in: i1, %out: i1):
      %398 = arith.cmpi eq, %in, %false : i1
      linalg.yield %398 : i1
    } -> tensor<1x2x3x3xi1>
    %337 = linalg.generic {indexing_maps = [#map2, #map4], iterator_types = ["parallel", "parallel", "parallel", "reduction"]} ins(%336 : tensor<1x2x3x3xi1>) outs(%31 : tensor<1x2x3x1xi1>) {
    ^bb0(%in: i1, %out: i1):
      %398 = arith.ori %in, %out : i1
      linalg.yield %398 : i1
    } -> tensor<1x2x3x1xi1>
    %338 = linalg.generic {indexing_maps = [#map2, #map2], iterator_types = ["parallel", "parallel", "parallel", "parallel"]} ins(%337 : tensor<1x2x3x1xi1>) outs(%30 : tensor<1x2x3x1xi1>) {
    ^bb0(%in: i1, %out: i1):
      %398 = arith.cmpi eq, %in, %false : i1
      linalg.yield %398 : i1
    } -> tensor<1x2x3x1xi1>
    %339 = linalg.generic {indexing_maps = [#map4, #map2, #map2, #map2], iterator_types = ["parallel", "parallel", "parallel", "parallel"]} ins(%338, %cst_74, %334 : tensor<1x2x3x1xi1>, tensor<1x2x3x3xf32>, tensor<1x2x3x3xf32>) outs(%20 : tensor<1x2x3x3xf32>) {
    ^bb0(%in: i1, %in_298: f32, %in_299: f32, %out: f32):
      %398 = arith.select %in, %in_298, %in_299 : f32
      linalg.yield %398 : f32
    } -> tensor<1x2x3x3xf32>
    %collapsed_285 = tensor.collapse_shape %339 [[0, 1], [2], [3]] : tensor<1x2x3x3xf32> into tensor<2x3x3xf32>
    %340 = linalg.batch_matmul ins(%collapsed_285, %transposed_277 : tensor<2x3x3xf32>, tensor<2x3x2xf32>) outs(%35 : tensor<2x3x2xf32>) -> tensor<2x3x2xf32>
    %expanded_286 = tensor.expand_shape %340 [[0, 1], [2], [3]] output_shape [1, 2, 3, 2] : tensor<2x3x2xf32> into tensor<1x2x3x2xf32>
    %transposed_287 = linalg.transpose ins(%expanded_286 : tensor<1x2x3x2xf32>) outs(%37 : tensor<3x1x2x2xf32>) permutation = [2, 0, 1, 3] 
    %collapsed_288 = tensor.collapse_shape %transposed_287 [[0], [1, 2, 3]] : tensor<3x1x2x2xf32> into tensor<3x4xf32>
    %transposed_289 = linalg.transpose ins(%cst_62 : tensor<4x4xf32>) outs(%38 : tensor<4x4xf32>) permutation = [1, 0] 
    %341 = linalg.matmul ins(%collapsed_288, %transposed_289 : tensor<3x4xf32>, tensor<4x4xf32>) outs(%40 : tensor<3x4xf32>) -> tensor<3x4xf32>
    %342 = linalg.generic {indexing_maps = [#map, #map1, #map], iterator_types = ["parallel", "parallel"]} ins(%341, %cst_63 : tensor<3x4xf32>, tensor<4xf32>) outs(%39 : tensor<3x4xf32>) {
    ^bb0(%in: f32, %in_298: f32, %out: f32):
      %398 = arith.addf %in, %in_298 : f32
      linalg.yield %398 : f32
    } -> tensor<3x4xf32>
    %expanded_290 = tensor.expand_shape %342 [[0], [1, 2]] output_shape [3, 1, 4] : tensor<3x4xf32> into tensor<3x1x4xf32>
    %transposed_291 = linalg.transpose ins(%expanded_290 : tensor<3x1x4xf32>) outs(%43 : tensor<1x3x4xf32>) permutation = [1, 0, 2] 
    %343 = linalg.generic {indexing_maps = [#map5, #map5, #map5], iterator_types = ["parallel", "parallel", "parallel"]} ins(%318, %transposed_291 : tensor<1x3x4xf32>, tensor<1x3x4xf32>) outs(%43 : tensor<1x3x4xf32>) {
    ^bb0(%in: f32, %in_298: f32, %out: f32):
      %398 = arith.addf %in, %in_298 : f32
      linalg.yield %398 : f32
    } -> tensor<1x3x4xf32>
    %344 = linalg.generic {indexing_maps = [#map5, #map5], iterator_types = ["parallel", "parallel", "parallel"]} ins(%343 : tensor<1x3x4xf32>) outs(%45 : tensor<1x3x4xf64>) {
    ^bb0(%in: f32, %out: f64):
      %398 = arith.extf %in : f32 to f64
      linalg.yield %398 : f64
    } -> tensor<1x3x4xf64>
    %345 = linalg.generic {indexing_maps = [#map5, #map6], iterator_types = ["parallel", "parallel", "reduction"]} ins(%344 : tensor<1x3x4xf64>) outs(%48 : tensor<1x3x1xf64>) {
    ^bb0(%in: f64, %out: f64):
      %398 = arith.addf %in, %out : f64
      linalg.yield %398 : f64
    } -> tensor<1x3x1xf64>
    %346 = linalg.generic {indexing_maps = [#map5, #map5], iterator_types = ["parallel", "parallel", "parallel"]} ins(%345 : tensor<1x3x1xf64>) outs(%47 : tensor<1x3x1xf64>) {
    ^bb0(%in: f64, %out: f64):
      %398 = arith.divf %in, %cst_8 : f64
      linalg.yield %398 : f64
    } -> tensor<1x3x1xf64>
    %347 = linalg.generic {indexing_maps = [#map5, #map6, #map5], iterator_types = ["parallel", "parallel", "parallel"]} ins(%344, %346 : tensor<1x3x4xf64>, tensor<1x3x1xf64>) outs(%45 : tensor<1x3x4xf64>) {
    ^bb0(%in: f64, %in_298: f64, %out: f64):
      %398 = arith.subf %in, %in_298 : f64
      linalg.yield %398 : f64
    } -> tensor<1x3x4xf64>
    %348 = linalg.generic {indexing_maps = [#map5, #map5, #map5], iterator_types = ["parallel", "parallel", "parallel"]} ins(%347, %347 : tensor<1x3x4xf64>, tensor<1x3x4xf64>) outs(%45 : tensor<1x3x4xf64>) {
    ^bb0(%in: f64, %in_298: f64, %out: f64):
      %398 = arith.mulf %in, %in_298 : f64
      linalg.yield %398 : f64
    } -> tensor<1x3x4xf64>
    %349 = linalg.generic {indexing_maps = [#map5, #map6], iterator_types = ["parallel", "parallel", "reduction"]} ins(%348 : tensor<1x3x4xf64>) outs(%48 : tensor<1x3x1xf64>) {
    ^bb0(%in: f64, %out: f64):
      %398 = arith.addf %in, %out : f64
      linalg.yield %398 : f64
    } -> tensor<1x3x1xf64>
    %350 = linalg.generic {indexing_maps = [#map5, #map5], iterator_types = ["parallel", "parallel", "parallel"]} ins(%349 : tensor<1x3x1xf64>) outs(%47 : tensor<1x3x1xf64>) {
    ^bb0(%in: f64, %out: f64):
      %398 = arith.divf %in, %cst_8 : f64
      linalg.yield %398 : f64
    } -> tensor<1x3x1xf64>
    %351 = linalg.generic {indexing_maps = [#map5, #map5], iterator_types = ["parallel", "parallel", "parallel"]} ins(%350 : tensor<1x3x1xf64>) outs(%55 : tensor<1x3x1xf32>) {
    ^bb0(%in: f64, %out: f32):
      %398 = arith.truncf %in : f64 to f32
      linalg.yield %398 : f32
    } -> tensor<1x3x1xf32>
    %352 = linalg.generic {indexing_maps = [#map5, #map6], iterator_types = ["parallel", "parallel", "reduction"]} ins(%343 : tensor<1x3x4xf32>) outs(%57 : tensor<1x3x1xf32>) {
    ^bb0(%in: f32, %out: f32):
      %398 = arith.addf %in, %out : f32
      linalg.yield %398 : f32
    } -> tensor<1x3x1xf32>
    %353 = linalg.generic {indexing_maps = [#map5, #map5], iterator_types = ["parallel", "parallel", "parallel"]} ins(%352 : tensor<1x3x1xf32>) outs(%55 : tensor<1x3x1xf32>) {
    ^bb0(%in: f32, %out: f32):
      %398 = arith.divf %in, %cst_9 : f32
      linalg.yield %398 : f32
    } -> tensor<1x3x1xf32>
    %354 = linalg.generic {indexing_maps = [#map5, #map5], iterator_types = ["parallel", "parallel", "parallel"]} ins(%351 : tensor<1x3x1xf32>) outs(%55 : tensor<1x3x1xf32>) {
    ^bb0(%in: f32, %out: f32):
      %398 = arith.truncf %cst_5 : f64 to f32
      %399 = arith.addf %in, %398 : f32
      linalg.yield %399 : f32
    } -> tensor<1x3x1xf32>
    %355 = linalg.generic {indexing_maps = [#map5, #map5], iterator_types = ["parallel", "parallel", "parallel"]} ins(%354 : tensor<1x3x1xf32>) outs(%55 : tensor<1x3x1xf32>) {
    ^bb0(%in: f32, %out: f32):
      %398 = math.rsqrt %in : f32
      linalg.yield %398 : f32
    } -> tensor<1x3x1xf32>
    %356 = linalg.generic {indexing_maps = [#map5, #map6, #map5], iterator_types = ["parallel", "parallel", "parallel"]} ins(%343, %353 : tensor<1x3x4xf32>, tensor<1x3x1xf32>) outs(%43 : tensor<1x3x4xf32>) {
    ^bb0(%in: f32, %in_298: f32, %out: f32):
      %398 = arith.subf %in, %in_298 : f32
      linalg.yield %398 : f32
    } -> tensor<1x3x4xf32>
    %357 = linalg.generic {indexing_maps = [#map5, #map6, #map5], iterator_types = ["parallel", "parallel", "parallel"]} ins(%356, %355 : tensor<1x3x4xf32>, tensor<1x3x1xf32>) outs(%43 : tensor<1x3x4xf32>) {
    ^bb0(%in: f32, %in_298: f32, %out: f32):
      %398 = arith.mulf %in, %in_298 : f32
      linalg.yield %398 : f32
    } -> tensor<1x3x4xf32>
    %358 = linalg.generic {indexing_maps = [#map5, #map7, #map5], iterator_types = ["parallel", "parallel", "parallel"]} ins(%357, %cst_64 : tensor<1x3x4xf32>, tensor<4xf32>) outs(%43 : tensor<1x3x4xf32>) {
    ^bb0(%in: f32, %in_298: f32, %out: f32):
      %398 = arith.mulf %in, %in_298 : f32
      linalg.yield %398 : f32
    } -> tensor<1x3x4xf32>
    %359 = linalg.generic {indexing_maps = [#map5, #map7, #map5], iterator_types = ["parallel", "parallel", "parallel"]} ins(%358, %cst_65 : tensor<1x3x4xf32>, tensor<4xf32>) outs(%43 : tensor<1x3x4xf32>) {
    ^bb0(%in: f32, %in_298: f32, %out: f32):
      %398 = arith.addf %in, %in_298 : f32
      linalg.yield %398 : f32
    } -> tensor<1x3x4xf32>
    %collapsed_292 = tensor.collapse_shape %359 [[0, 1], [2]] : tensor<1x3x4xf32> into tensor<3x4xf32>
    %transposed_293 = linalg.transpose ins(%cst_66 : tensor<8x4xf32>) outs(%66 : tensor<4x8xf32>) permutation = [1, 0] 
    %360 = linalg.matmul ins(%collapsed_292, %transposed_293 : tensor<3x4xf32>, tensor<4x8xf32>) outs(%68 : tensor<3x8xf32>) -> tensor<3x8xf32>
    %361 = linalg.generic {indexing_maps = [#map, #map1, #map], iterator_types = ["parallel", "parallel"]} ins(%360, %cst_67 : tensor<3x8xf32>, tensor<8xf32>) outs(%67 : tensor<3x8xf32>) {
    ^bb0(%in: f32, %in_298: f32, %out: f32):
      %398 = arith.addf %in, %in_298 : f32
      linalg.yield %398 : f32
    } -> tensor<3x8xf32>
    %expanded_294 = tensor.expand_shape %361 [[0, 1], [2]] output_shape [1, 3, 8] : tensor<3x8xf32> into tensor<1x3x8xf32>
    %362 = linalg.generic {indexing_maps = [#map5, #map5], iterator_types = ["parallel", "parallel", "parallel"]} ins(%expanded_294 : tensor<1x3x8xf32>) outs(%71 : tensor<1x3x8xf32>) {
    ^bb0(%in: f32, %out: f32):
      %398 = arith.divf %in, %cst_10 : f32
      %399 = math.erf %398 : f32
      %400 = arith.addf %399, %cst_3 : f32
      %401 = arith.mulf %400, %cst_4 : f32
      %402 = arith.mulf %in, %401 : f32
      linalg.yield %402 : f32
    } -> tensor<1x3x8xf32>
    %collapsed_295 = tensor.collapse_shape %362 [[0, 1], [2]] : tensor<1x3x8xf32> into tensor<3x8xf32>
    %transposed_296 = linalg.transpose ins(%cst_68 : tensor<4x8xf32>) outs(%73 : tensor<8x4xf32>) permutation = [1, 0] 
    %363 = linalg.matmul ins(%collapsed_295, %transposed_296 : tensor<3x8xf32>, tensor<8x4xf32>) outs(%40 : tensor<3x4xf32>) -> tensor<3x4xf32>
    %364 = linalg.generic {indexing_maps = [#map, #map1, #map], iterator_types = ["parallel", "parallel"]} ins(%363, %cst_69 : tensor<3x4xf32>, tensor<4xf32>) outs(%39 : tensor<3x4xf32>) {
    ^bb0(%in: f32, %in_298: f32, %out: f32):
      %398 = arith.addf %in, %in_298 : f32
      linalg.yield %398 : f32
    } -> tensor<3x4xf32>
    %expanded_297 = tensor.expand_shape %364 [[0, 1], [2]] output_shape [1, 3, 4] : tensor<3x4xf32> into tensor<1x3x4xf32>
    %365 = linalg.generic {indexing_maps = [#map5, #map5, #map5], iterator_types = ["parallel", "parallel", "parallel"]} ins(%359, %expanded_297 : tensor<1x3x4xf32>, tensor<1x3x4xf32>) outs(%43 : tensor<1x3x4xf32>) {
    ^bb0(%in: f32, %in_298: f32, %out: f32):
      %398 = arith.addf %in, %in_298 : f32
      linalg.yield %398 : f32
    } -> tensor<1x3x4xf32>
    %366 = linalg.generic {indexing_maps = [#map5, #map5], iterator_types = ["parallel", "parallel", "parallel"]} ins(%365 : tensor<1x3x4xf32>) outs(%45 : tensor<1x3x4xf64>) {
    ^bb0(%in: f32, %out: f64):
      %398 = arith.extf %in : f32 to f64
      linalg.yield %398 : f64
    } -> tensor<1x3x4xf64>
    %367 = linalg.generic {indexing_maps = [#map5, #map6], iterator_types = ["parallel", "parallel", "reduction"]} ins(%366 : tensor<1x3x4xf64>) outs(%48 : tensor<1x3x1xf64>) {
    ^bb0(%in: f64, %out: f64):
      %398 = arith.addf %in, %out : f64
      linalg.yield %398 : f64
    } -> tensor<1x3x1xf64>
    %368 = linalg.generic {indexing_maps = [#map5, #map5], iterator_types = ["parallel", "parallel", "parallel"]} ins(%367 : tensor<1x3x1xf64>) outs(%47 : tensor<1x3x1xf64>) {
    ^bb0(%in: f64, %out: f64):
      %398 = arith.divf %in, %cst_8 : f64
      linalg.yield %398 : f64
    } -> tensor<1x3x1xf64>
    %369 = linalg.generic {indexing_maps = [#map5, #map6, #map5], iterator_types = ["parallel", "parallel", "parallel"]} ins(%366, %368 : tensor<1x3x4xf64>, tensor<1x3x1xf64>) outs(%45 : tensor<1x3x4xf64>) {
    ^bb0(%in: f64, %in_298: f64, %out: f64):
      %398 = arith.subf %in, %in_298 : f64
      linalg.yield %398 : f64
    } -> tensor<1x3x4xf64>
    %370 = linalg.generic {indexing_maps = [#map5, #map5, #map5], iterator_types = ["parallel", "parallel", "parallel"]} ins(%369, %369 : tensor<1x3x4xf64>, tensor<1x3x4xf64>) outs(%45 : tensor<1x3x4xf64>) {
    ^bb0(%in: f64, %in_298: f64, %out: f64):
      %398 = arith.mulf %in, %in_298 : f64
      linalg.yield %398 : f64
    } -> tensor<1x3x4xf64>
    %371 = linalg.generic {indexing_maps = [#map5, #map6], iterator_types = ["parallel", "parallel", "reduction"]} ins(%370 : tensor<1x3x4xf64>) outs(%48 : tensor<1x3x1xf64>) {
    ^bb0(%in: f64, %out: f64):
      %398 = arith.addf %in, %out : f64
      linalg.yield %398 : f64
    } -> tensor<1x3x1xf64>
    %372 = linalg.generic {indexing_maps = [#map5, #map5], iterator_types = ["parallel", "parallel", "parallel"]} ins(%371 : tensor<1x3x1xf64>) outs(%47 : tensor<1x3x1xf64>) {
    ^bb0(%in: f64, %out: f64):
      %398 = arith.divf %in, %cst_8 : f64
      linalg.yield %398 : f64
    } -> tensor<1x3x1xf64>
    %373 = linalg.generic {indexing_maps = [#map5, #map5], iterator_types = ["parallel", "parallel", "parallel"]} ins(%372 : tensor<1x3x1xf64>) outs(%55 : tensor<1x3x1xf32>) {
    ^bb0(%in: f64, %out: f32):
      %398 = arith.truncf %in : f64 to f32
      linalg.yield %398 : f32
    } -> tensor<1x3x1xf32>
    %374 = linalg.generic {indexing_maps = [#map5, #map6], iterator_types = ["parallel", "parallel", "reduction"]} ins(%365 : tensor<1x3x4xf32>) outs(%57 : tensor<1x3x1xf32>) {
    ^bb0(%in: f32, %out: f32):
      %398 = arith.addf %in, %out : f32
      linalg.yield %398 : f32
    } -> tensor<1x3x1xf32>
    %375 = linalg.generic {indexing_maps = [#map5, #map5], iterator_types = ["parallel", "parallel", "parallel"]} ins(%374 : tensor<1x3x1xf32>) outs(%55 : tensor<1x3x1xf32>) {
    ^bb0(%in: f32, %out: f32):
      %398 = arith.divf %in, %cst_9 : f32
      linalg.yield %398 : f32
    } -> tensor<1x3x1xf32>
    %376 = linalg.generic {indexing_maps = [#map5, #map5], iterator_types = ["parallel", "parallel", "parallel"]} ins(%373 : tensor<1x3x1xf32>) outs(%55 : tensor<1x3x1xf32>) {
    ^bb0(%in: f32, %out: f32):
      %398 = arith.truncf %cst_5 : f64 to f32
      %399 = arith.addf %in, %398 : f32
      linalg.yield %399 : f32
    } -> tensor<1x3x1xf32>
    %377 = linalg.generic {indexing_maps = [#map5, #map5], iterator_types = ["parallel", "parallel", "parallel"]} ins(%376 : tensor<1x3x1xf32>) outs(%55 : tensor<1x3x1xf32>) {
    ^bb0(%in: f32, %out: f32):
      %398 = math.rsqrt %in : f32
      linalg.yield %398 : f32
    } -> tensor<1x3x1xf32>
    %378 = linalg.generic {indexing_maps = [#map5, #map6, #map5], iterator_types = ["parallel", "parallel", "parallel"]} ins(%365, %375 : tensor<1x3x4xf32>, tensor<1x3x1xf32>) outs(%43 : tensor<1x3x4xf32>) {
    ^bb0(%in: f32, %in_298: f32, %out: f32):
      %398 = arith.subf %in, %in_298 : f32
      linalg.yield %398 : f32
    } -> tensor<1x3x4xf32>
    %379 = linalg.generic {indexing_maps = [#map5, #map6, #map5], iterator_types = ["parallel", "parallel", "parallel"]} ins(%378, %377 : tensor<1x3x4xf32>, tensor<1x3x1xf32>) outs(%43 : tensor<1x3x4xf32>) {
    ^bb0(%in: f32, %in_298: f32, %out: f32):
      %398 = arith.mulf %in, %in_298 : f32
      linalg.yield %398 : f32
    } -> tensor<1x3x4xf32>
    %380 = linalg.generic {indexing_maps = [#map5, #map7, #map5], iterator_types = ["parallel", "parallel", "parallel"]} ins(%379, %cst_70 : tensor<1x3x4xf32>, tensor<4xf32>) outs(%43 : tensor<1x3x4xf32>) {
    ^bb0(%in: f32, %in_298: f32, %out: f32):
      %398 = arith.mulf %in, %in_298 : f32
      linalg.yield %398 : f32
    } -> tensor<1x3x4xf32>
    %381 = linalg.generic {indexing_maps = [#map5, #map7, #map5], iterator_types = ["parallel", "parallel", "parallel"]} ins(%380, %cst_71 : tensor<1x3x4xf32>, tensor<4xf32>) outs(%43 : tensor<1x3x4xf32>) {
    ^bb0(%in: f32, %in_298: f32, %out: f32):
      %398 = arith.addf %in, %in_298 : f32
      linalg.yield %398 : f32
    } -> tensor<1x3x4xf32>
    %382 = linalg.generic {indexing_maps = [#map5, #map5], iterator_types = ["parallel", "parallel", "parallel"]} ins(%381 : tensor<1x3x4xf32>) outs(%45 : tensor<1x3x4xf64>) {
    ^bb0(%in: f32, %out: f64):
      %398 = arith.extf %in : f32 to f64
      linalg.yield %398 : f64
    } -> tensor<1x3x4xf64>
    %383 = linalg.generic {indexing_maps = [#map5, #map6], iterator_types = ["parallel", "parallel", "reduction"]} ins(%382 : tensor<1x3x4xf64>) outs(%48 : tensor<1x3x1xf64>) {
    ^bb0(%in: f64, %out: f64):
      %398 = arith.addf %in, %out : f64
      linalg.yield %398 : f64
    } -> tensor<1x3x1xf64>
    %384 = linalg.generic {indexing_maps = [#map5, #map5], iterator_types = ["parallel", "parallel", "parallel"]} ins(%383 : tensor<1x3x1xf64>) outs(%47 : tensor<1x3x1xf64>) {
    ^bb0(%in: f64, %out: f64):
      %398 = arith.divf %in, %cst_8 : f64
      linalg.yield %398 : f64
    } -> tensor<1x3x1xf64>
    %385 = linalg.generic {indexing_maps = [#map5, #map6, #map5], iterator_types = ["parallel", "parallel", "parallel"]} ins(%382, %384 : tensor<1x3x4xf64>, tensor<1x3x1xf64>) outs(%45 : tensor<1x3x4xf64>) {
    ^bb0(%in: f64, %in_298: f64, %out: f64):
      %398 = arith.subf %in, %in_298 : f64
      linalg.yield %398 : f64
    } -> tensor<1x3x4xf64>
    %386 = linalg.generic {indexing_maps = [#map5, #map5, #map5], iterator_types = ["parallel", "parallel", "parallel"]} ins(%385, %385 : tensor<1x3x4xf64>, tensor<1x3x4xf64>) outs(%45 : tensor<1x3x4xf64>) {
    ^bb0(%in: f64, %in_298: f64, %out: f64):
      %398 = arith.mulf %in, %in_298 : f64
      linalg.yield %398 : f64
    } -> tensor<1x3x4xf64>
    %387 = linalg.generic {indexing_maps = [#map5, #map6], iterator_types = ["parallel", "parallel", "reduction"]} ins(%386 : tensor<1x3x4xf64>) outs(%48 : tensor<1x3x1xf64>) {
    ^bb0(%in: f64, %out: f64):
      %398 = arith.addf %in, %out : f64
      linalg.yield %398 : f64
    } -> tensor<1x3x1xf64>
    %388 = linalg.generic {indexing_maps = [#map5, #map5], iterator_types = ["parallel", "parallel", "parallel"]} ins(%387 : tensor<1x3x1xf64>) outs(%47 : tensor<1x3x1xf64>) {
    ^bb0(%in: f64, %out: f64):
      %398 = arith.divf %in, %cst_8 : f64
      linalg.yield %398 : f64
    } -> tensor<1x3x1xf64>
    %389 = linalg.generic {indexing_maps = [#map5, #map5], iterator_types = ["parallel", "parallel", "parallel"]} ins(%388 : tensor<1x3x1xf64>) outs(%55 : tensor<1x3x1xf32>) {
    ^bb0(%in: f64, %out: f32):
      %398 = arith.truncf %in : f64 to f32
      linalg.yield %398 : f32
    } -> tensor<1x3x1xf32>
    %390 = linalg.generic {indexing_maps = [#map5, #map6], iterator_types = ["parallel", "parallel", "reduction"]} ins(%381 : tensor<1x3x4xf32>) outs(%57 : tensor<1x3x1xf32>) {
    ^bb0(%in: f32, %out: f32):
      %398 = arith.addf %in, %out : f32
      linalg.yield %398 : f32
    } -> tensor<1x3x1xf32>
    %391 = linalg.generic {indexing_maps = [#map5, #map5], iterator_types = ["parallel", "parallel", "parallel"]} ins(%390 : tensor<1x3x1xf32>) outs(%55 : tensor<1x3x1xf32>) {
    ^bb0(%in: f32, %out: f32):
      %398 = arith.divf %in, %cst_9 : f32
      linalg.yield %398 : f32
    } -> tensor<1x3x1xf32>
    %392 = linalg.generic {indexing_maps = [#map5, #map5], iterator_types = ["parallel", "parallel", "parallel"]} ins(%389 : tensor<1x3x1xf32>) outs(%55 : tensor<1x3x1xf32>) {
    ^bb0(%in: f32, %out: f32):
      %398 = arith.truncf %cst_5 : f64 to f32
      %399 = arith.addf %in, %398 : f32
      linalg.yield %399 : f32
    } -> tensor<1x3x1xf32>
    %393 = linalg.generic {indexing_maps = [#map5, #map5], iterator_types = ["parallel", "parallel", "parallel"]} ins(%392 : tensor<1x3x1xf32>) outs(%55 : tensor<1x3x1xf32>) {
    ^bb0(%in: f32, %out: f32):
      %398 = math.rsqrt %in : f32
      linalg.yield %398 : f32
    } -> tensor<1x3x1xf32>
    %394 = linalg.generic {indexing_maps = [#map5, #map6, #map5], iterator_types = ["parallel", "parallel", "parallel"]} ins(%381, %391 : tensor<1x3x4xf32>, tensor<1x3x1xf32>) outs(%43 : tensor<1x3x4xf32>) {
    ^bb0(%in: f32, %in_298: f32, %out: f32):
      %398 = arith.subf %in, %in_298 : f32
      linalg.yield %398 : f32
    } -> tensor<1x3x4xf32>
    %395 = linalg.generic {indexing_maps = [#map5, #map6, #map5], iterator_types = ["parallel", "parallel", "parallel"]} ins(%394, %393 : tensor<1x3x4xf32>, tensor<1x3x1xf32>) outs(%43 : tensor<1x3x4xf32>) {
    ^bb0(%in: f32, %in_298: f32, %out: f32):
      %398 = arith.mulf %in, %in_298 : f32
      linalg.yield %398 : f32
    } -> tensor<1x3x4xf32>
    %396 = linalg.generic {indexing_maps = [#map5, #map7, #map5], iterator_types = ["parallel", "parallel", "parallel"]} ins(%395, %cst_72 : tensor<1x3x4xf32>, tensor<4xf32>) outs(%43 : tensor<1x3x4xf32>) {
    ^bb0(%in: f32, %in_298: f32, %out: f32):
      %398 = arith.mulf %in, %in_298 : f32
      linalg.yield %398 : f32
    } -> tensor<1x3x4xf32>
    %397 = linalg.generic {indexing_maps = [#map5, #map7, #map5], iterator_types = ["parallel", "parallel", "parallel"]} ins(%396, %cst_73 : tensor<1x3x4xf32>, tensor<4xf32>) outs(%43 : tensor<1x3x4xf32>) {
    ^bb0(%in: f32, %in_298: f32, %out: f32):
      %398 = arith.addf %in, %in_298 : f32
      linalg.yield %398 : f32
    } -> tensor<1x3x4xf32>
    return %397 : tensor<1x3x4xf32>
  }
}

{-#
  dialect_resources: {
    builtin: {
      torch_tensor_12_4_torch.float32: "…",
      torch_tensor_12_torch.float32: "…",
      torch_tensor_4_4_torch.float32: "…",
      torch_tensor_4_torch.float32: "0x0400000066111F3C66119F3C199AEE3C66111F3D",
      torch_tensor_4_torch.float32_1: "0x0400000026B4173C26B4973C398EE33C26B4173D",
      torch_tensor_4_torch.float32_2: "0x04000000DA4F163CDA4F963CC877E13CDA4F163D",
      torch_tensor_8_4_torch.float32: "…",
      torch_tensor_8_torch.float32: "…",
      torch_tensor_4_8_torch.float32: "…",
      torch_tensor_4_torch.float32_3: "0x040000001A1F193C1A1F993CA7AEE53C1A1F193D",
      torch_tensor_4_torch.float32_4: "0x0400000009F2143C09F2943C0E6BDF3C09F2143D",
      torch_tensor_4_torch.float32_5: "0x04000000869A133C869A933CC967DD3C869A133D",
      torch_tensor_12_4_torch.float32_1: "…",
      torch_tensor_12_torch.float32_1: "…",
      torch_tensor_4_4_torch.float32_1: "…",
      torch_tensor_4_torch.float32_6: "0x0400000035780E3C35788E3C50B4D53C35780E3D",
      torch_tensor_4_torch.float32_7: "0x040000008988083C8988883CCDCCCC3C8988083D",
      torch_tensor_4_torch.float32_8: "0x04000000AB67073CAB67873C811BCB3CAB67073D",
      torch_tensor_8_4_torch.float32_1: "…",
      torch_tensor_8_torch.float32_1: "…",
      torch_tensor_4_8_torch.float32_1: "…",
      torch_tensor_4_torch.float32_9: "0x0400000041AE093C41AE893C6185CE3C41AE093D",
      torch_tensor_4_torch.float32_10: "0x040000008A4B063C8A4B863C5071C93C8A4B063D",
      torch_tensor_4_torch.float32_11: "0x040000000834053C0834853C0CCEC73C0834053D",
      torch_tensor_4_torch.float32_12: "0x040000000821043C0821843C8C31C63C0821043D",
      torch_tensor_4_torch.float32_13: "0x040000006F12033C6F12833CA69BC43C6F12033D",
      torch_tensor_12_4_torch.float32_2: "…",
      torch_tensor_12_torch.float32_2: "…",
      torch_tensor_4_4_torch.float32_2: "…",
      torch_tensor_4_torch.float32_14: "0x04000000F803FE3BF8037E3CFA82BE3CF803FE3C",
      torch_tensor_4_torch.float32_15: "0x040000000473ED3B04736D3C4316B23C0473ED3C",
      torch_tensor_4_torch.float32_16: "0x04000000B3BDEB3BB3BD6B3C46CEB03CB3BDEB3C",
      torch_tensor_12_4_torch.float32_3: "…",
      torch_tensor_12_torch.float32_3: "…",
      torch_tensor_4_4_torch.float32_3: "…",
      torch_tensor_4_torch.float32_17: "0x040000003E60F63B3E60763C2EC8B83C3E60F63C",
      torch_tensor_4_torch.float32_18: "0x04000000A10EEA3BA10E6A3CF98AAF3CA10EEA3C",
      torch_tensor_4_torch.float32_19: "0x04000000AC65E83BAC65683C414CAE3CAC65E83C",
      torch_tensor_8_4_torch.float32_2: "…",
      torch_tensor_8_torch.float32_2: "…",
      torch_tensor_4_8_torch.float32_2: "…",
      torch_tensor_4_torch.float32_20: "0x04000000B72EEF3BB72E6F3C0963B33CB72EEF3C",
      torch_tensor_4_torch.float32_21: "0x04000000B4C2E63BB4C2663C0712AD3CB4C2E63C",
      torch_tensor_4_torch.float32_22: "0x040000009825E53B9825653C32DCAB3C9825E53C",
      torch_tensor_12_4_torch.float32_4: "…",
      torch_tensor_12_torch.float32_4: "…",
      torch_tensor_4_4_torch.float32_4: "…",
      torch_tensor_4_torch.float32_23: "0x040000005CE9DE3B5CE95E3C052FA73C5CE9DE3C",
      torch_tensor_4_torch.float32_24: "0x04000000210DD23B210D523CD9899D3C210DD23C",
      torch_tensor_4_torch.float32_25: "0x04000000A0B6D03BA0B6503CF8889C3CA0B6D03C",
      torch_tensor_12_4_torch.float32_5: "…",
      torch_tensor_12_torch.float32_5: "…",
      torch_tensor_4_4_torch.float32_5: "…",
      torch_tensor_4_torch.float32_26: "0x04000000B201D93BB201593C46C1A23CB201D93C",
      torch_tensor_4_torch.float32_27: "0x040000007564CF3B75644F3C578B9B3C7564CF3C",
      torch_tensor_4_torch.float32_28: "0x040000008A16CE3B8A164E3CE8909A3C8A16CE3C",
      torch_tensor_8_4_torch.float32_3: "…",
      torch_tensor_8_torch.float32_3: "…",
      torch_tensor_4_8_torch.float32_3: "…",
      torch_tensor_4_torch.float32_29: "0x040000000D68D33B0D68533C0A8E9E3C0D68D33C",
      torch_tensor_4_torch.float32_30: "0x04000000CDCCCC3BCDCC4C3C9A99993CCDCCCC3C",
      torch_tensor_4_torch.float32_31: "0x040000002887CB3B28874B3C5EA5983C2887CB3C",
      torch_tensor_4_torch.float32_32: "0x040000008845CA3B88454A3C26B4973C8845CA3C",
      torch_tensor_4_torch.float32_33: "0x04000000DA07C93BDA07493CE4C5963CDA07C93C"
    }
  }
#-}

